results/dynamic_quantized_model.pth (torch, 219724 bytes, 8 tensors)

features.0.weight f4 [6, 1, 5, 5]
0.025099054 -0.4151156 -0.5624209 -0.6606055 -1.0165259 0.48034412 0.43388313 0.56834537
0.12475046 -0.3805383 0.33038196 0.6427148 0.9295081 0.61790407 0.12225061 -0.3874964
-0.18011034 0.09897248 0.5862076 0.25902548 -0.84781486 -1.0599402 -0.92713827 -0.49121866
-0.151132 -0.65858674 0.36239177 0.013647562 -0.60595393 0.36212543 -0.32366204 1.0040874
0.71764374 -0.0521218 -0.012283826 0.09748864 0.9906689 0.30914396 -0.14086641 -0.6353975
0.7019455 0.16486186 -0.52133554 -0.9071973 -0.7970579 -0.58793235 -1.0701663 -1.0070165
-0.43386182 0.19408141 -0.21783957 -0.64297926 -0.5400316 -0.30739823 0.2622344 -0.08416113
-0.43206245 -0.19048381 0.5832654 0.49100643 0.011464626 0.36755383 0.613167 0.72937334
-0.046440937 0.05647374 0.1253147 0.172019 -0.17397712 -0.64961386 -0.33084956 -0.39437932
-0.23384927 -0.42868862 -0.5048478 -0.3518639 -0.093934454 0.012956484 -0.18902622 0.16849066
-0.5834644 -0.5390671 -0.32408386 -0.33744463 -0.28051427 -0.1767755 -0.6763834 -0.5830681
-0.70962584 -0.5282129 0.70439047 -0.06590467 -0.38884315 -0.4060655 -0.14741911 1.0145756
0.7562728 0.110229 -0.05145333 0.63513577 -0.32068452 -0.8772202 -0.059561964 0.07199189
-0.39498258 -0.7893815 0.58179075 0.93536943 0.6064549 0.15591541 -0.14820917 0.93253994
1.0219989 -0.17507316 -0.48419583 -0.16591206 0.3245976 0.78129846 -0.17152832 -0.8070619
-1.0519068 -0.6630996 0.43008712 0.08699471 0.23306568 -0.30972698 -0.18659854 -0.030338403
-0.27491727 -0.7963484 -0.92936385 -0.4537972 0.13620074 0.4585259 0.52826726 -0.7055798
-0.44210425 -0.20641392 0.29871374 0.8413181 -0.63310546 -0.21300212 -0.30007768 0.2988149
0.91669947 -0.336364 0.0063606314 -0.28391263 -0.16809334 0.22079225
00000000: 889c cd3c 088a d4be d1fa 0fbf 711d 29bf
00000010: 851d 82bf aaef f53e ee25 de3e 157f 113f
00000020: 2b7d ff3d ebd5 c2be d327 a93e f588 243f
00000030: 3ef4 6d3f f62e 1e3f 875e fa3d ee65 c6be
00000040: d86e 38be 15b2 ca3d b411 163f fd9e 843e
00000050: 650a 59bf 1fac 87bf ef58 6dbf 0381 fbbe
00000060: 59c2 1abe 2499 28bf 6a8b b93e 069a 5f3c
00000070: cc1f 1bbf 8168 b93e 08b7 a5be f085 803f
00000080: 80b7 373f ab7d 55bd 1a42 49bc 20a8 c73d
00000090: 7a9c 7d3f 1e48 9e3e 493f 10be 69a9 22bf
000000a0: b3b2 333f 8cd1 283e 3f76 05bf 153e 68bf
000000b0: fd0b 4cbf bc82 16bf 36fb 88bf ebe5 80bf
000000c0: 2323 debe 47bd 463e 5611 5fbe 4a9a 24bf
000000d0: 833f 0abf 4d63 9dbe 9643 863e ac5c acbd
000000e0: 4a37 ddbe 300e 43be e250 153f 3265 fb3e
000000f0: 20d6 3b3c 0430 bc3e 83f8 1c3f 36b8 3a3f
00000100: da38 3ebd 0251 673d 7f52 003e c025 303e
00000110: 0f27 32be 184d 26bf 1d65 a9be 16ec c9be
00000120: 2f76 6fbe 137d dbbe b53d 01bf 8127 b4be
00000130: b560 c0bd 6f47 543c 1790 41be d188 2c3e
00000140: ec5d 15bf 4d00 0abf 52ee a5be 8bc5 acbe
00000150: 919f 8fbe a304 35be 7627 2dbf f343 15bf
00000160: 0aaa 35bf f638 07bf ef52 343f 07f9 86bd
00000170: 7316 c7be d1e7 cfbe 09f5 16be 9ddd 813f
00000180: 189b 413f bebf e13d bac0 52bd 4298 223f
00000190: c330 a4be 8191 60bf 3ff7 73bd 7c70 933d
000001a0: 283b cabe e814 4abf 3df0 143f 5f74 6f3f
000001b0: a140 1b3f 4aa8 1f3e 25c4 17be f0ba 6e3f
000001c0: dcd0 823f 6146 33be 84e8 f7be dae4 29be
000001d0: a831 a63e 2d03 483f 1fa5 2fbe 9c9b 4ebf
000001e0: e2a4 86bf e5c0 29bf 6134 dc3e 482a b23d
000001f0: c5a8 6e3e 8994 9ebe b013 3fbe 3e88 f8bc
00000200: f5c1 8cbe 7ddd 4bbf caea 6dbf 1b58 e8be
00000210: 3578 0b3e e8c3 ea3e 863c 073f e1a0 34bf
00000220: 7d5b e2be 2c5e 53be 02f1 983e 9f60 573f
00000230: 3313 22bf 3a1d 5abe c8a3 99be 44fe 983e
00000240: d1ac 6a3f e737 acbe d86c d03b ff5c 91be
00000250: a920 2cbe 5d17 623e

features.0.bias f4 [6]
-1.6293529 -1.7892027 -1.356713 -1.5057647 -1.8921659 -2.065808
00000000: a38e d0bf 9804 e5bf c6a8 adbf e6bc c0bf
00000010: 7e32 f2bf 3336 04c0

features.3.weight f4 [16, 6, 5, 5]
-0.03241549 -0.41399053 -0.489173 -0.09678074 0.25294322 0.11514712 -0.22172941 -0.3893754
-0.37029752 0.045984246 -0.01255602 -0.27928296 -0.031463515 0.24839066 -0.25438228 0.13047187
-0.12020078 -0.06557349 0.5231148 0.075236864 0.122894235 0.006273389 -0.13671087 -0.05034974
-0.0914651 -0.017613942 -0.07502512 -0.2182563 0.09962421 0.4442331 -0.049497377 -0.36835483
-0.60815626 -0.14727128 0.116979584 -0.61122435 -0.6439849 -0.71531445 -0.44031215 -0.5986154
-0.42081326 -0.44980025 -0.5362636 -0.57228523 0.008361823 -0.22952826 -0.21650466 -0.5310984
-0.13834831 0.3527379 -0.12588851 0.055996247 0.18702407 0.3289511 0.06103415 -0.01830343
-0.24746381 0.061731942 0.3405516 0.0983751 -0.049901757 -0.32396013 -0.38475153 -0.06975
0.12855804 -0.15901974 -0.34951237 -0.43186957 -0.3119694 0.22820559 -0.17385857 -0.0898784
-0.12888394 -0.39704695 -0.055161625 -0.314978 -0.087836504 -0.19754128 -0.25558537 -0.019921236
-0.17457102 -0.04040038 -0.23181416 -0.61649054 -0.04259303 0.16506153 0.03395618 -0.25900152
-0.49317595 0.35721543 0.46624827 0.19727719 -0.35495144 -0.29866984 0.22559987 0.4774022
0.45170748 -0.04643339 -0.25162664 -0.15439248 -0.2885189 0.28684285 -0.19818264 -0.16167821
-0.2733596 -0.5432467 -0.28214228 0.27986366 0.088793814 -0.5680484 -0.7010845 -0.81930107
0.62274015 0.7888896 -0.70770186 -0.36475018 -0.751645 0.0069055273 0.4075807 0.03145885
0.03758015 -0.45979917 -0.0024683645 -0.083198056 0.0734933 0.062788986 -0.052679446 -0.5911829
-0.5306217 -0.33994317 -0.10278175 0.32104704 -0.24099162 -0.3560543 -0.60356015 -0.6130766
0.47895554 0.70049757 -0.5654104 -0.92655313 -0.7269461 -0.551058 0.7766511 0.1612591
-0.88133514 -0.3131839 -0.36627716 -0.22079495 0.42870513 -0.58057946 -0.09435535 0.05087028
-0.007819716 0.045654576 -0.045087967 -0.040414948 -0.09590727 -0.052376535 0.030611884 -0.1078484
-0.049653232 0.028477212 0.027288813 0.014558828 -0.034274664 -0.03242514 -0.042024966 -0.04859514
0.024683492 -0.035806652 -0.076443 -0.005775635 -0.06750755 -0.016619375 0.041492354 -0.06702566
-0.022751002 -0.14621055 -0.08477377 -0.1371338 -0.13890235 -0.14356083 -0.06249509 -0.048420925
-0.12289655 -0.16037087 -0.17599997 0.01791104 -0.031688876 -0.057102133 -0.15443616 -0.15403736
-0.11642676 -0.043672394 0.028369829 -0.117516086 -0.13493767 -0.06658242 0.054558787 0.031163568
0.021102455 -0.043897033 -0.032066815 -0.08737457 -0.13266553 -0.14348798 -0.019505497 -0.07023038
-0.027878448 -0.060951088 -0.14299229 -0.09071092 -0.007379332 -0.05755179 -0.13652074 -0.039360564
-0.03191331 -0.044345975 0.0001622167 -0.03408644 -0.09013136 0.0433656 0.02458681 -0.01987638
-0.060589254 -0.088021584 0.043793518 -0.03919854 -0.0749013 0.030804906 0.008966561 0.0066390503
-0.029132716 -0.0467234 -0.009677342 0.04726749 0.0044727977 -0.052881077 0.05615295 -0.023128102
0.044226058 0.008646048 0.051730912 0.01933225 -0.06676455 0.03419944 -0.01288134 -0.08361763
-0.041574363 -0.09687504 -0.25753236 -0.28610227 -0.16583142 -0.243902 -0.28647348 -0.18140288
00000000: 1bc6 04bd 91f6 d3be e274 fabe fb34 c6bd
00000010: c681 813e 41d2 eb3d 090d 63be 365c c7be
00000020: a397 bdbe fa59 3c3d c4b7 4dbc 2dfe 8ebe
00000030: e3df 00bd 1f5a 7e3e 653e 82be 6b9a 053e
00000040: d42b f6bd 654b 86bd daea 053f c915 9a3d
00000050: f9af fb3d 0091 cd3b effd 0bbe 873b 4ebd
00000060: 0e52 bbbd 1d4b 90bc c5a6 99bd 947e 5fbe
00000070: c707 cc3d 8572 e33e c3bd 4abd 0199 bcbe
00000080: 21b0 1bbf 48ce 16be fe92 ef3d 3379 1cbf
00000090: 32dc 24bf d91e 37bf 9870 e1be dc3e 19bf
000000a0: d674 d7be 384c e6be 9248 09bf 4981 12bf
000000b0: 0700 093c 7509 6bbe 66b3 5dbe 11f6 07bf
000000c0: 2eab 0dbe 109a b43e ebe8 00be 525c 653d
000000d0: 3d83 3f3e 476c a83e f2fe 793d 13f1 95bc
000000e0: 2767 7dbe a2da 7c3d c85c ae3e e278 c93d
000000f0: c965 4cbd 1ade a5be 27fe c4be 17d9 8ebd
00000100: b8a4 033e 12d6 22be 49f3 b2be 021e ddbe
00000110: 74ba 9fbe baae 693e fb07 32be 2b12 b8bd
00000120: 27fa 03be bd49 cbbe 28f1 61bd cc44 a1be
00000130: a0e3 b3bd 4348 4abe 16dc 82be dc31 a3bc
00000140: bfc2 32be de7a 25bd b160 6dbe 53d2 1dbf
00000150: 0776 2ebd e405 293e a315 0b3d d99b 84be
00000160: 8f81 fcbe f1e4 b63e 18b8 ee3e 0803 4a3e
00000170: 32bc b5be 41eb 98be a703 673e 106e f43e
00000180: 3446 e73e f030 3ebd 35d5 80be 1019 1ebe
00000190: c0b8 93be 11dd 923e 64f0 4abe f98e 25be
000001a0: caf5 8bbe 3712 0bbf f474 90be 4a4a 8f3e
000001b0: 88d9 b53d 9f6b 11bf 467a 33bf b7bd 51bf
000001c0: e66b 1f3f abf4 493f f32b 35bf 89c0 babe
000001d0: cf6b 40bf c347 e23b 6bae d03e ffda 003d
000001e0: a5ed 193d cc6a ebbe 49c4 21bb be63 aabd
000001f0: a883 963d 8397 803d 67c6 57bd c357 17bf
00000200: d3d6 07bf 080d aebe 3d7f d2bd 4760 a43e
00000210: 82c6 76be c04c b6be eb82 1abf 97f2 1cbf
00000220: a939 f53e cf53 333f bcbe 10bf 9632 6dbf
00000230: 2419 3abf 2312 0dbf 9bd2 463f 1b21 253e
00000240: 2e9f 61bf a459 a0be ae88 bbbe 1218 62be
00000250: 3d7f db3e dba0 14bf 613d c1bd 5b5d 503d
00000260: 441e 00bc 4b00 3b3d 29ae 38bd 258a 25bd
00000270: 086b c4bd c788 56bd c6c5 fa3c 9fdf dcbd
00000280: 3061 4bbd 0b49 e93c ca8c df3c 2788 6e3c
00000290: 9763 0cbd 39d0 04bd 5f22 2cbd b30b 47bd
000002a0: 0935 ca3c ffa9 12bd 268e 9cbd 8a41 bdbb
000002b0: 6641 8abd 5b25 88bc e3f3 293d c044 89bd
000002c0: 4f60 babc 38b8 15be df9d adbd ce6c 0cbe
000002d0: 6b3c 0ebe 9c01 13be dafa 7fbd 0555 46bd
000002e0: 30b1 fbbd 4338 24be 5639 34be 2cba 923c
000002f0: 32cc 01bd ede3 69bd 8324 1ebe f8bb 1dbe
00000300: 2771 eebd d3e1 32bd d867 e83c 46ac f0bd
00000310: 1a2d 0abe 5d5c 88bd 0979 5f3d bd4a ff3c
00000320: 0edf ac3c 60cd 33bd 7e58 03bd 70f1 b2bd
00000330: 79d9 07be 83ee 12be fec9 9fbc f2d4 8fbd
00000340: 5861 e4bc d9a7 79bd 926c 12be a6c6 b9bd
00000350: 53ce f1bb 6dbb 6bbd 18cc 0bbe 8b38 21bd
00000360: 88b7 02bd 20a4 35bd b718 2a39 399e 0bbd
00000370: ca96 b8bd 21a0 313d 476a c93c cad3 a2bc
00000380: 702c 78bd a944 b4bd d560 333d a68e 20bd
00000390: da65 99bd 925a fc3c 7ce8 123c 648c d93b
000003a0: bca7 eebc 0961 3fbd b78d 1ebc 8e9b 413d
000003b0: 8c90 923b d499 58bd a300 663d 2577 bdbc
000003c0: 6226 353d 27a8 0d3c cbe3 533d ab5e 9e3c
000003d0: dabb 88bd b614 0c3d 420c 53bc b83f abbd
000003e0: e149 2abd 6c66 c6bd 48db 83be ff7b 92be
000003f0: b6cf 29be 72c1 79be a7ac 92be adc1 39be

features.3.bias f4 [16]
-0.45151633 -0.14713241 -0.6232297 -0.15057203 0.04420842 -0.0011312854 -0.5485299 -0.20116733
0.24668235 -0.024375787 -0.07526969 -0.060457177 0.21628323 -0.18341035 -0.23253201 0.54051155
00000000: 262d e7be e1a9 16be fb8b 1fbf 8e2f 1abe
00000010: e313 353d a447 94ba 756c 0cbf cffe 4dbe
00000020: 4c9a 7c3e bbaf c7bc ff26 9abd f2a1 77bd
00000030: 5a79 5d3e eccf 3bbe df1c 6ebe f75e 0a3f

features.6.weight f4 [120, 16, 5, 5]
-0.020413563 -0.29640305 -0.083088316 0.0052612466 0.02328325 -0.09023722 -0.27792156 0.079179086
0.2376552 0.24679233 -0.007612807 -0.2356626 -0.12542513 0.35635155 0.2447766 -0.009670738
-0.2870166 -0.1344513 -0.018013809 0.02750973 0.0016964251 -0.03805437 -0.19208187 -0.01960322
-0.18957415 0.01112354 0.013419465 -0.037626136 -0.032174386 -0.0032356407 0.03570516 -0.0014883267
-0.040642343 -0.061970707 0.011636865 0.06177651 -0.014265578 -0.11987685 -0.05234422 0.06217097
0.016060079 0.020236183 -0.08897233 -0.060278017 0.022836784 -0.017706148 -0.020786108 -0.03211251
-0.04135158 -0.03075855 -0.16032432 -0.23120134 -0.09824842 0.09120779 0.07284493 -0.12182383
0.0066008344 0.1071117 0.2808605 0.2809049 -0.18216093 -0.37628022 -0.41395482 -0.21462853
-0.20485693 -0.08772787 -0.11077652 -0.13136572 -0.18412316 -0.19744046 -0.09423161 0.1245027
0.24175793 -0.2585138 -0.260826 -0.009909624 -0.019282373 -0.0676974 -0.04041679 -0.051716898
-0.052652296 -0.08518676 -0.03656957 -0.03806981 -0.06370455 -0.068968855 0.0016939244 0.078580275
0.061986182 -0.027178146 -0.0102837 0.07107756 0.08523709 -0.04850974 -0.050929416 0.0048205433
0.070358865 -0.03729086 -0.014813794 0.029073196 -0.25926307 -0.08385703 -0.15473065 -0.22605512
-0.07836843 0.18006197 0.107182294 -0.034025084 -0.24044144 -0.19048992 0.47837463 -0.06479672
-0.41710508 -0.518243 -0.070494704 -0.07487924 -0.052838597 -0.25875804 0.0331403 0.26303324
-0.1822624 -0.18495731 -0.035982993 0.11610095 0.08291874 -0.004219079 -0.11980444 -0.0802863
-0.22621903 -0.32474953 -0.1503301 -0.05278932 0.02574849 -0.089558505 -0.6369097 -0.2530631
0.18321812 0.07934663 -0.2847879 -0.42402035 0.039215498 0.0057362425 -0.20894487 -0.21680626
0.09833289 0.007215985 -0.00788232 -0.002198563 0.2345604 0.21748203 -0.25439084 -0.2826623
-0.06642907 -0.02633737 -0.017741688 -0.2784248 -0.11782701 -0.06975683 0.05586479 -0.17911328
-0.49506295 -0.3647025 0.11848857 0.42273468 -0.11415606 -0.21232839 -0.017958347 -0.100471035
0.09804289 0.074829705 0.17542604 0.041587166 -0.010732334 0.13336886 0.043582886 0.13494541
0.11180465 -0.059706036 -0.33577538 -0.24422503 -0.04723974 -0.1334625 -0.29794204 -0.24665841
-0.14999524 -0.092863105 -0.062263656 0.004695077 0.09301011 -0.112612225 -0.15810294 -0.10931139
-0.043663256 -0.096216254 -0.00871745 -0.0034720448 0.03910092 0.043028764 0.07396867 0.031857822
-0.034453783 0.060367115 -0.049026724 0.021581586 0.038522713 -0.0105180405 -0.0035552583 -0.012785412
0.0025636281 0.005184486 -0.028804952 -0.015699724 0.043646958 0.026588945 -0.08841051 -0.04493518
0.08074829 0.13912308 0.044886846 -0.050816454 -0.041558053 0.060751818 -0.027968202 -0.014096752
0.01816347 0.15905766 0.075995915 0.015836619 0.05099072 0.030336984 0.019047985 -0.025395611
0.0047485027 -0.05972883 -0.08742181 -0.018709742 -0.04286509 -0.07022954 -0.08715153 -0.13585745
-0.11045281 -0.0048127105 0.14092457 -0.05824766 -0.03210325 0.015299681 0.003642562 0.06247411
0.037953008 -0.024656923 -0.0024395552 -0.0020315936 0.02981724 -0.054900482 0.039275188 0.010805492
00000000: 583a a7bc 24c2 97be 352a aabd 8966 ac3b
00000010: 84bc be3c 4bce b8bd bc4b 8ebe a528 a23d
00000020: e25b 733e 21b7 7c3e db74 f9bb 8951 71be
00000030: 726f 00be b673 b63e b8a6 7a3e 0472 1ebc
00000040: d7f3 92be 9aad 09be b291 93bc 165c e13c
00000050: 955a de3a e6de 1bbd 1cb1 44be ef96 a0bc
00000060: ba1f 42be 823f 363c 51dd 5b3c dd1d 1abd
00000070: 4ac9 03bd 0b0d 54bb 933f 123d f513 c3ba
00000080: 9678 26bd ffd4 7dbd 8da8 3e3c 5e09 7d3d
00000090: 2cba 69bc fe81 f5bd e566 56bd fda6 7e3d
000000a0: 6d90 833c 5ac6 a53c 2037 b6bd 15e6 76bd
000000b0: 3514 bb3c 7c0c 91bc a147 aabc 6888 03bd
000000c0: 4660 29bd 5bf9 fbbc 0f2c 24be 0bc0 6cbe
000000d0: 7836 c9bd 26cb ba3d b92f 953d c67e f9bd
000000e0: d04b d83b 615d db3d f3cc 8f3e c4d2 8f3e
000000f0: 6588 3abe cda7 c0be e3f1 d3be 95c7 5bbe
00000100: 04c6 51be abaa b3bd cdde e2bd bc84 06be
00000110: c88a 3cbe d52d 4abe 81fc c0bd 46fb fe3d
00000120: 648f 773e ec5b 84be fc8a 85be fa5b 22bc
00000130: 11f6 9dbc efa4 8abd 138c 25bd 19d5 53bd
00000140: efa9 57bd 6576 aebd f9c9 15bd 17ef 1bbd
00000150: 8877 82bd 8b3f 8dbd ac06 de3a b2ee a03d
00000160: 39e5 7d3d b4a4 debc f77c 28bc 1d91 913d
00000170: c990 ae3d 26b2 46bd 5d9b 50bd a6f5 9d3b
00000180: 4f18 903d 4dbe 18bd 8eb5 72bc e92a ee3c
00000190: 21be 84be 3cbd abbd b671 1ebe fe7a 67be
000001a0: a17f a0bd 2a62 383e 6482 db3d e35d 0bbd
000001b0: 4836 76be ca0f 43be 85ed f43e 25b4 84bd
000001c0: cc8e d5be 93ab 04bf 875f 90bd 495a 99bd
000001d0: 496d 58bd ef7b 84be 20be 073d 4bac 863e
000001e0: ffa2 3abe 7365 3dbe e762 13bd 56c6 ed3d
000001f0: 4dd1 a93d 3340 8abb 085c f5bd 256d a4bd
00000200: f6a5 67be 9245 a6be 22f0 19be 9d39 58bd
00000210: 7fee d23c 736a b7bd 840c 23bf 7d91 81be
00000220: 889d 3b3e 7c80 a23d b8cf 91be 3219 d9be
00000230: 6ea0 203d 17f7 bb3b a5f5 55be 7602 5ebe
00000240: c162 c93d 1274 ec3b d924 01bc c415 10bb
00000250: 9a30 703e 9cb3 5e3e 843f 82be 1db9 90be
00000260: f70b 88bd 78c1 d7bc 0457 91bc b28d 8ebe
00000270: 4a4f f1bd abdc 8ebd 7ad2 643d 7969 37be
00000280: e478 fdbe 49ba babe 23aa f23d ae70 d83e
00000290: a7ca e9bd 9d6c 59be 621d 93bc c2c3 cdbd
000002a0: b6ca c83d 5140 993d e2a2 333e 4e57 2a3d
000002b0: acd6 2fbc d991 083e f883 323d 212f 0a3e
000002c0: d6f9 e43d 518e 74bd c0ea abbe 2016 7abe
000002d0: 757e 41bd 65aa 08be dc8b 98be 0694 7cbe
000002e0: 5a98 19be 032f bebd 2d08 7fbd 29d9 993b
000002f0: 167c be3d 3da1 e6bd bde5 21be a6de dfbd
00000300: 3ed8 32bd 070d c5bd a3d3 0ebc 3f8b 63bb
00000310: 4928 203d ee3e 303d e37c 973d 597d 023d
00000320: 691f 0dbd 8243 773d 3fd0 48bd decb b03c
00000330: fec9 1d3d dc53 2cbc 56ff 68bb e879 51bc
00000340: 8b02 283b 9fe2 a93b 5df8 ebbc b59c 80bc
00000350: 27c7 323d 0fd1 d93c 9210 b5bd f40d 38bd
00000360: 5c5f a53d 4876 0e3e 45db 373d ea24 50bd
00000370: c738 2abd e6d6 783d 921d e5bc 10f6 66bc
00000380: 8fcb 943c 03e0 223e bfa3 9b3d ccbb 813c
00000390: a5db 503d 4485 f83c 850a 9c3c 750a d0bc
000003a0: 5499 9b3b 38a6 74bd 350a b3bd 2c45 99bc
000003b0: 4e93 2fbd 81d4 8fbd 807c b2bd 371e 0bbe
000003c0: 1535 e2bd f1b3 9dbb 884e 103e 1995 6ebd
000003d0: b37e 03bd 83ab 7a3c 0db8 6e3b dae4 7f3d
000003e0: 9d74 1b3d 51fd c9bc f2e0 1fbb 7c24 05bb
000003f0: 4943 f43c 54df 60bd 05df 203d 8509 313c

features.6.bias f4 [120]
0.052598145 0.1579102 -0.013461186 0.004228225 0.12968743 -0.0449972 0.0076578236 0.25916067
-0.15417998 0.0041610324 -0.016591057 -0.055241305 -0.15242548 -0.041506015 -0.055423126 -0.24956745
0.017563336 -0.2014572 0.06613474 -0.044815645 -0.035021175 0.12663177 -0.11239685 -0.00803233
0.025048224 -0.1352696 -0.04768741 0.02261343 -0.038012233 0.0012028107 -0.040155847 -0.12164261
-0.124326006 0.060374185 0.026196307 -0.06887774 -0.4039318 0.14564435 0.0684222 -0.03655252
0.1523923 -0.100242406 -0.065124005 -0.02200723 -0.15846367 0.052023213 -0.065993555 -0.017514085
0.06222766 -0.057631113 0.09362111 -0.0070415703 -0.002878993 -0.08465979 0.3887422 -0.055794235
0.11503501 -0.030418707 -0.07958063 -0.01026022 0.0181435 -0.4135769 -0.050656836 -0.03138298
0.16570196 -0.0784795 -0.116832465 0.014845541 -0.029009487 -0.07035946 -0.016742906 -0.054952376
0.12642956 0.004640834 0.039504386 0.0038454037 -0.1025094 0.09121955 -0.03343662 -0.15341014
-0.0032002942 0.11951575 -0.106844425 0.015668213 -0.13376197 -0.06890361 0.05448521 -0.0016188651
-0.001799773 -0.26644072 -0.15265551 -0.0100479545 -0.0728729 0.0636831 -0.060773417 -0.039509557
0.07406536 0.039805096 -0.086163454 -0.050213963 0.14259246 0.06828782 -0.0063033486 0.059445422
-0.014950575 -0.018753238 -0.12935765 0.057302766 -0.105612494 -0.09533612 -0.037224397 -0.11823185
0.053836647 -0.011449163 -0.053961925 0.0068890606 0.015918648 0.022060903 0.054342225 0.027020507
00000000: 2771 573d 36b3 213e 4e8c 5cbc ec8c 8a3b
00000010: c8cc 043e fc4e 38bd 7bee fa3b b5b0 843e
00000020: 5be1 1dbe 4559 883b f8e9 87bc b544 62bd
00000030: 6d15 1cbe 3602 2abd 5c03 63bd 9c8e 7fbe
00000040: fce0 8f3c cc4a 4ebe a771 873d 9c90 37bd
00000050: 5d72 0fbd c2ab 013e 5230 e6bd 099a 03bc
00000060: ef31 cd3c 1d84 0abe e053 43bd cd3f b93c
00000070: b7b2 1bbd a1a7 9d3a 757a 24bd c31f f9bd
00000080: a29e febd ec4a 773d a399 d63c c60f 8dbd
00000090: 26d0 cebe cb23 153e f020 8c3d 18b8 15bd
000000a0: ba0c 1c3e e44b cdbd bc5f 85bd 8248 b4bc
000000b0: 4d44 22be 4b16 553d a127 87bd b379 8fbc
000000c0: 6ee2 7e3d 9a0e 6cbd 6dbc bf3d f9bc e6bb
000000d0: 7dad 3cbb 1d62 adbd 3809 c73e 7f88 64bd
000000e0: 7a97 eb3d a730 f9bc 2bfb a2bd 7b1a 28bc
000000f0: ada1 943c 5ac0 d3be 8b7d 4fbd 718b 00bd
00000100: c6ad 293e dcb9 a0bd dc45 efbd b63a 733c
00000110: 4ea5 edbc 9f18 90bd 6b28 89bc be15 61bd
00000120: c076 013e 2312 983b 5acf 213d 2b03 7c3b
00000130: 73f0 d1bd 51d1 ba3d d6f4 08bd 8c17 1dbe
00000140: 07bc 51bb acc4 f43d 40d1 dabd a05a 803c
00000150: e6f8 08be 561d 8dbd e22b 5f3d 1930 d4ba
00000160: 5ce6 ebba eb6a 88be ba51 1cbe 2da0 24bc
00000170: 633e 95bd 496c 823d 8ced 78bd c6d4 21bd
00000180: 94af 973d ab0a 233d 7776 b0bd 28ad 4dbd
00000190: c203 123e 7cda 8b3d 528c cebb 0b7d 733d
000001a0: 42f3 74bc 64a0 99bc 5576 04be 4eb6 6a3d
000001b0: 5d4b d8bd 953f c3bd 9c78 18bd 8a23 f2bd
000001c0: d183 5c3d 4595 3bbc 2e07 5dbd a1bd e13b
000001d0: d367 823c 11b9 b43c f495 5e3d 1c5a dd3c

cpu f4 [84]
-0.01947202 -0.09722366 0.236847 -0.0076757185 -0.093125686 -0.039044347 0.23491682 0.46990806
-0.025878124 -0.012097316 0.48812175 0.31085455 0.02448436 0.04597653 0.008283313 -0.16090739
-0.2212264 -0.08635415 -0.09735121 0.3730708 -0.00082032447 0.10949476 -0.4236176 0.13970266
0.52464175 0.19138205 0.036638793 -0.124546446 0.19841841 -0.14429654 0.13390987 0.06483192
0.14542624 -0.05651023 -0.08708409 0.038802497 -0.08294582 -0.11935145 0.011377796 -0.16927464
0.056295056 -0.1578243 0.014302567 0.21128173 0.12641825 0.19467832 -0.048208345 0.08298015
-0.07129111 0.013061418 0.19790067 -0.08834639 0.14053419 -0.07541183 -0.13785705 -0.038556278
0.15064935 -0.065169744 0.14182901 0.032688133 0.37959215 0.56022465 0.26085803 -0.24399528
0.45965338 -0.08173334 0.08606244 0.27633697 -0.022313839 0.45794928 -0.09882461 0.04764713
-0.09749715 0.20218682 -0.05336361 0.020052128 0.060684625 0.28618127 -0.06730852 0.25001806
0.39494276 -0.049438924 -0.1467964 0.19961275
00000000: c983 9fbc 331d c7bd 0588 723e 9884 fbbb
00000010: aeb8 bebd f7ec 1fbd 098e 703e ca97 f03e
00000020: 5cfe d3bc d233 46bc 18eb f93e 5428 9f3e
00000030: 6d93 c83c e351 3c3d bcb6 073c e8c4 24be
00000040: 2c89 62be 72da b0bd 1260 c7bd 2303 bf3e
00000050: 0b0b 57ba ca3e e03d 68e4 d8be 370e 0f3e
00000060: ec4e 063f a8f9 433e 8f12 163d 3512 ffbd
00000070: 322e 4b3e 79c2 13be ab1f 093e 99c6 843d
00000080: 9eea 143e 4577 67bd 2559 b2bd 5eef 1e3d
00000090: 80df a9bd 886e f4bd ef69 3a3c 5556 2dbe
000000a0: a595 663d b19c 21be 5055 6a3c 3d5a 583e
000000b0: c973 013e c159 473e 1d76 45bd 7ff1 a93d
000000c0: 1301 92bd 8fff 553c 79a6 4a3e f4ee b4bd
000000d0: 32e8 0f3e 8471 9abd 662a 0dbe 30ed 1dbd
000000e0: d343 1a3e b777 85bd a03b 113e fee3 053d
000000f0: e759 c23e e26a 0f3f 2f8f 853e e6d9 79be
00000100: b057 eb3e cf63 a7bd 8141 b03d 0a7c 8d3e
00000110: 83cb b6bc 5478 ea3e 8f64 cabd a329 433d
00000120: 96ac c7bd 100a 4f3e cd93 5abd 5c44 a43c
00000130: 7190 783d 5a86 923e 0dd9 89bd 5e02 803e
00000140: f035 ca3e 7880 4abd cc51 16be 4967 4c3e

cpu f4 [10]
-0.1603318 -0.19539076 0.22744879 -0.1717792 -0.1216701 -0.077228084 -0.60432655 0.51972425
0.5631996 0.027376428
00000000: 052e 24be 8414 48be 56e8 683e e3e6 2fbe
00000010: 2c2e f9bd c229 9ebd 25b5 1abf a60c 053f
00000020: d92d 103f 8844 e03c
