results/dynamic_quantized_model.pth (torch, 219724 bytes, 8 tensors)

features.0.weight f4 [6, 1, 5, 5]
000000 b8 0e 05 3f ec 7d 3f bf a3 7a fc be f0 ff cc be
       0.51975584 -0.74801517 -0.49312314 -0.40039015
000010 b1 3d fc be 5b 89 46 3f 99 a5 00 bf cd 20 ee be
       -0.49265817 0.7755334 -0.5025268 -0.465094
000020 f0 99 d5 be fa 73 18 3e 11 4c 52 3f 68 76 1f bf
       -0.41719007 0.14887992 0.8214732 -0.6229005
000030 bb df 25 bf 7a 7c c5 be 81 e4 22 3f 86 89 40 3f
       -0.6479451 -0.3857153 0.6362992 0.75209844
000040 6f a4 15 bf 4e 29 17 bf b2 c4 d1 3d 8f 32 43 3f
       -0.5845403 -0.590474 0.10242595 0.7624902
000050 88 cf f2 3d 7c e9 9a bf ff 7a 6f bf fe 44 c7 be
       0.1185599 -1.2102504 -0.9354705 -0.38919824
000060 a3 89 db 3e a0 05 36 3f 7e ef e0 3e 75 1d 99 3e
       0.42878446 0.71102333 0.43932718 0.29905286
000070 90 58 75 be 77 f3 7a be 3f 90 f3 3e d4 28 07 3e
       -0.23959565 -0.24506937 0.4757099 0.13199168
000080 3c 58 a6 be 32 7f 41 bf 9b 0c 5a bf e6 e6 9d 3e
       -0.32489192 -0.7558471 -0.85175484 0.30840224
000090 02 75 d3 bd 4b b0 61 bf 6e 36 0e bf de 9e cd bd
       -0.10325052 -0.88159627 -0.55551803 -0.10040067
0000a0 46 42 18 3d 1a 80 21 bf 9e 5c b1 be 2d 8b c5 bd
       0.03717258 -0.6308609 -0.34640974 -0.09645686
0000b0 5d a3 d9 3e 3a 0b 5f bf 2d 51 4c bf 74 70 42 be
       0.4250745 -0.87126505 -0.79811364 -0.1898821
0000c0 b7 54 53 3d 02 f2 47 3f 4d 9a 58 3f a0 22 89 3e
       0.051594462 0.7810365 0.84610444 0.2678423
0000d0 e8 7d c4 3e ae e5 b7 3d 23 81 b6 3e cd d7 40 be
       0.3837731 0.08979355 0.35645398 -0.18832321
0000e0 29 be 64 be 14 db 6b 3e 9b cf 15 3f 5a a1 af 3e
       -0.22338165 0.2303279 0.58519906 0.3430279
0000f0 92 5f ab bf 13 49 6c bf 95 e3 8d be da c0 2b 3e
       -1.3388541 -0.92299 -0.27712694 0.16772786
000100 e6 83 da be 7f d8 7f be f1 60 71 bf 2f e0 63 bf
       -0.42678756 -0.2498493 -0.94288546 -0.8901395
000110 69 29 66 bf 56 ed a8 bf ea 3e b0 3f 06 40 b8 3e
       -0.89906937 -1.3197429 1.37692 0.35986346
000120 2b d3 4d 3e 15 a5 d5 3d 15 6a 58 be cd bb d3 3e
       0.20100085 0.104318775 -0.21134217 0.41354218
000130 1b eb 91 3d e8 8b 64 be ba 4b 70 bf 7f dc a9 bf
       0.07124921 -0.22318995 -0.9386555 -1.3270415
000140 8f 4d 8c bf a7 71 6c bf 9f f3 f3 3e fa 63 a5 3f
       -1.0961169 -0.9236092 0.47646806 1.2921135
000150 1d 79 68 3f 29 2c 67 bf 8a 98 24 bf c2 8d 1c 3f
       0.90809804 -0.9030176 -0.64295256 0.61153805
000160 e6 88 2c 3f 50 c4 25 bd 24 ed 0b 3d 44 bc a4 be
       0.6739639 -0.04047042 0.0341617 -0.32174885
000170 1b f7 26 be fb ce 96 3e ed f5 ef bd 72 74 db 3e
       -0.16305201 0.2945479 -0.117168285 0.42862278
000180 6f b1 eb be 56 eb 94 bf 4d 57 54 be f9 ca 34 3f
       -0.4603381 -1.1634319 -0.20736428 0.7062221
000190 0a 2f 95 bb 07 81 cd bd 07 86 62 3d 4a 1d 6a be
       -0.0045527266 -0.10034376 0.0553036 -0.22862735
0001a0 ee 57 3f bf f0 d1 08 bf cf dd e6 3d 6f e9 d1 bc
       -0.74743545 -0.5344534 0.112727754 -0.025624005
0001b0 45 35 94 bd 6b bd 95 be 55 0f b5 be 5d 50 86 bd
       -0.07236723 -0.29246077 -0.3536326 -0.06558297
0001c0 20 2a c5 3d e7 40 92 be 77 2a 71 bd 35 59 b5 be
       0.09627175 -0.28565142 -0.05887839 -0.35419622
0001d0 37 b9 1b be ca f1 3b bd ed f6 8c be 26 35 4e be
       -0.15207373 -0.045884885 -0.2753214 -0.20137462
0001e0 ab 84 16 bf 7a e8 97 be b2 16 02 be b2 d7 1e bf
       -0.58796185 -0.29669553 -0.1270397 -0.62047875
0001f0 e6 88 12 bf 3c 50 b9 bf 7c 25 c2 bd b2 f6 1c 3f
       -0.5724014 -1.447761 -0.09479806 0.6131393
000200 a9 d0 77 3e 47 5c 40 3f f2 b0 99 bf ee bd 15 be
       0.24200691 0.75140804 -1.2007124 -0.14623234
000210 20 64 17 3f c0 9c ac 3e d7 5c 35 3e 69 76 35 bf
       0.59137154 0.3371334 0.17711197 -0.70883805
000220 89 95 2f bf 62 49 82 be 90 ab e3 be 13 e5 69 bf
       -0.6858755 -0.25446612 -0.4446683 -0.91365165
000230 db 55 c5 be 1c 45 44 bf f5 f8 43 bf 92 7f 37 bf
       -0.38542065 -0.7666795 -0.76551753 -0.7167903
000240 6f d3 91 bf 22 b9 00 3f 7b 64 d9 3d 5a 55 0f 3e
       -1.139265 0.5028249 0.10614868 0.13997403
000250 da cf 9f 3e 6b 91 f3 3e
       0.31213266 0.47571883

features.0.bias f4 [6]
000000 27 68 05 c0 e0 67 d7 bf ad 60 d7 bf f0 95 f9 bf
       -2.084482 -1.6828575 -1.6826378 -1.9498882
000010 2b 85 34 bf 56 98 c0 bf
       -0.705157 -1.5046489

features.3.weight f4 [16, 6, 5, 5]
000000 d9 55 51 bd 20 08 47 bd 35 81 2a 3d 08 e7 13 bd
       -0.05110726 -0.048591733 0.041627128 -0.036109
000010 a7 53 7d bd 0c a4 29 3d 0d f7 c6 3c ee a7 3d 3d
       -0.061847355 0.041416213 0.024287725 0.04630273
000020 1e 94 3f bd e0 e9 9e 3c c6 e9 b4 bc f2 40 9e bc
       -0.046772115 0.01939863 -0.022084128 -0.019318078
000030 2e 00 8c bd 95 b3 16 bd 25 de 05 bd 71 9c e1 3c
       -0.06835972 -0.036792357 -0.032682557 0.027540417
000040 88 ae 48 3b 27 52 5d 3c df 4d 99 3d 16 10 81 3d
       0.0030621607 0.013508356 0.07485556 0.06301896
000050 f7 85 22 3d 64 ea 8b bc 1e 81 88 bd 0e f9 4c 3d
       0.03967854 -0.01707954 -0.06665252 0.050042205
000060 76 47 0e bd f7 b3 fc bc 2f 6b d9 bd 1a b0 e0 bc
       -0.03473612 -0.030847533 -0.10616147 -0.027427722
000070 f7 00 3d bd 2b e4 84 3d 93 e7 a9 bd 50 9a aa bd
       -0.0461435 0.06488832 -0.082961224 -0.08330214
000080 3d 5a b6 bb dd d3 15 bd 9c e5 36 3c dc d5 36 bd
       -0.0055649565 -0.036579 0.011163142 -0.044637546
000090 49 59 74 bd 87 36 24 ba 25 7e 89 3d d0 05 b1 bd
       -0.05965546 -0.0006264229 0.06713513 -0.08643687
0000a0 cc 9e b1 3b 14 1f d6 3b ce ad 91 3d c3 4c 75 bd
       0.0054205414 0.0065344665 0.07113229 -0.05988766
0000b0 39 4c 6d bc b0 f0 da bd 97 a7 b9 3c 22 09 41 bd
       -0.014483505 -0.10690439 0.02266292 -0.04712785
0000c0 ce 04 0c 3d 04 90 0b bd 21 26 d8 bc e1 7c 8e bc
       0.03418427 -0.03407289 -0.026385369 -0.017393531
0000d0 20 de b8 3b 71 1e 62 3c c1 22 99 bc ba 74 2e 3c
       0.0056417137 0.013801203 -0.01869333 0.010647947
0000e0 d2 e0 ad bd 78 b7 35 3d e3 85 34 3d c1 25 45 3d
       -0.08490147 0.044364423 0.044072997 0.048131708
0000f0 36 e0 16 3d ab 8c a0 bd 70 ad 46 bd f8 a2 59 3d
       0.036834918 -0.0783933 -0.048505247 0.053133935
000100 79 53 a7 bd 5a a8 47 3d 5b 91 95 bd f1 1c 82 bd
       -0.08170218 0.048744537 -0.07303115 -0.063531764
000110 a4 eb c8 3c 21 58 ae bd 40 76 13 bd b6 95 5d 3d
       0.024526425 -0.08512903 -0.036001444 0.054097854
000120 b5 02 4c 3d c8 1c 4d 3d 9d 3d 46 bd ed a1 c1 bd
       0.04980727 0.050076276 -0.048398603 -0.09454713
000130 a4 67 1c 3e fa 19 3c ba c4 e4 ce bd 46 fb 37 bd
       0.15273911 -0.00071755017 -0.10102227 -0.044917367
000140 33 05 12 be 66 f2 b6 3d b2 0e f9 3c 0e 4d 2b be
       -0.14259796 0.089329526 0.030402515 -0.16728613
000150 cf 53 0b be ba 7c 18 be 9d cf ee 3c 99 2b 38 bd
       -0.13606189 -0.1489133 0.029151732 -0.044963453
000160 43 6c 14 be a5 88 43 bd 3f ef 6d be 3b 00 b4 bd
       -0.14494424 -0.047737736 -0.23235796 -0.087891065
000170 da 65 96 bd 2c e1 24 bb e3 ba 83 3d 9a 0c 41 be
       -0.073436454 -0.0025158627 0.0643213 -0.18852463
000180 60 c8 c5 bd e6 a6 b6 bb 1d 47 51 bd 8a bc 22 bd
       -0.09657359 -0.005574095 -0.05109321 -0.039730586
000190 5d 2e ef ba 4f c1 3b bc e4 ac f4 bc 08 3d 1c bd
       -0.001824807 -0.011459663 -0.029867597 -0.03814414
0001a0 f3 60 25 bb 32 e3 22 3d b2 0b b8 bd 68 27 6a 3d
       -0.0025234788 0.03976745 -0.08986606 0.057166487
0001b0 24 6c b2 bc 21 bc 0a be cf 77 8c bc de ef 01 be
       -0.021780081 -0.13548328 -0.017146973 -0.12689158
0001c0 c4 73 32 3d aa 51 bf bd fe 96 64 bd e8 d1 bd bd
       0.043567434 -0.09341748 -0.05580806 -0.09268552
0001d0 f0 09 b6 bd af 7f a4 3c 94 1c a5 bd ac 22 ef bd
       -0.08888614 0.020080416 -0.080620915 -0.11676535
0001e0 fb 04 45 be 48 f4 e2 bd 93 17 bb bd ea 5a 5b bd
       -0.19240181 -0.11081749 -0.09135356 -0.0535535
0001f0 da 6e d7 bd c7 4b 42 bc 29 01 0d 3d c3 40 4f bc
       -0.1051919 -0.011858887 0.034424935 -0.012649718
000200 60 e7 b0 bd 12 82 ea bd 14 fa ba bd e8 12 4a 3d
       -0.08637881 -0.1145059 -0.0912973 0.049334437
000210 c3 28 63 bd 23 64 1f bd b6 0c 78 bd fb 19 9f bd
       -0.055458795 -0.038913857 -0.060558997 -0.07768627
000220 7e 2a bb 3c e1 e4 fd 3b 8f c4 1e bd 57 a5 df bd
       0.02284741 0.0077482318 -0.03876167 -0.10920208
000230 0e 67 aa bd bc c6 08 bd 36 a2 aa bd 36 d0 b5 bd
       -0.08320437 -0.033392653 -0.083317205 -0.08877604
000240 79 45 a4 bd 99 27 7e bd 78 29 04 3b f0 57 67 bd
       -0.08021063 -0.062049482 0.002016632 -0.056480348
000250 b2 28 84 bd c0 7b d1 bd 65 0e d1 bd 41 59 34 3d
       -0.064530745 -0.102286816 -0.10207824 0.04403043
000260 b3 d1 4f bc 0c 52 31 3d 42 7b 40 bd 9f bf 39 bd
       -0.0126842735 0.043291137 -0.046992548 -0.04534876
000270 73 88 ce bd b1 08 6d bd 07 8d bc 3c 5e ef ec bd
       -0.100846194 -0.057869617 0.023016466 -0.11569093
000280 98 f9 75 bd cf 9a 92 3c df bc 80 3c 29 70 46 3a
       -0.060052484 0.017896084 0.01571506 0.0007569814
000290 61 95 3e bd 46 ef 4e bd 0e 57 7b bd 57 bf 91 bd
       -0.046529178 -0.050521158 -0.06136232 -0.07116573
0002a0 18 2d 93 3a 2f b2 57 bd c8 67 b8 bd 27 da bf bc
       0.0011228649 -0.052660163 -0.0900417 -0.023419453
0002b0 dd af bf bd 14 a0 36 bd fe 7e ba 3c fa 8c aa bd
       -0.09359715 -0.044586256 0.022765633 -0.083276704
0002c0 f3 e7 1a bd 71 2f 21 be 99 31 cc bd f6 7a 16 be
       -0.03781886 -0.15740754 -0.099703975 -0.14695343
0002d0 30 f0 22 be 0c fa 21 be 58 e0 a8 bd f2 28 b5 bd
       -0.15911937 -0.15818042 -0.08245915 -0.088457
0002e0 7e 7c 20 be 49 c0 42 be fd 93 50 be 14 61 f8 bc
       -0.1567249 -0.19018663 -0.20368953 -0.030319728
0002f0 5e b5 d9 bd e6 b5 e9 bd 7e bf 40 be a3 55 47 be
       -0.10630296 -0.114116475 -0.18823048 -0.19466262
000300 4e c8 48 be 37 11 14 be 36 de 11 bd cd 75 0a be
       -0.1960766 -0.14459692 -0.035612307 -0.135215
000310 42 09 2f be 0d 27 1d be 36 b7 40 bd ad 2b f4 bc
       -0.17093375 -0.15346928 -0.047049724 -0.029805982
000320 a5 a7 20 3c bf bf 47 bd 46 b8 16 bd cb 11 ba bd
       0.009805595 -0.048766848 -0.03679683 -0.09085425
000330 f5 dc 03 be e2 44 1d be 79 7f ec bc f7 77 b7 bd
       -0.12877257 -0.15358308 -0.028869377 -0.08958428
000340 88 9e 3e bd 73 75 8c bd f5 3a 25 be 5f 65 f5 bd
       -0.046537906 -0.06858339 -0.16135772 -0.119822256
000350 80 cd 4c bd 90 83 b4 bd d9 ba 13 be ea 6f 86 bd
       -0.050000668 -0.08814156 -0.14426745 -0.06564315
000360 0f 1a 99 bd 3d 25 c2 bd 00 90 fe bc 0f d5 1e bd
       -0.074756734 -0.09479759 -0.031074524 -0.038777407
000370 27 1f e6 bd 45 55 de 3a 39 95 bd bc 63 e1 3f bd
       -0.112364106 0.0016962668 -0.023142444 -0.046845805
000380 4a ef 84 bd ee 95 bc bd fb 3e 3d 3d 5a 66 4d bd
       -0.06490953 -0.09208284 0.04620264 -0.05014644
000390 1f 06 af bd 56 2d c1 3c 61 15 00 3b d3 e4 ff 39
       -0.085460894 0.023581188 0.0019543993 0.00048807877
0003a0 7b 27 65 bd e2 27 84 bd f0 50 43 bc 82 d3 ee 3c
       -0.055945855 -0.064529195 -0.0119211525 0.02915359
0003b0 a4 38 48 bc 5c 6b a2 bd ed cf 3b 3d 83 ea 90 bc
       -0.012220535 -0.079306334 0.04585259 -0.017689949
0003c0 92 6c df 3c cd e2 34 bc 25 c8 03 3d 79 d2 eb 3b
       0.02727345 -0.011040402 0.032173295 0.007196721
0003d0 00 6c 93 bd db 8a b1 3c 03 71 ce bc 05 22 c8 bd
       -0.07198334 0.021672657 -0.025200373 -0.09772114
0003e0 c3 87 4c bd 04 5c c1 bd 42 f1 96 be f5 34 9e be
       -0.04993416 -0.09441379 -0.2948094 -0.30899778
0003f0 f8 85 40 be 97 de 8c be 7c da 99 be b2 79 60 be
       -0.18801105 -0.27513573 -0.30049503 -0.21921423

features.3.bias f4 [16]
000000 e5 a3 86 bd c0 c7 31 be 36 1b ac bd a9 76 df bd
       -0.06574229 -0.17361355 -0.084036276 -0.109113045
000010 c3 2c 80 3c 19 60 6f bd 5a 31 99 bd 8a 57 90 3e
       0.015646344 -0.058441255 -0.07480116 0.28191787
000020 76 dc 1b 3f 75 26 11 be 1f 86 31 be e8 30 86 bd
       0.6088327 -0.14174826 -0.1733632 -0.06552297
000030 fc 42 d0 bd 05 dc 66 be a7 b4 f9 3e c2 a9 e5 3e
       -0.10169026 -0.22544868 0.4877064 0.44856077

features.6.weight f4 [120, 16, 5, 5]
000000 1c 3f 21 bd db dd f9 3b f8 c3 c2 3c a3 3f 50 bd
       -0.039366826 0.007625324 0.023775086 -0.05084194
000010 58 fb b4 bc f2 e3 fd 3c f9 df 4c bd c1 65 0d 3d
       -0.022092506 0.030992482 -0.050018284 0.03452087
000020 95 7d fb bc 91 de 2d bc bc 88 09 3d be 2c 83 bd
       -0.03069953 -0.010612146 0.033577666 -0.06405018
000030 db 17 eb 3c 64 af c2 bd 88 be 30 3b 7a 94 2b bc
       0.028697899 -0.09506109 0.0026969034 -0.010472411
000040 24 1e cf 3c ac ef a6 bc 95 ab d2 bd 24 99 42 bc
       0.025282927 -0.020377956 -0.10286633 -0.011877332
000050 6d 48 df 3c e1 56 ce bc 25 42 b4 bd a9 0f 51 bd
       0.027256215 -0.025187911 -0.088016786 -0.051040325
000060 85 b4 8a bc 65 c6 58 bc 90 ce ec bc b2 d5 5f bd
       -0.016931782 -0.013230895 -0.02890709 -0.054647155
000070 f9 39 29 bd 63 16 da bb a3 f8 a1 3b 93 6f bf bb
       -0.041315053 -0.0066555007 0.00494297 -0.005842158
000080 b2 0f 84 bc 45 0a 77 bd f3 1a 63 3c a1 68 fa 3c
       -0.016120765 -0.06031253 0.013861406 0.03056747
000090 08 1b 5c bc e4 c4 c1 bd 1a 49 7f bd 3d a4 5a 3d
       -0.013434179 -0.09461382 -0.062325574 0.053379286
0000a0 ff 0a 0d 3b b4 cc e1 3c c0 d6 71 bd 2e bc 63 bd
       0.0021521447 0.02756343 -0.059042692 -0.055599384
0000b0 e3 98 b5 3c ee d4 9c bc df ee 50 ba e4 2e a3 b9
       0.022167629 -0.019144502 -0.0007970165 -0.0003112472
0000c0 e4 34 c1 bc de 5e b4 bc 15 01 da 3c d6 15 6e bc
       -0.02358479 -0.022017892 0.026611844 -0.014531573
0000d0 f3 3b 78 bc 2d 81 0c 3d f7 dd 38 3c 37 4f e5 bc
       -0.015151012 0.03430288 0.011283389 -0.027991874
0000e0 09 f7 ce 3c 0c 28 1c bd 0e 5c 34 3d f8 3a 3a 3d
       0.02526428 -0.03812413 0.044033103 0.045466393
0000f0 c1 fd 2b bb fe b5 4a 3c 02 3e ee bc d6 67 2e bd
       -0.0026243778 0.012372492 -0.029082302 -0.042579494
000100 e9 e2 df bc e2 07 11 3c 00 27 9d 3c 0e 0f 6d bc
       -0.027329879 0.008851977 0.019183636 -0.014468921
000110 b2 ed e3 bc b3 3b 64 bc b7 f4 a5 bc 40 6d f3 bc
       -0.027823303 -0.013930249 -0.02025829 -0.02971518
000120 74 31 cd 3c 8a 34 55 bd 70 d5 07 3d 19 16 c6 bc
       0.025047995 -0.05205206 0.033162534 -0.024180459
000130 5d c5 9e bd fb bc c6 bd 48 7b 79 bd f2 34 4a bd
       -0.07752488 -0.09704014 -0.060908586 -0.0493669
000140 6b 54 e5 bc 83 d5 b3 bd 7b c8 f1 bd 58 b4 a3 bd
       -0.027994355 -0.087809585 -0.11805817 -0.07993382
000150 00 3e a3 bd b4 65 a3 bd e1 64 16 bd 66 0c b8 bd
       -0.0797081 -0.07978383 -0.0367173 -0.0898674
000160 3e 66 b8 bc 3f 3e ad bd 85 1e 99 3b 10 bb 3c bd
       -0.02250969 -0.08459138 0.0046728277 -0.046076834
000170 07 dc ee bc 10 ad 89 bd b5 60 f7 bd 80 2f 76 3c
       -0.029157652 -0.06722462 -0.12078992 0.015025973
000180 c6 52 44 3a 72 81 4b bd 31 a8 31 bd ad c6 e8 bc
       0.0007489141 -0.049683996 -0.04337329 -0.028415048
000190 58 b9 c1 bc 12 3c 5e bd 7b bf cd bb ec 66 23 bd
       -0.02364795 -0.054256506 -0.0062789298 -0.039893076
0001a0 fe 01 c2 3c 29 56 a0 bc db 62 12 bd 39 53 3d 3d
       0.02368259 -0.019572334 -0.035738807 0.046221945
0001b0 15 cf 75 3b ad bb 55 bc 10 1b 15 3d 21 c7 5c bd
       0.0037507464 -0.013045234 0.036402762 -0.05390084
0001c0 3e 49 b7 3c a9 c5 82 bd c8 af e4 b9 71 fa f9 bc
       0.022373792 -0.06385357 -0.00043618516 -0.030514928
0001d0 4b 9d 11 3d 93 63 d8 bc a6 42 5a bd 8c b6 21 bd
       0.035550397 -0.026414668 -0.053286217 -0.03948073
0001e0 42 fd ac 3c 24 a9 85 bd 41 40 1d bb c1 54 6e 3c
       0.021116856 -0.06526402 -0.0023994597 0.014546574
0001f0 07 9d 0a 3d 12 c3 ec 3c 7e 04 e7 bc 9c 1a 4e bc
       0.03384116 0.02890161 -0.028200384 -0.012579586
000200 ef dc 4a bb e6 f7 87 bd 10 bd 9e 3c 21 04 9b bd
       -0.003095444 -0.0663908 0.019377261 -0.07569147
000210 68 29 53 bd c0 c9 99 bc 8f 9d c4 bd d8 57 1d bb
       -0.05155316 -0.01877296 -0.096003644 -0.0024008658
000220 9c 6b 02 bc 3f b4 74 bc 96 4b 13 bd 04 d9 2a be
       -0.007960226 -0.014935552 -0.035960756 -0.16684347
000230 f9 fa ae bb 29 27 b2 bd 7b 54 2a bd 9d b7 20 be
       -0.005339977 -0.086988755 -0.041584473 -0.15695043
000240 2e c6 0e be 8c 7a a4 3c d7 4c 87 bd e8 46 87 bd
       -0.13942787 0.020077966 -0.06606453 -0.06605321
000250 35 05 1d be bf 52 6f bd 8b 56 ad bc 25 53 b1 3c
       -0.15334018 -0.058428522 -0.021159431 0.021646092
000260 27 4c 0f bd 5a 8a 00 3c 50 0f 0e 3d 0d 51 4c bc
       -0.034984734 0.007845486 0.034682572 -0.012470496
000270 57 58 0c bd 5c 83 dc bc 35 6f 80 3d e7 33 06 3d
       -0.034263935 -0.026918106 0.06271211 0.03276434
000280 94 0f 05 bc 60 41 03 3d 79 a0 1c bd 2f 3f 03 bc
       -0.00812139 0.03204477 -0.038238976 -0.00801067
000290 5b 03 a1 3c bb d9 fe ba c0 3f 9e bd b8 ce 88 bd
       0.01965492 -0.0019443551 -0.07727003 -0.066800535
0002a0 9d 8f 04 bb 61 e9 10 3d 74 78 ad 3c 56 1d c9 bb
       -0.0020227202 0.035378817 0.0211756 -0.0061375303
0002b0 2e 7c b0 bd 1f df 7d bd fc b4 58 3c ea c3 43 3b
       -0.086174354 -0.061980363 0.013226744 0.0029871413
0002c0 ae 89 92 3c 57 d7 ad 3c d8 f2 94 3c 13 53 c3 bc
       0.017887916 0.021220846 0.018182203 -0.023843324
0002d0 d9 56 de bc 95 b2 7e bc 42 d2 27 bc ef 0b 92 bc
       -0.027141022 -0.015545507 -0.010243 -0.017827956
0002e0 bd 7f ec bc 6b 06 0b 3b d7 10 b4 3c 66 ac 43 bd
       -0.028869504 0.0021213542 0.021980686 -0.047771834
0002f0 16 d8 24 3c c7 cd 77 bd f1 89 1c bb 0e 54 6d bd
       0.0100612845 -0.06049898 -0.002388593 -0.05794149
000300 6c 31 ea 3c 89 21 7c bd 34 b6 e8 bc 45 c7 af 3b
       0.02858802 -0.06155542 -0.028407194 0.005364331
000310 40 64 27 bc e4 45 f4 3b 6d a3 32 bc 85 47 58 bd
       -0.010216773 0.0074546207 -0.010903222 -0.05280258
000320 54 99 0f bd c7 3a 0c 3d 0a 1a 5c bd bd 14 01 3d
       -0.035058334 0.034235742 -0.05373577 0.03151392
000330 2d ad 9b bc 63 b2 15 3c 9f 21 83 bb ed bc db bc
       -0.019003475 0.009136769 -0.0040018107 -0.026823485
000340 4b c5 f5 bc 5e f4 4b 3c 27 98 2d bc 8f c0 98 3b
       -0.030001303 0.012448398 -0.010595358 0.0046616266
000350 30 32 cc 3c 7e 42 4c bc 06 a0 27 bd c6 f4 34 bd
       0.024926275 -0.012467025 -0.040924095 -0.044178747
000360 f6 4c 83 3c 3c 08 f7 ba 4e 35 23 bb 90 4b d9 bc
       0.016027909 -0.0018847059 -0.0024903598 -0.026525289
000370 e3 ff 2c bd 9b bc 10 3d 1f dd 68 bd 4d a2 ed bc
       -0.04223622 0.03533612 -0.056851503 -0.029008055
000380 24 73 a3 3c b5 ac 0b 3d d7 39 52 bd 3c 59 d0 bd
       0.019952364 0.034100253 -0.05132469 -0.1017327
000390 74 2a 84 bd 37 18 8b bd 0e 40 41 bc 6e 8b 85 bd
       -0.0645341 -0.06791728 -0.011795057 -0.06520735
0003a0 a7 b4 9c 3c 4c 7e 74 bd 00 ff 6b bd be 16 02 3d
       0.01912911 -0.05969076 -0.057616234 0.03175997
0003b0 48 f8 0b 3d c2 6b 1a bd 31 a2 8f bd 02 ee cc bd
       0.034172326 -0.037700422 -0.070133574 -0.10006334
0003c0 d9 8c 00 bd 00 20 56 bc 44 03 76 ba e7 20 a1 bd
       -0.031384323 -0.013069153 -0.0009384642 -0.07867604
0003d0 84 82 b5 bb 50 e6 83 3c 7d a7 80 bc cc 96 b1 3c
       -0.0055392403 0.016101032 -0.015704865 0.02167835
0003e0 12 e6 dc 3c 76 7d d6 bc 2b 3c bf bc 56 40 37 bd
       0.026965175 -0.026182871 -0.02334412 -0.04473909
0003f0 1b 5c a3 bc b1 57 b2 bd 2e d4 00 3d 46 46 87 bd
       -0.01994138 -0.08708132 0.03145235 -0.066052005

features.6.bias f4 [120]
000000 27 1a e2 bc d0 dd 71 3d fe 4d 17 bc 6d 4d fd 3c
       -0.027600361 0.059049428 -0.009234903 0.030920709
000010 92 3f 0e 3e 5d bd e0 bd 47 6b 9b bd 35 70 a4 3c
       0.13891438 -0.10973618 -0.07588821 0.020073036
000020 f6 ae 2c be 37 c9 47 bd 70 67 ee bc 0f 18 0d bb
       -0.16863617 -0.048775878 -0.029102057 -0.0021529233
000030 ac 66 92 bd ce c5 a8 bd c2 63 81 3c c1 df 93 bd
       -0.07148489 -0.08240853 0.015794639 -0.07220412
000040 3c 3d 72 3d 50 63 ba bd 1a c2 37 bd 08 b2 8b bd
       0.05914043 -0.091009736 -0.044862844 -0.06821066
000050 25 73 63 bd b9 e0 3d 3d 0c f6 ff bc 20 68 a0 3d
       -0.055529732 0.04635689 -0.031245254 0.0783236
000060 cd f1 9d ba e7 5a 82 bb 28 3c 25 bd e7 6f b0 bc
       -0.0012050212 -0.0039781216 -0.040340573 -0.021537734
000070 5a 00 5c bd 66 5b ea 3a 07 1a df bd 82 06 b4 bd
       -0.053711273 0.0017880022 -0.10893636 -0.08790304
000080 d0 5a 14 bd 64 5b 1a bd b9 fa bd bd cd 9d 77 bd
       -0.036219418 -0.037684813 -0.09276337 -0.060453225
000090 b4 cf f4 bd 85 94 bc 3e 6b ef 71 3e 05 de 11 bd
       -0.11953679 0.3683206 0.23626487 -0.035612125
0000a0 d6 5a 31 be cc cc 1d be a1 6c 6c bd d7 c0 85 bd
       -0.17319807 -0.15410155 -0.057720784 -0.06530922
0000b0 f2 93 bb 3c 57 a0 44 3d d2 b4 33 bd 93 fb cf bd
       0.022897694 0.048004474 -0.043873616 -0.10155406
0000c0 ae be fe 3d 2f 43 d1 bd 23 e2 9e bd 21 29 aa bc
       0.12438713 -0.102178924 -0.07757976 -0.020771565
0000d0 51 49 e4 bd 03 95 11 bd 63 07 aa bd 65 d0 e9 bc
       -0.111467965 -0.0355425 -0.0830219 -0.028541753
0000e0 fd 6a 1d 3c 4a 99 8a bc 40 8c ea bd 3a 7f d5 bd
       0.0096080275 -0.016918797 -0.11452532 -0.10424657
0000f0 c0 fe 68 3d e7 52 bd bd c8 2c 32 bd 27 ec 1f bd
       0.056883574 -0.09244328 -0.043499738 -0.03904357
000100 8b 66 a6 3e 33 5e a7 bc 5b 74 90 3d a9 a2 02 bc
       0.3250011 -0.02043066 0.07053443 -0.0079733515
000110 1e 6a 87 be cf 1f 8a 3c 44 bd a2 3d d9 4d 95 3d
       -0.26448148 0.01686087 0.07946256 0.07290239
000120 41 da 31 3e f2 6d 49 3e d2 0c cb bd b8 cd 5a bd
       0.17368414 0.19670847 -0.09914555 -0.053418845
000130 04 6c 88 bc 84 59 81 3d da 4f 9b bd 7a fd e1 bc
       -0.016653068 0.06315902 -0.0758359 -0.027586687
000140 c3 31 f2 3c a1 db 18 bf ec 77 06 bd bd ed 27 3e
       0.029564744 -0.5971013 -0.03282921 0.16399284
000150 a4 11 2e be 43 a4 86 bd fb 0a 4f be 77 79 ca 3d
       -0.16998917 -0.06574299 -0.20219032 0.09886449
000160 bf 01 9f 3a e2 97 db bd fb 53 0e be 23 e1 43 3c
       0.0012131258 -0.10722329 -0.13899224 0.011955532
000170 88 16 01 3d 42 f2 06 3e 6b 84 38 3b ec ca 00 bd
       0.031515628 0.13178352 0.00281551 -0.03144352
000180 bf 5e 94 3d a4 04 81 bc b1 13 3e be f7 8a 26 be
       0.07244634 -0.015749283 -0.18562199 -0.16263948
000190 d2 51 be bc b3 dc 97 bb d8 d4 e9 bd 1c b8 70 3c
       -0.023232374 -0.0046344637 -0.1141755 0.014692333
0001a0 ca 61 3a bd 20 5e f1 bc d5 ae 87 3c 81 9b 61 bd
       -0.045503415 -0.029463828 0.016562859 -0.05507994
0001b0 47 32 37 3d 48 0b 92 bd 57 88 0c 3f a1 11 ea 3d
       0.044725683 -0.07131058 0.5489554 0.11429144
0001c0 58 d7 b6 3d 99 ac ea bc 6b 46 f1 3d ef fd 6b 3e
       0.08927792 -0.028646754 0.11781009 0.23046087
0001d0 c3 0d be 3d 6f 06 39 be 87 b7 cd bd 00 f9 3a bc
       0.092799686 -0.1806886 -0.10044771 -0.011411905

cpu f4 [84]
000000 23 ea 90 3e bc 5f e0 bd 1a ba a9 bd ca be 4e 3d
       0.28303632 -0.1095576 -0.08287449 0.05047492
000010 5d a6 f8 3d 89 bc 80 3e e4 55 44 3d 16 2d c2 3e
       0.12141106 0.2514384 0.047933474 0.37925023
000020 23 b4 a1 3d 4e 78 2f bd 31 5c a0 3d ae 15 7d 3e
       0.078956865 -0.04283934 0.07830084 0.24715301
000030 70 b3 8a 3f f7 37 bb bd f1 0c d6 bc eb a3 18 3e
       1.083601 -0.09141534 -0.026129218 0.1490628
000040 9f 86 2e 3e 06 0f 24 be fb 97 96 bd b4 f7 47 3e
       0.17043541 -0.16021356 -0.07353207 0.19528085
000050 d9 82 3c 3e 82 32 50 3d 6c e4 0c be 4b 0d 03 be
       0.1840929 0.050829418 -0.13759011 -0.1279804
000060 15 44 f4 bd 1f b6 2d be 98 ee 08 bc 64 ab 89 bd
       -0.11927048 -0.16964005 -0.008357666 -0.06722143
000070 6c 97 09 3e 5b dc c6 bd d5 6e 1e 3e 9c d0 0b bd
       0.13436669 -0.09709998 0.15471967 -0.034134492
000080 f5 d0 26 be 5f db 05 be 03 7a eb 3d 99 0e 26 3e
       -0.16290648 -0.13071965 0.11497881 0.16216506
000090 fc 93 c4 3c 49 a4 a6 3e 12 ef 41 bd 1f f6 da bd
       0.023996346 0.32547215 -0.047347136 -0.10691475
0000a0 3b 6d 0a 3d 86 a3 02 be 03 07 8a bb fe 39 99 3c
       0.033795577 -0.12757692 -0.0042122616 0.01870441
0000b0 90 d8 07 bd 46 fe 38 3f 0b 7b 2c bd a2 0c 04 3e
       -0.033165514 0.7226299 -0.04210953 0.12895444
0000c0 2f 70 58 3e eb 39 46 3c 4d 4e b7 bd c0 7e 24 3e
       0.21136545 0.01209877 -0.089504816 0.16063976
0000d0 4c 63 98 bc bd 85 23 be 88 48 76 be d8 40 18 bd
       -0.018602036 -0.15968986 -0.24051106 -0.037171215
0000e0 fd c5 52 3e 20 22 10 3e 1a 5c 13 3e 7a ce b2 bc
       0.20583339 0.14075518 0.14390603 -0.021826971
0000f0 de 2f e4 3d 6c 10 00 3f ef d9 bc 3c 74 35 74 3c
       0.111419424 0.5002506 0.023053138 0.014905322
000100 c5 cb d7 3e 0f a1 75 3d e7 12 43 bc fc 75 93 3e
       0.4214765 0.05996805 -0.011906362 0.28800952
000110 fd eb 18 bd 25 66 69 bd 80 56 dd 3c c0 2d 16 3f
       -0.03733443 -0.05698218 0.027018785 0.5866356
000120 78 15 e3 bd 4c d3 9d bd 66 47 b7 bc c8 d2 b5 bd
       -0.11088079 -0.07706317 -0.022372913 -0.08878094
000130 ef d8 e1 3b 21 0f c8 be 2d af ac bd f7 f1 df be
       0.0068923156 -0.39074042 -0.0843185 -0.43739292
000140 22 86 2d bd 3e 5b 61 3f 77 a9 f3 bc 09 e6 0c 3f
       -0.042364247 0.8802985 -0.029743893 0.55038506

cpu f4 [10]
000000 ef 71 d5 bc 72 c9 a7 be 3a 3c 10 bf dd ee 49 3d
       -0.026055304 -0.32770878 -0.563419 0.049300063
000010 9a 3c 59 be 2a 60 28 3e 29 62 37 bf 5e d0 08 3f
       -0.21214524 0.16442934 -0.71634156 0.53442943
000020 6c d1 71 3f 98 c6 23 3e
       0.9446018 0.15993726
