results/model.pth (torch, 499562 bytes, 20 tensors)

conv1.weight f4 [6, 1, 5, 5]
000000 c3 60 95 3f 15 7d 25 be a9 bb 22 bf ed 3b 07 bf
       1.1670154 -0.16160996 -0.63567597 -0.52825814
000010 78 db e5 be 4a 10 6e 3f b2 e3 a3 be e9 e8 fc be
       -0.44894004 0.92993605 -0.32009655 -0.49396446
000020 bf de b5 be 3a af 99 3c ef 01 1b 3f 70 c0 e7 be
       -0.35521504 0.018760312 0.60549825 -0.45264006
000030 09 ea d7 be 12 83 7d be 48 e8 13 3d c8 95 1d be
       -0.42170742 -0.2475703 0.036110193 -0.15389168
000040 e6 19 1c bf 01 ed a1 be a0 69 fc 3c e1 1e f5 bd
       -0.6097702 -0.31626132 0.030812085 -0.1196878
000050 09 e3 12 bf f9 cc 1e bf 51 5d 08 be cf 3c 25 bd
       -0.5737768 -0.62031513 -0.13316847 -0.040341195
000060 75 df 16 3d 36 8e 36 bd af 24 18 3f 52 30 1e bf
       0.0368342 -0.044569217 0.59430975 -0.6179248
000070 6b 4a 99 bf 3f bc 0b be 8f 5b c1 be 63 c0 75 3f
       -1.1975836 -0.13646029 -0.37765166 0.95996684
000080 29 24 b6 3d 18 f0 3e bf 28 8e 8f 3a 20 eb 1a bf
       0.08893616 -0.74585104 0.00109524 -0.6051502
000090 df ce 93 3f 4d 3a 51 3f fb cd a4 3e 8b 8d b4 3e
       1.1547507 0.81729585 0.321884 0.3526424
0000a0 e9 4c ed bb d4 8d 0d 3f 06 ed 37 3f 55 33 40 bb
       -0.0072418344 0.5529454 0.71846044 -0.0029327471
0000b0 b2 de d2 3d d2 86 46 bf a7 5c c9 be 67 a7 d7 3c
       0.10296382 -0.7754947 -0.393285 0.02632494
0000c0 bd 78 21 be 68 4e 12 bd e8 97 a8 be 2d c6 69 be
       -0.15768714 -0.035719305 -0.32928395 -0.22829504
0000d0 3e 8b f1 bc 6c 6e 37 be 54 14 8d 3d 60 f2 98 3d
       -0.029485341 -0.17913216 0.06888643 0.07468104
0000e0 ee f7 e3 bd 91 44 6d be 69 32 3f 3d 17 af d8 bc
       -0.11131273 -0.23170687 0.046678934 -0.026450677
0000f0 c5 89 29 be 30 48 5b 3d f5 85 38 3d c1 9a db 3d
       -0.16556461 0.05353564 0.045049626 0.10722876
000100 ed 59 53 be 40 92 24 bd 5e 2f 68 bd a9 ab 28 bd
       -0.20639773 -0.040178537 -0.056685798 -0.041179333
000110 4c d9 7b be a8 32 89 be 86 62 ca 3d 8c 34 c9 bd
       -0.24594611 -0.2679646 0.09882073 -0.09824476
000120 46 e3 39 3c be 30 d4 bd d9 c4 97 bd 14 16 81 3b
       0.01134569 -0.10360859 -0.074105926 0.0039393995
000130 f0 65 86 3f 9d 34 a2 3f 62 fd 4d 3f c6 f9 1e 3f
       1.0499859 1.2672306 0.80464756 0.62099874
000140 74 1d 93 bf bd 94 d9 be 10 06 ae bd bb d1 31 bc
       -1.1493363 -0.4249629 -0.0849725 -0.010853226
000150 10 35 52 3d e4 75 bb bf 71 f3 81 bf 3c 28 09 bf
       0.051320136 -1.4645352 -1.0152417 -0.5357702
000160 b7 77 0c bf fc a3 6a bd 2a a2 d7 be d7 8d 42 bf
       -0.5487017 -0.057285294 -0.4211591 -0.7599768
000170 7f cd 26 bf cd 6f 39 bf ef 2d 13 bf 93 f7 4d 3f
       -0.6515731 -0.7243622 -0.57491964 0.80455893
000180 e1 45 04 3f f9 ce 99 3e 84 43 dd bd c9 6b bd bd
       0.51669127 0.3004072 -0.10803893 -0.09249074
000190 3a 79 c3 bf 3a dd 84 bf 71 f0 ba 3d de c5 12 3e
       -1.527137 -1.0380013 0.09127892 0.14333293
0001a0 56 54 6f be bd fa 83 bf 79 07 62 3f 54 a3 99 3f
       -0.23372015 -1.0310894 0.8829265 1.2002969
0001b0 4e e0 22 3f 6c 02 31 be f8 75 8a 3e 1c be 98 3f
       0.6362351 -0.1728608 0.27043128 1.1933017
0001c0 21 c2 69 3f c3 93 1d bf 3a 5f 79 bf 23 20 ea 3e
       0.9131184 -0.6155359 -0.9741093 0.45727643
0001d0 01 8a ec 3d 12 d6 ed be a9 42 a2 bf 43 ce 5f bf
       0.1154976 -0.46452385 -1.2676593 -0.87424105
0001e0 4f 1a d8 be 1d f2 da be c6 18 6c 3e 75 c2 1c 3e
       -0.42207572 -0.42762843 0.23056325 0.15308554
0001f0 fc c2 2d 3f 75 dd ee 3e b0 a1 9a 3e 3d a6 87 3e
       0.6787565 0.46653333 0.30201483 0.26494017
000200 8e ae b8 3e 3b d0 06 bf 17 df 2b bf 70 70 24 bf
       0.36070675 -0.52661484 -0.67137283 -0.64234066
000210 66 de 12 bf 22 ab 6c 3b 31 c1 8c 3e 17 73 43 bf
       -0.57370603 0.0036112745 0.27491143 -0.7634749
000220 7e 01 04 bf 92 be 89 be 4f f1 64 3e c1 e5 6c 3f
       -0.51564777 -0.26903206 0.22357677 0.92538077
000230 6e f4 57 bf 39 66 48 be 7d 2a 2c 3d e2 f2 c1 3e
       -0.84357345 -0.19570245 0.042032707 0.37880617
000240 61 11 7b 3f 06 d1 1d 3e e0 19 09 3f d8 da 9c 3e
       0.98073393 0.15411767 0.5355511 0.30635715
000250 9b 08 b3 bd 16 f1 d0 3e
       -0.08741876 0.40808934

conv1.bias f4 [6]
000000 ef 5a f4 bf 3b c7 14 c0 df 43 8d bf c2 42 e3 bf
       -1.9090251 -2.32466 -1.1036338 -1.7754748
000010 3e 8f ef bf 79 1b 3c c0
       -1.8715589 -2.9391768

conv2.weight f4 [16, 6, 5, 5]
000000 f9 7c 7c 3d 48 8e 95 be f4 0c be be 0e e5 47 3e
       0.06164262 -0.29210114 -0.37119257 0.19520971
000010 0e d2 85 be 15 2e 33 3e 4f db 97 bc 9f b7 28 be
       -0.26136822 0.17498048 -0.018537192 -0.16476296
000020 07 ef b1 3e 13 9e 10 bd 3c d8 7a 3e 91 5a 8f bd
       0.34752676 -0.035307 0.2449655 -0.06999696
000030 9e e7 68 be ec 32 79 3d 36 a1 94 be 0b c3 a6 3e
       -0.22744605 0.06083958 -0.29029244 0.3257068
000040 5d 49 00 be fd 99 22 be 8f 62 db 3d 7b c7 13 be
       -0.12527986 -0.15879054 0.10712158 -0.14431565
000050 1d 99 9b 3d c7 4f da bd b6 b1 3f be e6 62 94 3e
       0.075975634 -0.106597476 -0.18720135 0.28981704
000060 3e ec dd 3d 94 24 97 bf b7 22 a0 bf 06 1d a4 3d
       0.10836075 -1.1808038 -1.2510594 0.08013348
000070 2e 54 93 3e 50 de f0 3e 8d 82 5a bf 13 40 a5 bf
       0.28775162 0.4704461 -0.85355455 -1.2910179
000080 c0 d6 a0 3e 8f 76 2a 3e f6 5d ac be f5 cd 2a bf
       0.3141384 0.16646789 -0.33665437 -0.66720515
000090 5d 5e 93 bf 6d 40 64 3e 64 4c 74 3f 9d 5d 58 bf
       -1.1513172 0.22290201 0.9542906 -0.8451784
0000a0 46 48 ed bd 41 ce 3a bf 4e 90 43 bc 25 95 ce 3e
       -0.11586051 -0.7297097 -0.01193626 0.40348163
0000b0 39 b8 9f be 64 8c 09 3e 57 1f 02 bf 7b b3 1c be
       -0.31195238 0.13432461 -0.5082907 -0.15302841
0000c0 12 d0 7b 3e 83 1f 89 bd 15 f2 28 bd 23 13 a0 bd
       0.24591091 -0.066954635 -0.041246492 -0.0781615
0000d0 50 41 d9 bc be 55 71 3d ad 4e 06 bd 09 ac 49 bd
       -0.026520401 0.05891966 -0.032789875 -0.04923633
0000e0 42 f9 0b be 38 62 a3 3d d7 21 59 3d 27 75 f5 bc
       -0.13669303 0.07977718 0.053010788 -0.02996309
0000f0 4a 9a 8f bb ca 29 73 bd 2d fd ae bc 03 50 58 3b
       -0.0043824064 -0.059366025 -0.021360958 0.0033006675
000100 9e ff 1e be d9 a2 dc 3d bc c7 1c bc e8 ca 88 bd
       -0.15527198 0.10773248 -0.009569105 -0.06679326
000110 67 80 7c bd cd 9f 3b be 1f 84 ae 3d 5c f2 f8 3d
       -0.06164589 -0.18322678 0.08521294 0.121556014
000120 f2 39 c5 3c 74 c2 4d bd 90 94 3f be 94 82 71 3d
       0.024075482 -0.050234273 -0.18709016 0.05896242
000130 1d cd 8a be 7c d8 56 bf 56 95 66 bf b1 fc 04 be
       -0.27109614 -0.8392408 -0.9007162 -0.12987019
000140 1f bf 8a 3e b2 21 8d bd 18 89 68 bf fc c3 25 bf
       0.2709894 -0.068911925 -0.9083419 -0.64752173
000150 40 84 f6 3e 76 e3 01 bf 85 91 15 3e 3a 9d 46 bf
       0.48147774 -0.507377 0.14606293 -0.7758366
000160 bf 5f 2c bf 75 0b 2b 3e 75 78 f9 be 49 b4 4c 3e
       -0.67333597 0.1670359 -0.48724714 0.19990648
000170 94 02 8b be ad c6 15 bf 24 8f f6 be 26 8a c5 be
       -0.27150404 -0.5850628 -0.48156083 -0.3858196
000180 33 8d 79 3c 81 45 9b 3d f0 16 ab 3d d9 0f 8a be
       0.015231418 0.07581616 0.08353984 -0.26965216
000190 72 bb f0 be 54 75 fa be 76 74 83 3c 7a 46 98 be
       -0.4701801 -0.4891764 0.016046744 -0.2974127
0001a0 89 ad 11 bf 0b 19 82 be e2 a3 21 bf d4 be cc 3e
       -0.5690542 -0.2540973 -0.6314069 0.3998934
0001b0 10 9e 80 3e 81 96 50 bf 2b 9c df be fa fc 2b bf
       0.25120592 -0.8147965 -0.43673834 -0.67182887
0001c0 e3 bc c6 3a cb 02 67 3e ac d0 30 bd 58 4e 65 be
       0.0015162494 0.22559659 -0.043167755 -0.22393167
0001d0 58 44 63 bf a2 d3 97 bd 7a 3f 7c 3d f6 37 c7 3e
       -0.8877616 -0.07413413 0.061583973 0.38909882
0001e0 4b 78 77 be 39 04 de be 84 cb 96 3e ca ad 12 bc
       -0.24166982 -0.43362597 0.29452145 -0.008952567
0001f0 93 16 9a 3e 5b c6 4c bd 6d ca 04 be cc b6 d9 bd
       0.30095348 -0.049993854 -0.12967844 -0.10630569
000200 c7 58 09 bd 30 48 13 bf da b1 93 be 02 f9 62 3f
       -0.03353193 -0.57532024 -0.28846627 0.88661206
000210 9d ff fd be a1 ad 9c bf 05 f4 28 be 19 2a 1f bf
       -0.4960908 -1.2240487 -0.16499336 -0.6217361
000220 fb 20 90 3f 46 3a 51 be 58 1f b0 bf 5e f8 a9 3e
       1.1260065 -0.20432386 -1.3759565 0.33197302
000230 6e 9f 6d bf 94 41 24 3f c7 58 9a 3e 04 6e ad bf
       -0.92821395 0.64162564 0.30145857 -1.3549199
000240 31 c6 cb 3d ee c7 25 3e 74 fa 41 3d 85 31 2e 3e
       0.099499114 0.16189548 0.04735799 0.17011078
000250 02 41 29 bf 2d 01 48 be 3a 34 cc bd 4c 77 3d 3d
       -0.6611482 -0.19531699 -0.09970899 0.04625635
000260 d6 90 6b bc 51 84 0a 3d 1c 8d 83 bd ab 6c 46 bd
       -0.014377793 0.033817593 -0.06423399 -0.048443478
000270 5c ff d7 bd 1f 71 86 bd 13 54 1a 3c 2d 65 08 be
       -0.10546753 -0.06564545 0.009419459 -0.13319845
000280 b1 43 67 bd e7 01 88 3c 43 22 39 3c 2a e6 0b bc
       -0.05646104 0.01660247 0.011299673 -0.008538762
000290 b3 f2 72 bd 88 41 17 bd 0c b7 60 bd 66 f5 86 bd
       -0.059313487 -0.03692773 -0.054862067 -0.06589775
0002a0 6b 92 f7 3b 98 2d 53 bd 66 2a 9d bd ae 70 7c bc
       0.007555296 -0.051557153 -0.076741025 -0.015407724
0002b0 46 65 a8 bd 00 f3 e0 bc ca a0 01 3d 24 7a c5 bd
       -0.082224414 -0.027459621 0.03164748 -0.09642437
0002c0 b3 5e 55 bd f9 e1 43 be 43 23 28 be d7 72 6d be
       -0.052092265 -0.1912917 -0.16419701 -0.23188339
0002d0 b7 28 2c be 64 be 3d be 54 ab 05 be 27 74 19 be
       -0.16812406 -0.1852966 -0.13053638 -0.14985715
0002e0 89 eb 69 be 7b 39 39 be 59 6a 69 be 58 35 7f bd
       -0.22843756 -0.18088333 -0.22794475 -0.062306732
0002f0 a0 67 02 be d4 57 17 be e8 8e 29 be 1a a9 51 be
       -0.12734842 -0.14779598 -0.1655842 -0.20474663
000300 f2 68 41 be e1 98 da bd 20 f3 d8 bc dd d0 f3 bd
       -0.1888769 -0.106736906 -0.026483119 -0.11905072
000310 f4 ad 2b be 80 3a dd bd db 16 bd 3c 13 97 d9 bb
       -0.16765577 -0.108021736 0.023082187 -0.006640324
000320 6b 86 11 3c cc 29 83 bd 04 a5 92 bd cc 8e 0c be
       0.008882145 -0.064044565 -0.071603805 -0.13726348
000330 c5 0c 3e be c9 35 21 be d7 d0 5a bd ac 00 fa bd
       -0.18559559 -0.15743174 -0.05342182 -0.122071594
000340 8d 1b a9 bd 0c 65 ec bd 22 30 26 be ba 41 06 be
       -0.08257208 -0.11542711 -0.16229299 -0.1311101
000350 de cb 5b bd ca 7d bf bd 43 cd 2a be 60 3d 6d bd
       -0.05366122 -0.09350164 -0.16679864 -0.05791986
000360 bf d5 72 bd 34 5e 79 bd a5 87 36 bc 7d ae 53 bd
       -0.059285875 -0.060880855 -0.011140739 -0.051680077
000370 65 3e c9 bd 16 98 2a 3d 59 3b f2 3c 2f 61 e2 bc
       -0.09826354 0.041648947 0.029569315 -0.027634231
000380 1e 96 a9 bd 12 ed b4 bd f0 80 18 3d 3e c1 4e bd
       -0.08280586 -0.0883428 0.03723234 -0.05047726
000390 31 44 aa bd ba 83 d7 3c 74 ab a7 3b 97 92 c5 bb
       -0.08313788 0.02630793 0.0051168744 -0.0060294378
0003a0 a6 10 33 bd a5 8b 5c bd 3f 21 35 bc f3 1c 20 3d
       -0.04371705 -0.053844113 -0.01105529 0.039090108
0003b0 32 29 1f bc f9 20 7a bd ed 9b 5e 3d f5 78 c7 bc
       -0.009714412 -0.0610666 0.05434792 -0.024349669
0003c0 30 b9 27 3d 80 ed ae 3b 7b 0f 71 3d a0 43 bd 3c
       0.040948093 0.005338371 0.058852654 0.023103535
0003d0 9f 49 8b bd 4b 53 18 3d d0 6b 4a bc 14 c8 a8 bd
       -0.068011515 0.03718881 -0.012354806 -0.08241287
0003e0 5d 8a 36 bd 36 8e d2 bd f6 21 91 be ac 10 a2 be
       -0.044565547 -0.10281031 -0.28346223 -0.31653345
0003f0 0f 18 77 be 68 e8 bc be bf bb dd be b8 0f 5c be
       -0.24130271 -0.36896062 -0.433073 -0.21490371

conv2.bias f4 [16]
000000 6d ca 09 3e 16 87 34 be 55 c6 0e bf 5d e9 15 3d
       0.13456126 -0.17629656 -0.5577138 0.036599506
000010 4b 95 94 bd ad 33 59 bd a3 69 fd bd 3d 5d d2 be
       -0.07255038 -0.053027797 -0.12373664 -0.4108676
000020 29 e0 41 be bd 78 01 be e7 eb 0a bf 79 2a 14 bd
       -0.18933167 -0.12643714 -0.5426621 -0.036173318
000030 2b b0 5e 3f ef 3d 67 be 1a 75 8e bc 70 1e 63 3f
       0.8698756 -0.2258222 -0.017389823 0.8871832

conv3.weight f4 [120, 16, 5, 5]
000000 80 fb 5f bc b4 de 1f 3c 6d 28 68 3d 17 bc 6c bd
       -0.013670802 0.009757686 0.056679178 -0.057796564
000010 37 a7 be bc 80 72 ff 3d dc f7 95 3d 38 bf 34 3d
       -0.023273094 0.12473011 0.07322666 0.044127673
000020 99 9c 27 bd 92 d7 bd 3c 5c c1 64 3e 04 08 21 3d
       -0.040920828 0.023174081 0.22339386 0.039314285
000030 44 90 e1 bb 10 16 11 be c6 3a 47 3e 47 88 a3 3d
       -0.006883653 -0.14168572 0.19456014 0.07984977
000040 d2 2f b1 3d e9 8f 8e bd 21 f0 16 be 63 a2 28 3d
       0.08651699 -0.069610424 -0.1474004 0.04117049
000050 b8 6e ff bc 4d 5f 86 bd 5a c3 9b bd 49 d9 d5 bc
       -0.031180725 -0.06561146 -0.0760562 -0.026104586
000060 33 69 ce bd 32 94 b1 bc 08 12 6b bd 7a 3e f8 bd
       -0.10078659 -0.02167711 -0.057390243 -0.121212915
000070 8e 63 ed bd 5a b4 5e bd e1 1c 19 bc 43 13 95 bd
       -0.11591254 -0.054371215 -0.009345264 -0.072790645
000080 01 d0 00 be 2c 2a 10 be 50 7f 15 bd 8b c3 04 bb
       -0.12579347 -0.14078587 -0.036498368 -0.0020258154
000090 1f 07 d7 bd e6 5d 55 be a5 73 f3 bd 22 52 ec 3c
       -0.10499405 -0.208366 -0.11887292 0.028847758
0000a0 1d a6 3f bd f1 28 4f bd b8 18 1d be fa 1c f1 bd
       -0.046789277 -0.050576154 -0.1534146 -0.11773105
0000b0 dd fb bb 3a 3a 09 48 bd fd 75 89 bd f8 65 91 bd
       0.0014342029 -0.048836924 -0.067119576 -0.07099527
0000c0 e8 9e 92 bd 85 67 27 bd cd db 38 3d 60 99 9a 3c
       -0.07159215 -0.04087021 0.045131493 0.018871963
0000d0 ad de 77 3c 85 78 70 3d ac 3e 32 3d fb 99 0e be
       0.015128774 0.058708686 0.0435168 -0.13925926
0000e0 2f a0 35 bd f6 eb f7 3b c5 23 db 3d 68 a5 aa 3d
       -0.044342216 0.0075659705 0.10700182 0.0833233
0000f0 80 58 3d be f7 c3 09 bd bb c6 94 bc 59 27 2f be
       -0.18490791 -0.033634152 -0.018161168 -0.17104854
000100 51 c2 1c bc 3b 3e 8e 3c 88 59 3b bd 2c 62 b7 bd
       -0.009567813 0.017363658 -0.04573968 -0.08954272
000110 d6 af e0 bd 03 82 2a bd d5 21 2d 3e 0a ea 42 3e
       -0.10971038 -0.041627895 0.16907437 0.19034591
000120 6f f1 02 3d 07 81 bf bd 93 0b 0e bd de 6d 35 3d
       0.03196853 -0.09350782 -0.034679007 0.04429423
000130 f8 4b ac bd 7e 55 e8 bd 53 d7 e6 bd 70 24 bd bd
       -0.084129274 -0.11344431 -0.112715386 -0.092354655
000140 1d fd 1b bc cf 72 fc bd 50 cd e5 bd 8c b7 d7 bd
       -0.009520796 -0.123265855 -0.11220801 -0.10533056
000150 d7 40 02 be 4e 71 cb bd d0 bf 49 bd 26 18 b7 bd
       -0.12720047 -0.099337205 -0.049255192 -0.08940153
000160 72 d0 9f bc 7b 80 b6 bd 27 b6 a8 bc b6 32 99 bc
       -0.019508574 -0.089112245 -0.02059467 -0.018700939
000170 13 ed 1c bd 80 b0 c2 bd 9d bc da bd f7 d4 0e 3c
       -0.03831203 -0.09506321 -0.106805064 0.008717767
000180 aa 4f 74 bc 21 62 e5 bd a7 38 68 bd 0c a1 9d bc
       -0.0149115715 -0.11200357 -0.056694653 -0.019241832
000190 f4 b2 d2 bc 7c 4c 56 bd 96 70 cc bb 88 b1 77 bd
       -0.025720097 -0.052319035 -0.006239007 -0.06047204
0001a0 f2 3a 1b 39 4f 65 b5 bc c9 26 ab 3b 3a 5a 18 3d
       0.00014803911 -0.022143034 0.0052231294 0.03719542
0001b0 f2 13 cf bc a2 2e 29 bd ee 22 80 3d ec c7 6e bb
       -0.025278065 -0.04130424 0.06256662 -0.003643508
0001c0 f3 3d be 3d 33 4c 86 bd 6c 5b 61 bc e6 5d 88 bb
       0.092891596 -0.065575026 -0.013754707 -0.004161584
0001d0 0a a8 00 3d 53 85 d4 bc 83 2e 30 bd 79 55 80 bc
       0.031410255 -0.02594248 -0.043013107 -0.015665757
0001e0 ae 40 ff 3c d2 3e a7 bd cb 62 40 3b 1f 75 1d 3d
       0.031158771 -0.08166279 0.002935576 0.038441774
0001f0 26 ce 2e 3d 86 83 5f 3d 43 19 f5 bc a7 bf 48 bd
       0.042677067 0.05456879 -0.029919272 -0.0490109
000200 c9 f8 14 bd 41 2b de bd 8e 89 2a 3d 79 83 d3 bc
       -0.036370073 -0.10848094 0.04163509 -0.025819527
000210 d2 79 ac 3c f1 90 56 bd 2a 56 df bd 70 00 0c be
       0.021054182 -0.05238432 -0.10905106 -0.13672042
000220 a6 56 e5 bd 66 0f 05 bc 1e f4 1e bd a3 4b 3b be
       -0.111981675 -0.008121347 -0.038807027 -0.18290572
000230 39 ca eb bc 8f 97 a3 bd 17 5f 32 be 8e 8f 8a be
       -0.02878295 -0.07987892 -0.17419086 -0.2706265
000240 42 52 fd bd 22 ea 01 be 7b 66 b9 be a1 a0 d0 be
       -0.12369205 -0.12686971 -0.36211 -0.4074755
000250 3a 07 8c be 9a fc 5e bb 37 ac e7 bc c1 78 63 3b
       -0.27349263 -0.0034025074 -0.02828036 0.0034709426
000260 44 20 77 bd 70 05 09 bc 6d de d9 3c 04 57 11 bd
       -0.060333505 -0.008363113 0.026595319 -0.035483375
000270 a5 2a ae bd e7 91 dd bd e0 29 24 bd db b9 19 bd
       -0.085042275 -0.10818844 -0.040078998 -0.03753076
000280 31 05 05 bd ce b4 c2 bc 7e ec f1 bd d8 30 df bd
       -0.032475654 -0.023767855 -0.118126854 -0.10897988
000290 41 c7 4c bd 5d 81 8b bc f9 aa 15 be 0c 4e 2b be
       -0.04999471 -0.017029459 -0.14616002 -0.16728991
0002a0 9a 8d a6 bd e7 e3 0d bb 4b 1f 8d bc 89 ee 9f bd
       -0.08132477 -0.0021650733 -0.017226836 -0.07809169
0002b0 9f 2b 31 be c5 f6 ee bd 7a d6 9f 39 23 8a 7d 3b
       -0.17301796 -0.11668161 0.0003048664 0.0038687072
0002c0 70 63 73 3d e7 79 28 3d 8f 0d 38 3d b4 1a b7 bb
       0.059421003 0.04113188 0.044934805 -0.0055879
0002d0 d3 54 0b 3d 8a 98 37 bb 28 0a 8f 3c 04 80 8d 3c
       0.03401644 -0.0028014504 0.017460898 0.017272957
0002e0 d5 2a a8 3b cb 0d ba 3c 4e ab 6c 3d 29 c9 a7 bc
       0.005132059 0.022711655 0.057780556 -0.020481663
0002f0 11 23 3b 3d 52 5c 34 bd 7c 1e 95 ba 4a 47 5d bb
       0.04568774 -0.044033356 -0.0011376883 -0.0033764415
000300 4c 64 83 3d ab 79 8d 3b 5a 99 29 bc ca a1 40 3d
       0.064156145 0.0043174825 -0.010351503 0.047029294
000310 e6 09 4b 3d 2a 85 4b 3d 82 2e ee 3c 38 1b 68 bc
       0.049569987 0.049687542 0.029074911 -0.014166646
000320 52 26 12 3d 6d 97 66 3d 11 98 19 bd 61 ee 89 3d
       0.035681076 0.056296755 -0.037498537 0.0673492
000330 f5 93 90 3b b9 06 a0 3d 26 3b 2e bd 98 86 ca bc
       0.004412169 0.07813782 -0.042536877 -0.024722382
000340 d6 72 af bc 4a 12 1a bd 7c 8b 4e bc ae 5f dd 3c
       -0.021417063 -0.037615098 -0.012606498 0.027023163
000350 02 31 ff 3d 99 af 46 3d 83 2e 7b bd ce 4f 1c bd
       0.124605194 0.048507307 -0.061323654 -0.038162045
000360 0c f8 3f 3d 90 29 83 3d 2c e8 70 3d 75 a6 04 bd
       0.046867415 0.06404412 0.058815166 -0.03238531
000370 a2 17 9c bd ea d4 30 3d 08 7d 9f bd 90 38 9a bd
       -0.07621695 0.0431718 -0.0778752 -0.0753032
000380 95 98 53 3e 3b 6d 17 3d 64 06 15 bd 46 e1 b1 bd
       0.20663674 0.036969405 -0.036383048 -0.086855456
000390 95 a9 4a bd d9 20 6c bd 10 e4 56 bc f1 53 88 bd
       -0.049478132 -0.057648513 -0.013115898 -0.066566356
0003a0 d5 9e f1 bb cc ca 95 bd ba ca 51 bd 08 ae b3 3c
       -0.0073736706 -0.07314071 -0.051218726 0.02193357
0003b0 7b 1f e5 3c 07 c4 80 bd 1f e1 a3 bd 6a 2d b3 bd
       0.027969113 -0.06287389 -0.08001923 -0.087488964
0003c0 e3 fa 3b bd a7 b5 04 bd 95 e7 b8 bc 24 34 bc bd
       -0.04589356 -0.0323998 -0.022571364 -0.091896325
0003d0 ed 9d 9d bc 56 41 7d 3c 3c a7 db bc 8e 75 08 3a
       -0.019240344 0.015457472 -0.026813142 0.00052055053
0003e0 74 bc 13 3c f5 dc 17 bd ca b5 04 3d 1f a9 4a 3d
       0.009017099 -0.037075955 0.03239993 0.049477693
0003f0 57 e8 15 3d 8d 49 26 be e9 58 26 bd eb e1 9d 3d
       0.03659853 -0.16238995 -0.040612135 0.07709106

conv3.bias f4 [120]
000000 0a 2d b7 3d dd da 09 be 46 4d 01 bd 3a 93 d6 3d
       0.089441374 -0.13462396 -0.031567834 0.104773
000010 4d 4a 7b be 8d 5b 39 bd 19 b7 82 bb e4 f9 11 be
       -0.24540062 -0.045253325 -0.003989112 -0.14255482
000020 69 55 19 bf 95 6b 76 bc 7f 1a a7 bd ca 84 54 bc
       -0.5989595 -0.015040298 -0.081593506 -0.0129711125
000030 9d 0f 70 bb a9 3e 6b be 83 bc 01 bd bf 52 81 3d
       -0.00366304 -0.22973122 -0.03167392 0.06314611
000040 51 dd 75 3d b3 1d b4 bd a8 d9 a7 3d 39 08 1f bd
       0.060025517 -0.08794727 0.081958115 -0.0388262
000050 53 a7 1d bd 9c 73 56 bd 82 21 a8 3c 71 fd 0e bd
       -0.03848965 -0.052356347 0.02052379 -0.03490967
000060 5b d1 11 3c 43 b0 a3 be e7 04 09 bd 80 f8 a0 3e
       0.008900012 -0.31970415 -0.03345194 0.3143959
000070 8e 86 36 bc eb 0c 7d 3d ec f7 c5 3d a8 93 ae bc
       -0.011140479 0.061779898 0.09666428 -0.021310642
000080 1c 29 c1 bd 04 03 ee 3b 4c b9 87 be 49 55 4b bd
       -0.09431669 0.007263543 -0.26508558 -0.04964188
000090 d9 b3 94 be 9d b0 cd bd 93 ba a9 bd b4 af 0d be
       -0.29043463 -0.10043452 -0.08287539 -0.13836557
0000a0 41 8a 6e bd d5 d7 9d 3b bc 73 66 bd 59 d0 ef bc
       -0.058237318 0.004816989 -0.056262717 -0.029274153
0000b0 1f b0 72 bd d1 12 40 be 08 b5 ed 3d 94 05 97 bc
       -0.059249993 -0.18757178 0.116067946 -0.018435277
0000c0 08 8c 8d be ed 27 1a be e0 57 4d be 8c e7 eb 3b
       -0.27645898 -0.15054293 -0.20053053 0.0071992334
0000d0 28 45 fe 3c bd 02 a5 3d 53 45 af bd 56 cb a0 bc
       0.031038836 0.08057163 -0.085581444 -0.019628208
0000e0 a7 16 92 bd 5b 79 c3 3e 4c 88 88 bc 56 67 1e bd
       -0.07133227 0.38178524 -0.016666554 -0.038672768
0000f0 3e d8 29 3d 58 c5 71 bd 70 61 38 bd 01 56 12 bc
       0.04146599 -0.059026092 -0.0450148 -0.008931638
000100 f2 36 9e 3c 0f e1 a0 bc bc 98 3f be 8e 8c 7d 3e
       0.01931331 -0.019638566 -0.18710607 0.24760649
000110 9b f6 f4 bc 5f ae 90 bd 49 5f 4c 3a 91 47 8e bd
       -0.029902747 -0.07064509 0.0007796181 -0.06947244
000120 68 d7 d7 3b a7 fa fc bd 02 8f 0b 3d 3d f4 08 bd
       0.0065869577 -0.12352496 0.03407193 -0.03343605
000130 51 50 cc bc 2c a3 2f bd 80 1d 8e bd 2f b7 25 be
       -0.024940642 -0.042880222 -0.069392204 -0.1618316
000140 58 56 ef bb 92 e8 94 bd 1b 22 2e 3d 2f 81 61 3c
       -0.007303994 -0.07270922 0.042512994 0.01376371
000150 8a 0c 16 3e 1d 47 1d bd 26 24 8d bd be ad 29 3d
       0.14653221 -0.038397897 -0.068916604 0.04142546
000160 dd 3e b9 3c a4 02 a5 3c 94 32 50 3d c2 85 a0 bd
       0.022612983 0.02014286 0.050829485 -0.07838012
000170 fa 54 40 be 80 5d 25 bd c6 09 81 bd 29 8f 9b bd
       -0.18782416 -0.04037237 -0.06300692 -0.07595665
000180 53 e3 b3 be 7a f1 03 ba e8 d2 98 bd 81 3f 8d 3e
       -0.35134372 -0.0005033236 -0.07462102 0.27587512
000190 b5 55 b1 bb 56 f3 20 3e 21 c3 89 3a 3e 04 09 be
       -0.0054118284 0.15717825 0.0010510423 -0.13380525
0001a0 5f 63 ab bc d8 03 4b 3c ab 6b 00 3e 3c b3 b5 be
       -0.020921407 0.012391053 0.12541072 -0.35488307
0001b0 ce 65 8a be b7 19 fc 3a 53 9e 99 ba 25 99 d1 bd
       -0.27030796 0.0019233738 -0.0011720158 -0.10234288
0001c0 fa 04 fd 3c 13 f5 24 3c c3 84 80 bd f6 51 c3 3c
       0.030886162 0.010068196 -0.06275322 0.023842793
0001d0 48 cb e0 bb 8a 9a 07 be ab 78 5c 3e 2c 0e c4 3c
       -0.0068601705 -0.13242546 0.21530406 0.023932539

fc1.weight f4 [84, 120]
000000 ea 72 3f bd 01 47 2e bd 0d fa 22 3d d9 5c d9 bb
       -0.04674045 -0.042548183 0.03978925 -0.0066333828
000010 86 30 5b be 53 bb 30 3c 2a 9c 85 bd 47 e9 ce bc
       -0.21405229 0.010786849 -0.065239266 -0.02525772
000020 5f 96 e5 bd 55 31 03 3d 0d 7e 40 bd f8 1b ca bd
       -0.11210322 0.03202947 -0.04699521 -0.09868616
000030 e6 2f 48 3d 1a 77 05 be 32 80 e3 3b a8 91 d0 bd
       0.048873805 -0.13033715 0.0069427723 -0.10184032
000040 dd a5 71 3c ff dd 57 bd 31 44 1f be 50 4a c1 3c
       0.014749018 -0.052701946 -0.15553357 0.023595005
000050 94 ce f5 bd 4b d7 02 3d 5a c6 14 3c 2c 0a 34 bd
       -0.12002292 0.0319436 0.009080494 -0.043955013
000060 89 1d 7f bc 72 fe 37 be 11 99 b0 3c fe 51 0d bd
       -0.015571007 -0.17968157 0.021557363 -0.034502022
000070 a1 17 99 bd 35 97 74 3d 20 f4 d5 bd 1d b7 f1 3c
       -0.0747521 0.059714515 -0.10446954 0.02950626
000080 fa 12 da bb e4 d9 ac 3c 61 0d fe bd 19 91 85 ba
       -0.006655094 0.021099992 -0.124048956 -0.0010190337
000090 47 c7 c0 bd 87 27 29 bd bb 6d e2 bc 20 88 fc 3b
       -0.09413009 -0.04129746 -0.027640214 0.007706657
0000a0 e9 83 a8 bd fa 12 4d bd 2b 0d e5 bb 61 6f 86 3b
       -0.08228285 -0.050066926 -0.006990095 0.004102633
0000b0 a7 a8 67 bd 34 47 66 bb 4a e3 bc 3d b8 b8 be 3a
       -0.056557324 -0.0035137655 0.092230394 0.00145509
0000c0 95 d6 b1 bd 4e 48 dd bd de 85 c6 bd 25 a6 9b 3d
       -0.086835064 -0.10804807 -0.09693502 0.07600049
0000d0 4b 36 8f bd cc bb ca 3c 75 d4 33 bd e4 0c 5c bb
       -0.069927774 0.024747752 -0.043903787 -0.003357702
0000e0 ad 37 cc bd 03 20 25 3b af 99 1a 3d 7f 78 fb bc
       -0.09971557 0.0025196082 0.03774422 -0.030697105
0000f0 61 87 82 bd cb 4e fd 3c 4d 61 a3 bd 92 f0 1b bc
       -0.06373478 0.03092136 -0.07977543 -0.009517806
000100 a7 b0 53 be 82 ed b0 3c 47 33 ea bb 98 ba 86 bd
       -0.20672856 0.021597628 -0.007147226 -0.06578559
000110 6f d9 17 3d 0c 5b c3 bb 58 55 94 3d 02 10 a6 bd
       0.037072595 -0.0059617814 0.072428405 -0.08108522
000120 ed 51 4b bc 89 1b 7a 3b f8 3b 96 bd 00 32 11 be
       -0.012409669 0.0038163385 -0.07335657 -0.1417923
000130 f5 7b 2d bd 03 9e 40 bd 25 f9 36 bc 97 e3 1f be
       -0.042354543 -0.04702569 -0.011167799 -0.15614162
000140 c0 34 ae 3d 85 12 8a 3c fd 3b 2d bd 19 60 ba 3c
       0.08506155 0.016854534 -0.042293537 0.022750901
000150 a8 3e 0e 3e 4a f2 00 3c 10 da 0b bd 6b b5 a5 bd
       0.13891089 0.007870266 -0.034143507 -0.08091243
000160 77 d0 8e 3c 5c 60 60 bc fa e9 cf bd 2d 9f 11 be
       0.017433388 -0.013694849 -0.10152049 -0.14220877
000170 00 d7 87 3d d6 31 b3 bd 42 f5 70 bd e2 4c 18 bd
       0.06632805 -0.0874974 -0.058827646 -0.037182696
000180 d4 e1 25 be 42 38 03 3e 36 00 7a 3d ec cc 11 be
       -0.16199428 0.1281443 0.061035357 -0.14238328
000190 b6 86 52 bd e7 ab be 3d a3 67 90 bd 25 d9 99 3d
       -0.051398 0.093101315 -0.07051017 0.0751212
0001a0 3b 29 0d 3d cb 91 67 3c 98 eb 78 3e 53 67 57 bd
       0.03446315 0.014133881 0.24308622 -0.052588772
0001b0 86 c1 b0 bd 31 97 02 be 67 65 75 bd 13 79 1e bd
       -0.08630662 -0.12752987 -0.059911158 -0.038689684
0001c0 ae 6e 88 bd 99 df 40 bd d4 9b 9f 3c 3d 7b 8b bd
       -0.066617355 -0.04708824 0.019483484 -0.06810615
0001d0 09 32 64 3c 72 b3 60 3c df 9f 87 3c 70 fc 90 bd
       0.013927945 0.013714658 0.016555725 -0.07079399
0001e0 e8 74 d6 bb 16 03 2d 3e 81 d5 68 3c 4e bc 27 bd
       -0.006544698 0.16895708 0.01421106 -0.040951066
0001f0 8b ab 1a be 79 5c 8a 3b b1 f1 39 bc be 56 14 be
       -0.15104501 0.0042224494 -0.011349128 -0.14486215
000200 de 31 86 be 49 f8 26 be c9 b3 b3 bd 99 52 1a 3e
       -0.2620992 -0.16305651 -0.08774526 0.15070571
000210 52 9a 4b bd 86 d1 b1 be 39 77 1f bd 99 45 1a be
       -0.04970772 -0.34730166 -0.03893206 -0.15065612
000220 9b 70 71 3d 37 db 2e be be 3b 02 3d 2c 74 b2 3d
       0.05894528 -0.17075811 0.031795256 0.08713564
000230 36 0c d2 3d 03 78 65 3d c4 68 b7 bd d2 ac 49 3e
       0.10256235 0.056022655 -0.08955529 0.19694832
000240 83 99 ff 3b 6e e4 87 3e d2 4a d0 3c 57 1c 87 3b
       0.0078002824 0.26541466 0.025426302 0.0041232514
000250 ba 22 6e 3d de d8 3b 3d c3 e5 f6 3c c6 49 3d be
       0.058138587 0.045861118 0.030138856 -0.18485174
000260 80 96 44 bd 99 24 9c bc 6a 0b db 3d 26 43 67 3d
       -0.04799509 -0.01906042 0.106955364 0.056460522
000270 4b 65 76 bd 24 74 c2 3c 25 0b 8e 3c 63 5c a0 bc
       -0.060155194 0.02373702 0.017339299 -0.019575303
000280 bf 5e 59 3d fa fe 4a 3d 0a d9 0d be 29 28 6c bd
       0.053068873 0.04955957 -0.13852325 -0.057655487
000290 89 5e 3b bd b8 a3 8e bd 52 09 b7 3b ce 03 69 b8
       -0.045744453 -0.069648206 0.005585828 -5.5555072e-05
0002a0 db 8c 26 bc e8 4e af be f3 a9 77 3c 8f 13 ad 3d
       -0.0101654185 -0.34239888 0.015116203 0.08450996
0002b0 4d f5 8f bd 6f b4 5d 3b 1a d4 6d bd dc 83 0e bb
       -0.07029209 0.003382947 -0.058063604 -0.0021746075
0002c0 a4 e9 e2 bc bc 63 2d bd eb 8e 73 bd 41 48 37 3e
       -0.0276993 -0.042331442 -0.05946247 0.17898656
0002d0 09 d4 38 3d 48 3a c2 3c f9 3c 9e bd ac 35 a2 bd
       0.045124087 0.023709431 -0.07726473 -0.07920393
0002e0 c2 5c 70 3c 14 b4 24 3d 4f 2f 3b be b5 f9 6a bd
       0.014670553 0.0402108 -0.18279766 -0.057367045
0002f0 aa 51 45 3b 55 2a af bd 06 f5 6b 3d 6e f6 0f 3d
       0.003010849 -0.08552996 0.05760672 0.035147123
000300 76 dc bf 3c 71 11 a1 bd 5a 5a 68 bc 4f e1 79 bc
       0.023420554 -0.07864655 -0.014181698 -0.015251472
000310 a6 bc 31 3d 07 59 b2 3d 6d b1 24 3b f2 71 e4 bd
       0.0433928 0.08708387 0.0025130168 -0.11154546
000320 f3 a5 83 3d d4 f5 91 bd 08 26 e8 bd 0e 63 9d bd
       0.06428137 -0.07126966 -0.11335379 -0.07684909
000330 db ea 8f 3d 7a e4 9a 3d 82 08 e8 3d ed e5 98 3d
       0.07027217 0.0756311 0.11329748 0.0746573
000340 ea 18 4f 3d 6a 59 a7 bd db 09 ae 3b c4 b9 b6 bd
       0.05056087 -0.08171351 0.0053112335 -0.08922151
000350 bc 8a 84 bd ac 23 21 3e 93 c4 ac 3c d7 f6 81 bd
       -0.06471774 0.15736264 0.021089828 -0.06345909
000360 10 dc 95 be 36 70 af bd a3 87 36 be 10 f8 60 be
       -0.29269457 -0.085663244 -0.17825179 -0.21969628
000370 97 97 a3 bc b4 64 0e 3e 33 ba a0 bd fb f0 92 bd
       -0.019969745 0.13905603 -0.07848015 -0.071748696
000380 1f 84 3e bd 49 b2 99 be 9c 5c 05 be 71 2b 4a 3d
       -0.04651272 -0.30018833 -0.13023609 0.049357835
000390 cc 9a a9 bc f9 9a df 3c 3d 03 10 3e 91 7a ad 3d
       -0.020703696 0.027295576 0.14063735 0.08470643
0003a0 98 17 66 bd e5 90 b9 3c 9b 61 3d bd 22 d3 d6 bc
       -0.056174845 0.022652099 -0.046235662 -0.026223723
0003b0 c7 62 92 3d 76 16 3f 3d 43 84 c0 be b0 01 9e bb
       0.071477465 0.04665228 -0.37600908 -0.0048219785
0003c0 e0 aa c3 bd cf 6b 05 be 96 60 25 bd 20 cd a5 3c
       -0.09554076 -0.13029407 -0.040375315 0.020239413
0003d0 f7 c3 94 be 4a 09 3c bd 5d c3 79 bd c8 74 d5 3c
       -0.2905576 -0.045907296 -0.06097733 0.026056662
0003e0 aa b2 5b be 10 02 25 3e 16 7f a2 bd 18 2a 6c 3e
       -0.21454874 0.16114068 -0.07934396 0.23062932
0003f0 4b 8b 2d 3d fd 48 bf bd 3a c4 d1 3e ca 20 8c be
       0.04236917 -0.09340093 0.4097002 -0.27368766

fc1.bias f4 [84]
000000 87 30 a6 3d e2 a0 91 3d 0c f1 ce 3c 95 72 83 3e
       0.081147246 0.07110764 0.025261424 0.25673357
000010 b7 6c 8d bc 42 1b e8 bb 3b 7a 34 3e 09 21 94 3e
       -0.017263753 -0.0070833275 0.17624752 0.28931454
000020 7e 7b 5e bd 66 fe 0b bd 16 e3 17 3f 26 a4 b8 3e
       -0.05431699 -0.03417816 0.5933088 0.36062735
000030 d4 e4 0a be 19 d9 c2 bc 5d 0c 8b bd cb 7e 12 be
       -0.13563854 -0.02378516 -0.067894675 -0.1430618
000040 9f 30 23 be 6b 51 a0 be c0 ca 35 3d 40 4d af be
       -0.15936516 -0.31312117 0.04438281 -0.34238625
000050 42 97 76 bc 88 cb 2b 3d 7e cf 2b 3d 2c 1a d8 bd
       -0.015050711 0.04194215 0.041945927 -0.10551867
000060 7f bf 89 3e a1 68 4e bd 4d 52 40 3e 5e 7d be 3e
       0.26903912 -0.05039275 0.18781395 0.37205023
000070 db 85 31 be fa 27 0f be cb 64 36 be c8 1c 5c 3b
       -0.17336218 -0.13980094 -0.17811887 0.003358649
000080 44 74 49 3c 4e 20 02 be 75 df 99 bd 08 dd 12 bc
       0.012295786 -0.12707636 -0.07513324 -0.008963831
000090 60 53 36 be e6 9d 24 be 34 e7 ab 3d 8b c2 e5 bd
       -0.17805243 -0.16075858 0.08393708 -0.11218747
0000a0 02 71 20 bd fc 78 75 3d 83 a7 82 bc 93 45 93 bd
       -0.039170273 0.059929833 -0.015949016 -0.071910046
0000b0 ce fe be bb d8 a0 80 bd 24 e2 95 bd ad c3 bd bd
       -0.005828715 -0.062806785 -0.073185235 -0.09265838
0000c0 21 f8 02 be 6f e2 5d bb 2e 88 b8 3e 10 80 79 3e
       -0.12789966 -0.0033856889 0.36041397 0.24365258
0000d0 ca c3 57 3e 99 ee 1b be 04 81 0f be 6e 35 21 be
       0.21070781 -0.15227737 -0.1401406 -0.15743038
0000e0 bb 94 71 3e 06 0d f4 bd 59 38 8e bd c1 29 46 3c
       0.23591892 -0.119165465 -0.06944341 0.012094916
0000f0 75 01 84 be f6 2d ac 3d 68 8b c7 3d 59 55 22 bd
       -0.25782362 0.08407204 0.097433865 -0.039632175
000100 bc a2 c6 3e 55 91 28 3e 91 a1 10 be 23 aa c4 3c
       0.3879603 0.1646169 -0.14124133 0.024006909
000110 07 bf 15 3d 77 42 5e 3d 11 4c 8d be ed 7e 9d bd
       0.03655913 0.054262605 -0.27597097 -0.07690225
000120 43 e7 09 3e cb fd 04 3f 1d 4d c7 3c 89 e8 d8 bd
       0.13467126 0.5194976 0.024328763 -0.105912276
000130 57 80 de 3e 93 f0 bc bd 3a 24 2c 3e c0 f6 79 3e
       0.4345729 -0.092255734 0.16810694 0.24410534
000140 07 02 fa 3d be 32 54 3d 2f 4b e6 bd cf 89 c3 bc
       0.12207418 0.051806204 -0.11244809 -0.023869423

fc2.weight f4 [10, 84]
000000 06 13 3b be 58 3d 6e 3d b9 47 47 3d 08 d2 eb bc
       -0.18268976 0.05816397 0.048652384 -0.028786674
000010 d4 91 f3 3d 43 c0 a8 3e f0 10 29 be d2 c7 94 be
       0.11893049 0.32959184 -0.16510367 -0.290587
000020 73 4a d6 bd c3 6a 50 3e 97 e9 c2 be 37 4a f7 be
       -0.10463419 0.20353226 -0.3806884 -0.4829881
000030 4c 4c 95 3e a4 e2 95 bd 16 6b 72 3d d2 c2 32 3f
       0.29159772 -0.07318619 0.059184156 0.6982852
000040 68 cc 02 3f ef fd 92 3d 77 49 dc 3d c4 be fa 3e
       0.5109315 0.0717734 0.107562 0.48973668
000050 3d 3f 40 3d 48 92 8e be 54 d5 2a be f9 da f6 3d
       0.04693531 -0.2784598 -0.1668294 0.120534845
000060 aa 20 ba bd 48 5a aa bd ce bb 31 bd f5 bb 19 be
       -0.090882614 -0.08318001 -0.043391995 -0.15013106
000070 b8 c4 90 3e 82 b3 d6 3d 2e e4 17 3e b7 1c a8 3e
       0.28275084 0.10483457 0.14833137 0.32834408
000080 e8 0a 1a be 0c c8 93 bd 1f 16 a6 bc 96 50 b4 bd
       -0.15043223 -0.0721589 -0.02027422 -0.08804433
000090 8d 8d 8c 3d ac 73 17 be 6b 57 f3 bd 7e 1e 59 be
       0.06862936 -0.14790219 -0.11881908 -0.21203038
0000a0 31 d9 c9 bd e3 b6 fb 3e 40 13 97 be b7 5a ba 3c
       -0.09855879 0.4916297 -0.29506874 0.022748334
0000b0 59 f4 93 3d 1d f0 36 be 79 ae 8d 3f 31 5b 03 3f
       0.0722434 -0.17865033 1.106887 0.5131102
0000c0 4f 4a d6 3d c0 29 0a 3e 2f d8 0c bf 68 53 21 3e
       0.10463392 0.13492489 -0.5501737 0.15754473
0000d0 3f 18 32 be 76 72 aa bd 09 9e 1f bc 4b 36 7c 3b
       -0.17392062 -0.08322613 -0.009742268 0.003848451
0000e0 0a 82 cf 3d e6 0b 08 3e 6f b3 a9 3e 07 31 25 3e
       0.10132225 0.13285789 0.3314471 0.16131984
0000f0 0b 4f c7 3e 6d fb 31 3d 9e d4 b9 be f5 e7 3a 3f
       0.38927492 0.04345267 -0.36295027 0.7301019
000100 15 7c f0 bd c4 76 87 bd b4 2c 6f 3e 18 69 37 bd
       -0.11742417 -0.066144496 0.23356897 -0.04477796
000110 58 93 9d 3e b8 fd dd 3c 38 b2 24 be 37 b2 f5 3e
       0.30776477 0.027098522 -0.1608361 0.4798753
000120 78 61 d2 3d 37 d2 df be c8 54 30 3e d4 9e 32 bd
       0.10272497 -0.4371507 0.17219841 -0.0436085
000130 f2 9f 55 3d d4 c2 69 bd 2f fc 10 be f1 ec 7e be
       0.05215449 -0.05707057 -0.141587 -0.24895073
000140 f2 0e ca bd d9 bb d4 3e ee 7b fd bd a2 ba 2b 3e
       -0.09866132 0.41549566 -0.12377153 0.16770414
000150 69 92 0d be d9 dd 38 bc 7c 5a b5 bd d8 1f ba be
       -0.13825382 -0.011283361 -0.08855149 -0.3635242
000160 cb 8a 9b 3d e5 02 00 3e 5d f3 a6 3e af ad 7e 3e
       0.07594832 0.12501104 0.32607546 0.24870943
000170 46 2b aa 3d 72 44 c6 bc 9b 26 c1 be d1 ec 28 3e
       0.08309035 -0.02420256 -0.37724766 0.16496588
000180 a7 ae b1 3e 23 ca 00 be 95 f2 a3 bc 68 ed d6 be
       0.34703562 -0.12577109 -0.020013133 -0.41978002
000190 c9 0d d9 3e 1d 69 21 be e8 f6 03 3d f7 df 99 be
       0.4239333 -0.15762754 0.03221789 -0.30053684
0001a0 dc 8f 66 be 75 94 a0 3e 3a 1f 21 3d 40 7e ad bd
       -0.22515815 0.31363264 0.03933642 -0.08471346
0001b0 24 3b 44 be 61 e5 76 bd f0 cc 0c bd ce 12 c9 3e
       -0.19163185 -0.060277347 -0.03437513 0.3927216
0001c0 a2 4b 55 be c9 20 8f 3e 23 3c 97 be 2c 8a bc bd
       -0.20829633 0.279547 -0.29538068 -0.09206042
0001d0 0f 0c 9e 3e 94 ed ad bd 8b 1a 75 3e c7 4d 09 bd
       0.30868575 -0.0849258 0.23935907 -0.03352144
0001e0 46 18 72 3d 61 e0 99 3e 6b cd 24 be 05 7b 99 bd
       0.05910518 0.30054 -0.16093986 -0.07494167
0001f0 02 73 11 be 25 6d 84 be 00 c3 c2 3c b9 c7 e0 3b
       -0.14204028 -0.2586452 0.023774624 0.0068597463
000200 03 db 2f be be 1a 53 3d f4 61 2b 3d d5 ac b1 be
       -0.1717339 0.051539175 0.041841462 -0.34702173
000210 6d ce d9 3e f9 00 61 3e 9e ca f0 3e 96 71 bc be
       0.42540303 0.21973027 0.47029585 -0.3680541
000220 43 4b 91 bd 20 c5 5b bd 81 46 d6 bd 26 04 3d 3e
       -0.07094433 -0.05365479 -0.10462666 0.18458614
000230 df 5f f2 bd 0b ad f5 bd 6f e0 2d be f5 1d 99 3d
       -0.11834692 -0.11995896 -0.16980146 0.07476417
000240 6b 37 9a be c7 92 ef 3d f3 c1 49 be d2 27 6b be
       -0.30120406 0.116979174 -0.19702892 -0.22964409
000250 08 db b4 be d9 34 60 be d3 a8 9b 3e 9e ff 48 3e
       -0.35323358 -0.2189516 0.3040224 0.1962876
000260 58 ac d7 bd bc 76 a2 3e af 43 35 be 82 20 d3 3e
       -0.10530919 0.31731212 -0.177016 0.4123574
000270 e0 54 3b 3e 3e 49 91 3e 19 41 10 3e d8 da 8d 3d
       0.18294096 0.28376192 0.14087333 0.06926507
000280 69 44 c8 be bf ac cd bd b8 03 94 3e 42 35 cf 3e
       -0.39114693 -0.10042714 0.28909087 0.4047032
000290 56 45 61 3c 8b 74 c8 3d e6 d1 a7 3c 11 38 be be
       0.013749441 0.09787854 0.02048583 -0.3715215
0002a0 7d ac 7e 3d 94 0e ac bd c0 bf f6 3e 05 3d 97 be
       0.062176216 -0.08401218 0.4819317 -0.29538742
0002b0 59 04 55 3e df b1 45 bc 76 f5 da 3e 35 7c 36 3e
       0.2080244 -0.012066334 0.42765397 0.17820819
0002c0 fa 94 0e 3d 5a d1 e5 3c 0e 0e 61 3d 18 01 b2 3e
       0.034810044 0.028053928 0.054945044 0.3476646
0002d0 d8 88 91 3c e5 1e 84 3e 01 91 81 3b 78 d1 ad 3e
       0.017765447 0.2580482 0.0039540534 0.33948874
0002e0 5a 2b 4f 3e ac 42 6f 3d 2e ca 4a be 56 a7 ab 3c
       0.20231381 0.058413193 -0.19803688 0.020953815
0002f0 af 4f 02 3d 27 36 8c 3d f4 51 17 3f 52 01 1e 3d
       0.031814273 0.06846266 0.59109426 0.038575478
000300 2f c9 55 be 1e 6e 7d 3e 1a bb cb 3d ec 78 b6 3e
       -0.20877527 0.24749038 0.09947796 0.3563913
000310 24 f7 45 3e 6e 78 d7 3d 1b 11 49 3e 1d c7 0b 3e
       0.19332558 0.10521017 0.19635431 0.13650174
000320 99 c5 9e be 0d 74 0d 3e 05 2d 72 be f5 ad 5e 3e
       -0.3101013 0.13813801 -0.23649986 0.21746047
000330 a6 22 b3 bd bc c5 89 bd f0 d1 31 3e b6 de 46 3e
       -0.08746843 -0.06727168 0.17365241 0.19420895
000340 3d a9 4d be c7 95 b5 3d 11 bd ae 3e 98 9a 81 3d
       -0.2008409 0.088664584 0.3412862 0.063283145
000350 96 50 ce be 32 e4 37 bd b0 8e 49 bd 80 1e 10 be
       -0.40295857 -0.04489536 -0.049208343 -0.14074135
000360 bd bc 7f bd 63 07 97 be 87 f6 22 3d a8 2a c0 3e
       -0.062435854 -0.29497823 0.039785888 0.37532544
000370 03 63 2c 3e fd 21 ac 3e 80 7d c4 3d 8c 31 81 bd
       0.16834645 0.3361968 0.0959425 -0.063082784
000380 e0 e3 dc bd e1 6c e3 bd 91 36 f6 3b 99 97 24 bd
       -0.10785651 -0.111047514 0.007513829 -0.040183637
000390 70 62 92 3e cb b5 81 3e 1c c3 2c 3e 69 ca b9 bd
       0.28590727 0.2533401 0.16871303 -0.0907181
0003a0 27 2a 3b be d8 8d 7b be 20 98 8a be f3 83 d3 bc
       -0.18277799 -0.24565828 -0.27069187 -0.025819754
0003b0 4e 3b be 3e 22 78 2b be f6 1d 98 bd 50 fc 2e 3e
       0.3715462 -0.16745046 -0.074275896 0.17088437
0003c0 49 e1 ed 3d fe 83 8d 3e 3f 6e 76 3e 8a 5d eb 3e
       0.11615235 0.27639765 0.24065493 0.45969802
0003d0 16 ee 70 bd ba 11 18 3e 11 12 a2 be 68 07 8a 3e
       -0.058820806 0.14850512 -0.3165441 0.26958776
0003e0 a8 c9 a1 be d1 51 f2 bd 27 b9 b5 3e 71 24 f0 be
       -0.31599164 -0.118320115 0.35492823 -0.46902803
0003f0 a0 d9 f3 3d 64 71 6f bc db de 9f bc 3d 49 47 3e
       0.11906743 -0.014614437 -0.019515445 0.19461532

fc2.bias f4 [10]
000000 e6 4d 69 be cf 13 28 bf 5b 72 ce be ee 4a 50 bd
       -0.22783622 -0.65655226 -0.4032162 -0.05085271
000010 bd b5 74 3e 41 6c b0 bc e9 17 4e 3e 53 24 dd 3d
       0.23897453 -0.021535994 0.20126309 0.10797944
000020 7f 10 67 3f 84 9c ab bd
       0.90259546 -0.08379462

features.0.weight f4 [6, 1, 5, 5]
000000 17 7e 80 bd 42 60 01 be 60 ed aa bd fa bd 61 bd
       -0.0627405 -0.12634376 -0.08346057 -0.055112816
000010 20 29 38 bd d3 77 24 be 7a 4c 89 bd 57 cd 3c 3e
       -0.044961095 -0.16061334 -0.0670404 0.18437706
000020 88 f5 02 be 10 4e fe 3d d7 38 20 be 00 7e 64 3b
       -0.12788975 0.12417233 -0.15646683 0.003486514
000030 92 bb 2b 3e d5 2b 01 3e 2b e4 47 3e 5a 0b e3 bd
       0.16770771 0.12614377 0.19520633 -0.110861495
000040 43 ca 34 be 38 c1 39 3e c0 47 bc bd ff d3 49 be
       -0.17655282 0.18140113 -0.09193373 -0.19709776
000050 eb 52 22 be 62 1a 09 be 20 ed ec 3d 13 cb ab 3d
       -0.15851943 -0.1338897 0.115686655 0.08388343
000060 40 a7 74 bd da 39 10 be 07 c7 48 be 10 fe 21 be
       -0.059729815 -0.14084569 -0.19607173 -0.15819573
000070 80 2e 70 bc ba 43 3f bd 7d 2c dd 3d 0d 7f 01 bd
       -0.014659524 -0.04669545 0.10799501 -0.031615306
000080 3a 72 cc bd 00 2a 92 bd 40 82 a2 bc 00 4a 95 bb
       -0.099827245 -0.07136917 -0.019837499 -0.0045559406
000090 9f 6c 34 3e 9a 86 2c 3d 9a 79 90 3a d7 9e af bd
       0.1761956 0.042120554 0.0011022568 -0.08575218
0000a0 97 87 ee 3d 6d 85 5d 3d a0 84 4a be cd ae b1 bd
       0.116469555 0.054082323 -0.19777155 -0.08675919
0000b0 23 29 d4 bd ad 83 13 bd ea 53 a2 bd 20 64 7b bd
       -0.10359409 -0.036014248 -0.079261616 -0.061374784
0000c0 f7 30 20 3e 33 06 15 3d a7 70 46 3e 23 92 db bd
       0.15643679 0.036382865 0.19378911 -0.10721233
0000d0 90 bc a3 bd 87 6b 6f 3d cd ad f4 bb fd 79 cd bd
       -0.0799495 0.058452155 -0.0074670077 -0.10033033
0000e0 cd 24 54 3c cd 8a 41 bc 3d 03 cc bd 85 9e 02 be
       0.012948227 -0.011812878 -0.09961555 -0.12755783
0000f0 4d 23 bc bc d3 4e 18 be d3 23 7e 3d fd 07 17 be
       -0.022966051 -0.14873819 0.062045883 -0.14749141
000100 b3 4f c0 3d cd df 8e 3c 00 b4 0f 3e e7 a2 fc bd
       0.093902014 0.0174407 0.14033508 -0.12335759
000110 57 13 f2 bd 4d 52 f3 bc c0 45 af bc 82 87 09 3e
       -0.11820095 -0.02970233 -0.021395564 0.13430598
000120 ea bd d8 bd 90 7e f8 bd c0 9c be 3d 03 7b 43 be
       -0.10583098 -0.12133515 0.093072414 -0.19089894
000130 27 c8 86 bc 40 8b 56 3d 67 82 06 3d 67 37 8f bd
       -0.016452862 0.052378893 0.032839205 -0.06992989
000140 67 90 34 3c ed ac 6e bd 20 09 1c 3d f3 83 ce 3d
       0.011020756 -0.058270384 0.03809464 0.10083761
000150 e5 c8 0b 3e 4d 49 cc bd 67 8e 22 be 2f b8 10 3e
       0.13650854 -0.099749185 -0.15874635 0.1413276
000160 00 75 2c 3e 87 dc ee bd 6b d9 00 3e 00 16 01 bb
       0.16841507 -0.11663156 0.12582938 -0.001969695
000170 ba f8 80 bd 7d 77 82 bd 07 40 58 3d 3b 2d 46 be
       -0.06297441 -0.06370447 0.052795436 -0.19353192
000180 ad c3 66 3d 47 9b 1f 3d e5 b5 10 be 20 e8 42 3e
       0.056338955 0.038966443 -0.14131887 0.19033861
000190 e3 23 38 be 57 ed a7 bd 0d 77 82 bd fd 3b fd 3d
       -0.1798244 -0.08199566 -0.063703634 0.123649575
0001a0 93 73 b9 3d 9b 06 3a 3e 83 fb 82 3d 7a 0d 0a 3d
       0.09055247 0.18166582 0.06395628 0.03370426
0001b0 f3 11 0d 3e b7 20 39 3e b0 99 22 be 93 5d 5d 3d
       0.13776378 0.18078886 -0.1587894 0.054044317
0001c0 9a 7a cf bc 20 14 ae 3d 67 18 b8 3c 27 0f 56 3d
       -0.025327016 0.08499932 0.022472573 0.052260544
0001d0 ed 0f b4 bd 43 3f bd 3d 47 e3 36 be 65 46 14 3e
       -0.087921 0.09240582 -0.17860137 0.14479978
0001e0 9a c5 d1 3c 60 37 2a 3e c7 cf 75 3d b0 03 44 3e
       0.02560692 0.16622686 0.060012605 0.19142032
0001f0 07 05 3d bd 17 30 d0 bd 13 7c 60 bd aa cf 8a bd
       -0.046147373 -0.101654224 -0.054805826 -0.0677789
000200 c0 52 49 bd 27 35 ea bc e7 e2 4d 3d 6d 5a 01 3d
       -0.049151182 -0.028589798 0.05026522 0.031580377
000210 f8 93 29 3e 07 04 48 3d df 46 13 3e 70 ba 1c 3e
       0.16560352 0.048831966 0.14382504 0.15305495
000220 62 31 40 be aa 92 46 3e 67 02 92 3a d3 6f ce bd
       -0.18768838 0.19391885 0.0011139632 -0.100799225
000230 20 cf 3a 3d e8 c6 10 be b7 97 f3 bd 2a 87 98 bd
       0.045607686 -0.14138377 -0.11894172 -0.074476555
000240 fd 02 e0 bd b3 7b a0 bc cd ed 73 3d 00 6a 67 bb
       -0.1093807 -0.019590234 0.059552956 -0.0035310984
000250 cd f2 7b 3d 57 c7 05 be
       0.06151085 -0.13064323

features.0.bias f4 [6]
000000 f0 71 f4 3d 55 e3 23 be 30 60 15 3e 53 68 33 3e
       0.11935794 -0.16004689 0.14587474 0.17520265
000010 37 79 39 be cd 31 90 bd
       -0.18112646 -0.07040749

features.3.weight f4 [16, 6, 5, 5]
000000 31 87 b5 3c 89 d4 93 3c aa da 15 bd 45 44 0d ba
       0.02215919 0.01804568 -0.036585487 -0.0005388896
000010 18 0e 4b ba c0 14 1b 3d 15 6d 8f bd a6 d1 44 3d
       -0.00077459356 0.037861586 -0.070032276 0.0480515
000020 17 af da bc c2 b4 6d 3d 92 ac 79 3d e1 3a 24 3c
       -0.026694817 0.058033712 0.06095559 0.010023803
000030 3c c8 58 3d 13 e8 2a bd e6 6e 34 bd 63 ca a2 3d
       0.052925333 -0.04172523 -0.044051073 0.079487585
000040 0e 29 98 bd de 1d fa bc ce 76 22 bd 21 4c b6 3c
       -0.074297056 -0.03053182 -0.039664082 0.022253098
000050 e3 d5 af 3c cb 75 9a bd ac 22 09 3d 1f cc 53 3d
       0.021464294 -0.075419985 0.03348033 0.051708337
000060 da a7 7d bd df 61 c8 ba 00 0c b0 3a 47 4a 11 3c
       -0.061927654 -0.0015287957 0.0013431311 0.008867807
000070 c4 e8 5f 3d f8 5e a2 3d db 14 71 bd 64 9b 9e bd
       0.054665342 0.0792827 -0.05885778 -0.07744482
000080 50 ca 6d bd d8 f6 c5 bc ba 24 41 3d 09 51 1e 3d
       -0.05805427 -0.024165556 0.047154166 0.0386515
000090 a7 72 5c bd 6a d4 85 3d 9c 25 1f bd 01 f9 21 3c
       -0.05382028 0.065346554 -0.038854226 0.009886027
0000a0 d2 cc 9a 3d 52 de 53 bd ef 33 90 3c 06 c6 1c 3d
       0.075585976 -0.051725693 0.017602889 0.038274787
0000b0 45 b4 9a 3c d7 5a 7f 3b b3 60 3c 3c 80 61 66 bd
       0.018884787 0.0038964057 0.011497664 -0.056245327
0000c0 f8 ab 03 3d 57 dd 22 3c b2 38 2c 3c 11 20 8a bd
       0.032146424 0.009940467 0.010511564 -0.067443974
0000d0 87 8a 15 bd 87 4b 09 3d e9 59 52 3d 1b a1 66 bd
       -0.036509063 0.033519294 0.051355276 -0.056305986
0000e0 82 03 46 3d b2 24 e4 bc ed 53 1f bd e5 c6 8c bd
       0.04834319 -0.027849529 -0.038898397 -0.068738736
0000f0 d9 98 50 bd 9e f1 57 bd 25 e6 d2 3c ab 4d 66 3d
       -0.050927017 -0.05272066 0.025744507 0.056226414
000100 d8 7d 25 3c ac 99 69 bd 2f b2 3c bc 11 c7 6c 3d
       0.010100804 -0.05703132 -0.011517092 0.057807032
000110 7c e0 77 3d 50 7f 9b bc 40 3d 62 bc 45 4b a6 3d
       0.06051682 -0.018981606 -0.013808548 0.08119825
000120 f5 15 82 ba 57 0a 9c 3d 5c 38 5d 3d 34 06 b5 3c
       -0.0009924757 0.0761916 0.054008827 0.022097684
000130 ee de 6d bc 8d cf 91 3c d7 8c 5a bd 18 c2 bb 3b
       -0.014518483 0.017799163 -0.05335697 0.005729925
000140 10 c4 a5 bd 9d b3 98 bd db 4a 68 3d 65 69 ff 3c
       -0.080940366 -0.074561335 0.056712013 0.031178186
000150 30 b8 88 bb e5 0e da 3c 2c 21 4c 3d a8 05 9e bd
       -0.0041723475 0.02661843 0.049836323 -0.077159226
000160 43 c2 97 bd 77 d3 a0 3d ea 33 71 bd 59 91 a5 bd
       -0.07410099 0.07852834 -0.0588874 -0.080843635
000170 99 3f fe bb 89 c6 8b bd e8 9a 76 bd 77 5c 19 3d
       -0.0077590463 -0.06824977 -0.060206324 0.037441697
000180 7f 19 e6 bc ab 6d 85 bc 5f b6 a7 3c 88 bb 84 3d
       -0.02808833 -0.016287645 0.020472704 0.06481081
000190 d4 b0 a2 3d 33 59 84 3c a9 9f 38 3d 01 3a 29 3b
       0.079438835 0.016155815 0.04507414 0.0025821927
0001a0 82 2b 96 3d 2d e0 ce bb 61 bc 49 bd 2e 7e 12 bc
       0.07332517 -0.006313345 -0.049251918 -0.008941216
0001b0 0b bb 13 3d 21 62 77 3c f0 22 d0 bc e8 52 0e bd
       0.03606705 0.015099079 -0.025407284 -0.034747034
0001c0 12 1e d1 bc e8 87 ba bb 79 97 a1 bb 5b 27 93 bb
       -0.025527034 -0.005692471 -0.004931387 -0.0044907755
0001d0 20 e9 9d bd 2a 6f a1 3d b6 db 2e bd 60 29 1a bd
       -0.07710481 0.07882531 -0.04269 -0.037637115
0001e0 04 0f 75 3d 61 99 1b bd d1 22 81 bd 91 c9 5b bd
       0.059828773 -0.03798807 -0.06305469 -0.053659026
0001f0 cd e1 9e 3c f2 82 d9 bb d9 0a 66 bd 12 4b ec 3c
       0.01939478 -0.0066379244 -0.05616269 0.02884439
000200 ac ff 9a 3c 57 1d 6d bd 0b 2f 7d 3d bf 94 59 3d
       0.018920742 -0.05788931 0.06181244 0.05312037
000210 9c 16 29 bc f3 b7 b3 ba e2 e3 1f bd 82 f6 2c bd
       -0.010320332 -0.0013711437 -0.039035685 -0.042227276
000220 16 bd 1e bd 8d 58 fd 3c 1d 4c f1 3c 4c 6a 50 3b
       -0.038754545 0.030926013 0.029455239 0.003180164
000230 98 14 34 3d 60 ac 97 bc e8 aa 8a bd 78 71 dc bb
       0.043964952 -0.018514812 -0.06770879 -0.0067273937
000240 d5 35 92 3d 83 c8 1b bd 1d ec 2e bd 24 dd 18 3d
       0.07139174 -0.03803302 -0.042705644 0.03732027
000250 f6 0c 42 3b de 55 6c bc de 93 6b bd d8 f0 76 3c
       0.0029609776 -0.014424769 -0.057514064 0.01507207
000260 57 2c bc bc 4f 77 bd bc 60 51 91 3d 20 78 97 3d
       -0.022970362 -0.02312818 0.07095599 0.07395959
000270 15 28 36 3d 08 dc 14 bd 66 d7 45 bd a8 2f 18 3d
       0.04447182 -0.03634265 -0.048301123 0.037154824
000280 d3 90 28 3b 53 ff 3d 3d a1 6a a6 3c 5e 98 93 bd
       0.0025721088 0.046386074 0.020314516 -0.07206796
000290 8e 1e 00 bd 72 88 1b bd 85 4d a6 bc fc 41 0e bd
       -0.03127914 -0.03797192 -0.020300636 -0.034730896
0002a0 0a 85 3b 3d 36 ad 70 3d 9f 9d 93 bd 44 af 6d 3d
       0.045781173 0.058758937 -0.07207798 0.058028474
0002b0 a8 20 77 3d b6 0c 2e bc 01 e7 0c 3d d3 6d 83 3d
       0.060333878 -0.010623148 0.03439999 0.06417432
0002c0 e6 f4 36 bd 65 28 82 bd f1 72 cf bc 92 4e b2 3b
       -0.044667147 -0.06355361 -0.025323363 0.005441495
0002d0 c8 20 1f 3d a5 8c a1 bd 89 df bd bc 26 92 9c bd
       0.038849622 -0.07888154 -0.023177879 -0.07645063
0002e0 82 09 95 3d 4f ab a5 3d bb 22 b1 3c df 39 d6 bc
       0.07277204 0.08089315 0.021623006 -0.026150642
0002f0 78 d8 19 bd 91 0d a1 3d ad ab 7f bc d1 33 55 3d
       -0.037559956 0.07863916 -0.015604896 0.05205137
000300 ec a1 8c bd 5f ed 69 bd 1d 3d 54 bd fb 29 2e 3d
       -0.06866822 -0.05711114 -0.051816095 0.042520504
000310 c2 6e 80 bd cb 16 75 3d f0 0f 38 bc d9 0e 3d 3d
       -0.062711254 0.05983619 -0.011234269 0.046156738
000320 ff 8e 90 3c f9 4b 16 3c cc 3b 85 3d 9f 92 28 bb
       0.01764631 0.009173387 0.06505546 -0.0025722159
000330 23 12 0d bd 4f 67 91 bd 9f 31 fb bc db a7 bc 3b
       -0.034441125 -0.07099783 -0.03066331 0.0057573146
000340 ac a6 45 bd 9c d8 f9 3c f0 65 6a 3d 06 78 a3 bc
       -0.048254654 0.030498795 0.05722612 -0.019954693
000350 13 19 23 bd b6 60 b0 bc f3 5d 01 3d b3 f6 4a 3d
       -0.039818835 -0.02153049 0.031583738 0.049551677
000360 b5 93 1c 3d 8f 75 80 3d 83 96 74 bd b3 85 61 3c
       0.038226802 0.062724225 -0.05971385 0.0137647865
000370 3e ef 3e 3d 6c 3d 70 3d 42 6e 85 3c fe 41 cf 3c
       0.046614878 0.058652326 0.016287927 0.025300022
000380 1f 47 2a 3d 0f 9f 49 bd f6 29 20 3d ca cf 36 bc
       0.041571733 -0.049223956 0.039102517 -0.011157939
000390 02 31 91 bc b0 01 ae 3b 12 7e 82 bd 4e 93 c6 bc
       -0.017723564 0.0053102598 -0.06371702 -0.024240162
0003a0 ed 4f bb bc 45 0d 6c bd 90 19 a5 3d 50 ae 67 3b
       -0.02286526 -0.057629842 0.08061516 0.00353517
0003b0 15 6b e6 bc b3 ba b9 3c 86 66 24 3c f2 88 65 3d
       -0.028127233 0.022672033 0.010034209 0.056038804
0003c0 aa 3b 8f bd 7d 14 a1 3d f5 55 8e b9 9e 38 63 3d
       -0.06993802 0.07865236 -0.00027148394 0.055473916
0003d0 e4 82 2b 3d 51 0d cb bc 3b 96 21 bd 9b 72 3a 3d
       0.041872874 -0.024786623 -0.03944991 0.045519453
0003e0 17 ee 2d 3d fc bf 52 3d 34 3c 93 3d dc 7f 22 bd
       0.04246339 0.05145262 0.07189217 -0.039672717
0003f0 91 f9 ce bb a1 42 a0 3d 88 bc f5 bc 34 2c 36 3d
       -0.0063163717 0.078252085 -0.029997125 0.04447575
