results/model.pth (torch, 250396 bytes, 10 tensors)

features.0.weight f4 [6, 1, 5, 5]
0.061684947 -0.35882798 -0.4838372 -0.5740875 -0.9394016 0.5165906 0.4944738 0.65128195
0.21467222 -0.30142662 0.35863832 0.6927739 1.0013413 0.7006619 0.19543338 -0.36881155
-0.13768567 0.16648406 0.6666918 0.33535287 -0.83652717 -1.0235883 -0.8662732 -0.4165608
-0.07457006 -0.6434987 0.3735175 0.04047909 -0.5721548 0.39521542 -0.29147992 1.0261403
0.7465305 -0.024955522 0.0073058507 0.13014485 1.0088122 0.33168265 -0.1220826 -0.62745947
0.7200703 0.16975212 -0.5112709 -0.89590746 -0.79669946 -0.5804577 -1.0708567 -1.0021156
-0.43131825 0.1829061 -0.21527682 -0.6389455 -0.52787465 -0.2820371 0.29775655 -0.07983542
-0.42733976 -0.17748784 0.6095652 0.528844 0.01791583 0.37710205 0.6268732 0.7501853
-0.018501502 0.066110134 0.13820805 0.1821065 -0.16586694 -0.63866717 -0.31871858 -0.3843856
-0.2309939 -0.43234965 -0.50717336 -0.36672843 -0.107303806 0.004379534 -0.19392124 0.16494541
-0.5839613 -0.53983223 -0.32765886 -0.340018 -0.2825703 -0.16305631 -0.66756254 -0.58719546
-0.7162407 -0.53274757 0.7175574 -0.06518822 -0.40399358 -0.4227235 -0.15822686 1.0163786
0.74575263 0.089357875 -0.07469316 0.6164452 -0.318081 -0.88059556 -0.064767025 0.061848123
-0.39585638 -0.7934716 0.57030624 0.91446066 0.5825946 0.14387439 -0.15158431 0.9314143
1.0109892 -0.19080742 -0.4931167 -0.15764032 0.33659205 0.7779131 -0.1816831 -0.81333774
-1.030872 -0.6485161 0.42958695 0.08343893 0.22163051 -0.3238418 -0.20751552 -0.044790093
-0.27632508 -0.8044799 -0.93919414 -0.46734682 0.12983298 0.45975897 0.5164485 -0.7190582
-0.45511532 -0.20428236 0.31322938 0.8490802 -0.64744407 -0.22061966 -0.28821498 0.3227146
0.9362362 -0.33051592 0.028021393 -0.2532068 -0.14255214 0.22979665
00000000: 5ba9 7c3d 4db8 b7be 82b9 f7be 66f7 12bf
00000010: a07c 70bf 483f 043f ab2b fd3e 6aba 263f
00000020: 09d3 5b3e 9754 9abe 719f b73e a159 313f
00000030: f42b 803f 945e 333f b01f 483e ded4 bcbe
00000040: 79fd 0cbe cc7a 2a3e 50ac 2a3f 5fb3 ab3e
00000050: a526 56bf f104 83bf 15c4 5dbf 7547 d5be
00000060: 30b8 98bd 55bc 24bf b03d bf3e 67cd 253d
00000070: bd78 12bf ad59 ca3e db3c 95be 9158 833f
00000080: 9f1c 3f3f 866f ccbc eb65 ef3b b144 053e
00000090: c220 813f 4fd2 a93e 7106 fabd 2fa1 20bf
000000a0: 8756 383f 80d3 2d3e a6e2 02bf 315a 65bf
000000b0: 7ff4 4bbf e098 14bf d511 89bf 5345 80bf
000000c0: bfd5 dcbe bd4b 3b3e 8771 5cbe ef91 23bf
000000d0: cb22 07bf 2b67 90be 8c73 983e c180 a3bd
000000e0: 47cc dabe 5fbf 35be 770c 1c3f 5262 073f
000000f0: 38c4 923c 8513 c13e c37a 203f 250c 403f
00000100: 7690 97bc c064 873d 6986 0d3e 207a 3a3e
00000110: 06d9 29be b17f 23bf 152f a3be 30ce c4be
00000120: aa89 6cbe ef5c ddbe 1dd6 01bf d4c3 bbbe
00000130: 19c2 dbbd 3282 8f3b 4a93 46be 73e7 283e
00000140: 7d7e 15bf 7232 0abf e7c2 a7be d716 aebe
00000150: 0ead 90be 3cf8 26be 61e5 2abf 7152 16bf
00000160: 8d5b 37bf 2562 08bf d7b1 373f 6781 85bd
00000170: 3fd8 cebe 376f d8be 3906 22be b218 823f
00000180: a5e9 3e3f 4301 b73d baf8 98bd 5acf 1d3f
00000190: 83db a2be b66e 61bf 93a4 84bd 7554 7d3d
000001a0: b0ad cabe f420 4bbf 97ff 113f 181a 6a3f
000001b0: eb24 153f cf53 133e eb38 1bbe 2b71 6e3f
000001c0: 1868 813f 0563 43be cb79 fcbe 776c 21be
000001d0: cb55 ac3e 5025 473f 220b 3abe e736 50bf
000001e0: 9df3 83bf 2705 26bf d2f2 db3e 08e2 aa3d
000001f0: 1cf3 623e 98ce a5be f37e 54be d175 37bd
00000200: 7b7a 8dbe 65f2 4dbf 076f 70bf 1548 efbe
00000210: f0f2 043e 8765 eb3e f835 043f 3314 38bf
00000220: e004 e9be 652f 51be 9a5f a03e 525d 593f
00000230: e5be 25bf 1fea 61be ea90 93be d93a a53e
00000240: 2dad 6f3f 6239 a9be 1f8d e53c 52a4 81be
00000250: 30f9 11be d04f 6b3e

features.0.bias f4 [6]
-1.5972772 -1.7801774 -1.3361818 -1.5034945 -1.8959051 -2.0481958
00000000: 9473 ccbf dadc e3bf 0108 abbf 8272 c0bf
00000010: 05ad f2bf a415 03c0

features.3.weight f4 [16, 6, 5, 5]
-0.028220957 -0.41611332 -0.5119765 -0.10252037 0.25903243 0.11610192 -0.2258901 -0.407956
-0.38229087 0.048371915 -0.011380206 -0.27389878 -0.039354283 0.22843567 -0.25963137 0.12999168
-0.11965398 -0.06743303 0.51863515 0.06326278 0.11713206 0.0048905425 -0.13714589 -0.0473594
-0.09384871 -0.03077629 -0.085143976 -0.21732573 0.10809079 0.45327345 -0.061190814 -0.36979118
-0.6063833 -0.14991675 0.11128469 -0.6135904 -0.64247704 -0.7148501 -0.43506026 -0.59207565
-0.4201034 -0.44774628 -0.5342978 -0.5611491 -0.0045091524 -0.231928 -0.21645945 -0.53208315
-0.1448999 0.32818845 -0.13445075 0.05120596 0.19072069 0.33271146 0.06017433 -0.022313567
-0.24757005 0.058562923 0.3388425 0.0983684 -0.05164275 -0.32511136 -0.3838055 -0.06851154
0.12649965 -0.15772511 -0.34952274 -0.430213 -0.31359625 0.22425787 -0.17403547 -0.09016149
-0.13318202 -0.40036693 -0.053572793 -0.31280068 -0.087353714 -0.19937727 -0.26114032 -0.044373125
-0.1763432 -0.040075105 -0.22934061 -0.6153106 -0.056638345 0.16013324 0.029463852 -0.25912032
-0.48959774 0.36003023 0.4613244 0.18790787 -0.3587806 -0.30028087 0.22230071 0.48713347
0.45503798 -0.049127106 -0.25469622 -0.15874304 -0.29121977 0.27191257 -0.21532197 -0.15300865
-0.273846 -0.54083115 -0.28560776 0.2640763 0.0872985 -0.57092416 -0.6984491 -0.8175887
0.6174045 0.79009044 -0.7106654 -0.36510938 -0.75135183 0.008170865 0.40426397 0.023367029
0.032912325 -0.45917684 0.0021879533 -0.08173078 0.08028534 0.051916633 -0.063330375 -0.5703011
-0.52320504 -0.34108612 -0.10716253 0.30997664 -0.23928621 -0.3606738 -0.6041247 -0.61240095
0.4764677 0.69537085 -0.5717914 -0.92177296 -0.72712487 -0.554855 0.75861996 0.15035507
-0.8784038 -0.3147138 -0.3637957 -0.23323393 0.42518952 -0.5736664 -0.09436127 0.050870255
-0.007819716 0.045654576 -0.045087967 -0.040414948 -0.09590727 -0.052376535 0.030611884 -0.1078484
-0.049653232 0.028477212 0.027288813 0.014558828 -0.034274664 -0.032425277 -0.04202423 -0.048595022
0.024683425 -0.035806865 -0.07643961 -0.0057747737 -0.067506395 -0.01661749 0.041492574 -0.06702816
-0.022751233 -0.14621055 -0.08477377 -0.1371338 -0.13890235 -0.14356083 -0.06249509 -0.048420925
-0.12289655 -0.16037087 -0.17599997 0.01791104 -0.031688876 -0.057102133 -0.1544354 -0.15403736
-0.11642676 -0.043672465 0.028369779 -0.11751183 -0.13493918 -0.06658321 0.05455799 0.031162426
0.021102455 -0.043897033 -0.032066815 -0.08737457 -0.13266553 -0.14348798 -0.019505497 -0.07023038
-0.027878448 -0.060951088 -0.14299229 -0.09071092 -0.007379332 -0.05755179 -0.13652074 -0.039360564
-0.03191331 -0.044346 0.00016209683 -0.034086518 -0.09013136 0.04336557 0.024586657 -0.019876419
-0.06058928 -0.08799443 0.043793518 -0.03919854 -0.0749013 0.030804906 0.009242199 0.0066517415
-0.029132703 -0.046723425 -0.00967737 0.047567848 0.004520956 -0.052872386 0.056157973 -0.023130571
0.0443956 0.008715403 0.051772278 0.019382676 -0.06673238 0.03441853 -0.012860448 -0.083622195
-0.041562635 -0.09685547 -0.25753236 -0.28610227 -0.16583142 -0.243902 -0.28647348 -0.18140288
00000000: a32f e7bc ce0c d5be e410 03bf 33f6 d1bd
00000010: e69f 843e d8c6 ed3d bc4f 67be 9cdf d0be
00000020: a1bb c3be a121 463d 0b74 3abc 763c 8cbe
00000030: f531 21bd 0aeb 693e 67ee 84be 8a1c 053e
00000040: 250d f5bd 541a 8abd 46c5 043f eb8f 813d
00000050: efe2 ef3d d840 a03b f96f 0cbe eefb 41bd
00000060: c133 c0bd 8f1e fcbc f75f aebd a38a 5ebe
00000070: b45e dd3d 7513 e83e 38a3 7abd 4555 bdbe
00000080: f03b 1bbf c783 19be 3ae9 e33d 4314 1dbf
00000090: 6079 24bf 6b00 37bf 38c0 debe 4592 17bf
000000a0: cb17 d7be 003f e5be bec7 08bf 78a7 0fbf
000000b0: 83c1 93bb 897e 6dbe 8ca7 5dbe 9a36 08bf
000000c0: a460 14be 5108 a83e 75ad 09be 57bd 513d
000000d0: 494c 433e 2859 aa3e 5c79 763d f1ca b6bc
000000e0: 0183 7dbe addf 6f3d c47c ad3e 5f75 c93d
000000f0: 5987 53bd ff74 a6be 2882 c4be c74f 8cbd
00000100: 2089 013e b182 21be a5f4 b2be e144 dcbe
00000110: b08f a0be dba3 653e 5b36 32be 96a6 b8bd
00000120: de60 08be e5fc ccbe 256f 5bbd 6927 a0be
00000130: 81e6 b2bd 8e29 4cbe 2fb4 85be 98c0 35bd
00000140: 5093 34be cb25 24bd 44d8 6abe ff84 1dbf
00000150: 9cfd 67bd f8f9 233e 2d5e f13c 6bab 84be
00000160: 8eac fabe e255 b83e b632 ec3e ec6a 403e
00000170: 17b2 b7be 6abe 99be cca2 633e 8f69 f93e
00000180: bdfa e83e 8139 49bd 8b67 82be 898d 22be
00000190: c21a 95be 2038 8b3e 5d7d 5cbe 4dae 1cbe
000001a0: 8b35 8cbe e973 0abf 2e3b 92be 0235 873e
000001b0: 8ec9 b23d 1628 12bf 8fcd 32bf 7e4d 51bf
000001c0: 390e 1e3f 5e43 4a3f 2bee 35bf 9eef babe
000001d0: 9858 40bf 17df 053c b0fb ce3e 366c bf3c
000001e0: 13cf 063d 3a19 ebbe c463 0f3b 7862 a7bd
000001f0: a46c a43d 89a6 543d 5bb3 81bd 41ff 11bf
00000200: c4f0 05bf d7a2 aebe 0778 dbbd 42b5 9e3e
00000210: 7207 75be 3caa b8be eba7 1abf 4fc6 1cbf
00000220: 93f3 f33e d303 323f ec60 12bf 50f9 6bbf
00000230: db24 3abf fa0a 0ebf eb34 423f aef6 193e
00000240: 12df 60bf 2b22 a1be 6e43 babe e0d4 6ebe
00000250: 71b2 d93e cddb 12bf 7b40 c1bd 545d 503d
00000260: 441e 00bc 4b00 3b3d 29ae 38bd 258a 25bd
00000270: 086b c4bd c788 56bd c6c5 fa3c 9fdf dcbd
00000280: 3061 4bbd 0b49 e93c ca8c df3c 2788 6e3c
00000290: 9763 0cbd 5ed0 04bd 9921 2cbd 930b 47bd
000002a0: e534 ca3c 38aa 12bd 5f8c 9cbd 503a bdbb
000002b0: cb40 8abd 6721 88bc 1ef4 293d 0f46 89bd
000002c0: cb60 babc 38b8 15be df9d adbd ce6c 0cbe
000002d0: 6b3c 0ebe 9c01 13be dafa 7fbd 0555 46bd
000002e0: 30b1 fbbd 4338 24be 5639 34be 2cba 923c
000002f0: 32cc 01bd ede3 69bd 5024 1ebe f8bb 1dbe
00000300: 2771 eebd e6e1 32bd bd67 e83c 0baa f0bd
00000310: 7f2d 0abe c75c 88bd 3378 5f3d 5848 ff3c
00000320: 0edf ac3c 60cd 33bd 7e58 03bd 70f1 b2bd
00000330: 79d9 07be 83ee 12be fec9 9fbc f2d4 8fbd
00000340: 5861 e4bc d9a7 79bd 926c 12be a6c6 b9bd
00000350: 53ce f1bb 6dbb 6bbd 18cc 0bbe 8b38 21bd
00000360: 88b7 02bd 27a4 35bd 89f8 2939 4e9e 0bbd
00000370: ca96 b8bd 19a0 313d f569 c93c dfd3 a2bc
00000380: 772c 78bd 6c36 b4bd d560 333d a68e 20bd
00000390: da65 99bd 925a fc3c 986c 173c daf6 d93b
000003a0: b5a7 eebc 1061 3fbd d58d 1ebc 81d6 423d
000003b0: 8724 943b b790 58bd e705 663d 537c bdbc
000003c0: 29d8 353d 0dcb 0e3c 2b0f 543d 6bc8 9e3c
000003d0: fcaa 88bd 72fa 0c3d a1b4 52bc 1d42 abbd
000003e0: 953d 2abd 295c c6bd 48db 83be ff7b 92be
000003f0: b6cf 29be 72c1 79be a7ac 92be adc1 39be

features.3.bias f4 [16]
-0.45186582 -0.1469649 -0.61313283 -0.15630764 0.021598665 -0.0035317978 -0.5237452 -0.1869561
0.24571002 -0.0309184 -0.075150475 -0.04471503 0.22167306 -0.18341035 -0.23255725 0.54000837
00000000: f55a e7be f77d 16be 46f6 1cbf 1c0f 20be
00000010: afef b03c bc75 67bb 2a14 06bf 6b71 3fbe
00000020: 689b 7b3e 9648 fdbc 7ee8 99bd 1b27 37bd
00000030: 43fe 623e eccf 3bbe 7d23 6ebe fd3d 0a3f

features.6.weight f4 [120, 16, 5, 5]
-0.020453008 -0.29831958 -0.0831099 0.005281683 0.02263446 -0.08706548 -0.27836856 0.07916944
0.2345515 0.24670395 -0.00017892724 -0.23537382 -0.12534636 0.35436144 0.24448338 -0.028826164
-0.2857428 -0.1344483 -0.0146886315 0.027379723 -0.007127293 -0.041899987 -0.1920818 -0.019526504
-0.18958299 0.01112354 0.013419465 -0.037626136 -0.032174654 -0.0032359904 0.03570516 -0.0014883267
-0.040642343 -0.061970707 0.011636865 0.06177651 -0.014265578 -0.11987685 -0.05234422 0.06217097
0.016060079 0.020236183 -0.08897233 -0.060278017 0.022836784 -0.017706148 -0.020786108 -0.03211251
-0.04135158 -0.03075855 -0.1603492 -0.2312797 -0.10244481 0.08308734 0.07153492 -0.121877745
0.0064619062 0.10207963 0.26586887 0.27804637 -0.18220083 -0.37630963 -0.41771924 -0.218004
-0.20165199 -0.0874471 -0.110651456 -0.13196893 -0.18433914 -0.19858219 -0.10109666 0.11567079
0.24427916 -0.25867 -0.26229343 -0.012557361 -0.019288803 -0.06689967 -0.0403916 -0.051716432
-0.053082835 -0.0851867 -0.035715703 -0.038013827 -0.06370455 -0.06915515 0.0017259755 0.07880294
0.061985396 -0.027178178 -0.010285137 0.07109086 0.08523263 -0.048526898 -0.051007416 0.004822812
0.0703284 -0.037330203 -0.014813636 0.02867796 -0.25046962 -0.08385372 -0.15945502 -0.22766478
-0.07819676 0.18169612 0.09351802 -0.03649589 -0.2404455 -0.19046801 0.47133458 -0.07850357
-0.4174776 -0.5176653 -0.07308164 -0.076399304 -0.05794595 -0.25896212 0.025236178 0.26136065
-0.18224709 -0.18495704 -0.036331564 0.11473631 0.082866736 -0.004219082 -0.119342156 -0.07874664
-0.22613095 -0.33572674 -0.15032992 -0.05220767 0.025028557 -0.08957017 -0.63690406 -0.2530625
0.18064167 0.07825182 -0.28484544 -0.42402035 0.03920236 0.005685364 -0.20900685 -0.2168792
0.096389815 0.006970188 -0.008342534 -0.008495492 0.22634868 0.20563473 -0.25553298 -0.28291607
-0.06557754 -0.022334391 -0.014587472 -0.27922782 -0.11894951 -0.069972925 0.055542316 -0.17905734
-0.49513146 -0.3650083 0.12600572 0.42625484 -0.114225686 -0.2125458 -0.017785722 -0.10218964
0.097812064 0.07482768 0.17368497 0.0441752 -0.006983803 0.13391851 0.043581292 0.13002765
0.107624665 -0.060019057 -0.33689052 -0.24188869 -0.050932318 -0.13364284 -0.29717708 -0.24561828
-0.14969276 -0.09461948 -0.0626512 0.0023282447 0.09264938 -0.11255971 -0.15868293 -0.10948471
-0.0482616 -0.09622992 -0.009190686 -0.0033978408 0.03915181 0.043037772 0.0736201 0.031648144
-0.03459347 0.060205307 -0.049174655 0.021829262 0.033657245 -0.010907999 -0.0023664706 -0.012365044
0.0022181394 0.0048150048 -0.028815005 -0.014931672 0.043708883 0.025951207 -0.08847123 -0.044873632
0.08001087 0.13809615 0.044909485 -0.050816897 -0.041419823 0.06072915 -0.02798265 -0.014084859
0.018088633 0.1584095 0.07496312 0.01457117 0.048540078 0.028283542 0.01886995 -0.025499161
0.0047530704 -0.059288606 -0.08915529 -0.01870885 -0.041744124 -0.070712805 -0.087890096 -0.13582471
-0.11045277 -0.0036970347 0.1413967 -0.058259293 -0.032100346 0.015299681 0.003642132 0.06247299
0.037952982 -0.024653915 -0.003630484 -0.0022798227 0.029815067 -0.054900482 0.0392117 0.008444952
00000000: 118d a7bc 58bd 98be 8635 aabd f811 ad3b
00000010: e76b b93c 634f b2bd 5386 8ebe 9623 a23d
00000020: 452e 703e f69f 7c3e 6a9e 3bb9 d605 71be
00000030: cc5a 00be dd6e b53e da59 7a3e d924 ecbc
00000040: e14c 92be d1ac 09be 96a8 70bc 714b e03c
00000050: 118c e9bb 529f 2bbd 17b1 44be 0cf6 9fbc
00000060: 0b22 42be 823f 363c 51dd 5b3c dd1d 1abd
00000070: 92c9 03bd e912 54bb 933f 123d f513 c3ba
00000080: 9678 26bd ffd4 7dbd 8da8 3e3c 5e09 7d3d
00000090: 2cba 69bc fe81 f5bd e566 56bd fda6 7e3d
000000a0: 6d90 833c 5ac6 a53c 2037 b6bd 15e6 76bd
000000b0: 3514 bb3c 7c0c 91bc a147 aabc 6888 03bd
000000c0: 4660 29bd 5bf9 fbbc 9532 24be 96d4 6cbe
000000d0: 96ce d1bd b229 aa3d e680 923d 0a9b f9bd
000000e0: 66be d33b 200f d13d f71f 883e 185c 8e3e
000000f0: db92 3abe a8ab c0be 4cdf d5be 713c 5fbe
00000100: dc7d 4ebe 7717 b3bd 3b9d e2bd dd22 07be
00000110: 66c3 3cbe 2159 4bbe c40b cfbd cfe4 ec3d
00000120: 5124 7a3e 6570 84be 534b 86be 64bd 4dbc
00000130: 8d03 9ebc b202 89bd aa71 25bd 9cd4 53bd
00000140: 636d 59bd 5d76 aebd a14a 12bd 63b4 1bbd
00000150: 8877 82bd 37a1 8dbd 213a e23a 7063 a13d
00000160: 66e4 7d3d c5a4 debc fe82 28bc 1698 913d
00000170: 728e ae3d 24c4 46bd 27ed 50bd ae08 9e3b
00000180: 5608 903d 8ee7 18bd e5b4 72bc 0bee ea3c
00000190: 8e3d 80be 80bb abbd 2d48 23be f520 69be
000001a0: 9f25 a0bd 8c0e 3a3e 6086 bf3d b77c 15bd
000001b0: 5837 76be 0c0a 43be c452 f13e 7bc6 a0bd
000001c0: a0bf d5be b785 04bf d4ab 95bd 3d77 9cbd
000001d0: bc58 6dbd af96 84be 1abc ce3c 10d1 853e
000001e0: fb9e 3abe 6165 3dbe 68d0 14bd dffa ea3d
000001f0: 09b6 a93d 3a40 8abb a969 f4bd eb45 a1bd
00000200: df8e 67be 60e4 abbe 16f0 19be b6d7 55bd
00000210: b008 cd3c 9170 b7bd 250c 23bf 6891 81be
00000220: 21fa 383e 7d42 a03d 43d7 91be 3219 d9be
00000230: a792 203d 4a4c ba3b e405 56be 9515 5ebe
00000240: 0668 c53d 2d66 e43b 20af 08bc ad30 0bbc
00000250: f3c7 673e e991 523e 38d5 82be 60da 90be
00000260: 844d 86bd 9df6 b6bc 4b00 6fbc f3f6 8ebe
00000270: cd9b f3bd f74d 8fbd 5780 633d cf5a 37be
00000280: df81 fdbe 5ee2 babe a507 013e 133e da3e
00000290: 28ef e9bd 9ba5 59be 5db3 91bc cd48 d1bd
000002a0: b151 c83d 413f 993d 79da 313e 0ef1 343d
000002b0: 63d8 e4bb ef21 093e 4c82 323d f825 053e
000002c0: 526a dc3d 8bd6 75bd ea7c acbe abb1 77be
000002d0: 689e 50bd abd9 08be 9827 98be 5c83 7bbe
000002e0: 0f49 19be dcc7 c1bd 464f 80bd 7795 183b
000002f0: f5be bd3d b585 e6bd c77d 22be 8539 e0bd
00000300: f5ad 45bd 3114 c5bd 8894 16bc 4fae 5ebb
00000310: a65d 203d 6048 303d 23c6 963d 7ca1 013d
00000320: e2b1 0dbd d799 763d 5d6b 49bd 48d3 b23c
00000330: 2edc 093d 77b7 32bc ca16 1bbb c196 4abc
00000340: 345e 113b 30c7 9d3b 720d ecbc f9a3 74bc
00000350: 1608 333d a097 d43c 6730 b5bd 6acd 37bd
00000360: bddc a33d 1469 0d3e 02f3 373d 6125 50bd
00000370: d5a7 29bd 21bf 783d df3b e5bc 2ec4 66bc
00000380: 9d2e 943c 1a36 223e 4486 993d ebbb 6e3c
00000390: f6d1 463d e3b2 e73c 2795 9a3c 9ee3 d0bc
000003a0: a5bf 9b3b 9cd8 72bd 0c97 b6bd 4d43 99bc
000003b0: e3fb 2abd e0d1 90bd b9ff b3bd a215 0bbe
000003c0: 1035 e2bd f349 72bb 4cca 103e 4ca1 6ebd
000003d0: a77b 03bd 83ab 7a3c d6b0 6e3b aee3 7f3d
000003e0: 9674 1b3d 02f7 c9bc 6aed 6dbb 1469 15bb
000003f0: ba3e f43c 54df 60bd 739c 203d b25c 0a3c

features.6.bias f4 [120]
0.048631407 0.15372498 -0.013461186 0.004228225 0.12698738 -0.0449972 0.012503097 0.2563951
-0.14014675 0.0041174064 -0.003887556 -0.05524634 -0.14596805 -0.034897577 -0.05736014 -0.2575472
0.01746319 -0.20063786 0.06651292 -0.044815645 -0.03502114 0.124261454 -0.11363032 -0.008032074
0.025048224 -0.13979726 -0.04768741 0.02261343 -0.038012233 0.0012028107 -0.040155847 -0.12470458
-0.124326006 0.061396692 0.043056816 -0.068877816 -0.40389955 0.14772497 0.06933234 -0.036551863
0.15695545 -0.10122455 -0.065124005 -0.022569291 -0.16090557 0.050564375 -0.06569438 -0.015739081
0.06098772 -0.055758562 0.08810802 -0.0076456903 0.00035606374 -0.085037656 0.38336143 -0.055794235
0.11111102 -0.030418707 -0.08013571 -0.01026022 0.0181435 -0.41991067 -0.049540956 -0.031095201
0.16353521 -0.079208635 -0.117703706 0.014845541 -0.026674466 -0.07035946 -0.018437026 -0.054761536
0.12737417 0.004311454 0.039503936 0.005366495 -0.10435828 0.091822974 -0.033315007 -0.15496574
-0.0032002942 0.11988194 -0.10503097 0.015668213 -0.12316238 -0.07014667 0.05425844 -0.0016188651
-0.0013364104 -0.26654488 -0.16175175 -0.015195907 -0.0732768 0.065330856 -0.06094994 -0.039509557
0.0761597 0.038803402 -0.089418985 -0.052500386 0.1390908 0.069249414 -0.0038781362 0.061276518
-0.014950575 -0.030303264 -0.118238606 0.056939922 -0.106822915 -0.09538318 -0.036915172 -0.122113675
0.05423096 -0.011346497 -0.053961925 0.008066323 0.015918648 0.022689382 0.054342225 0.027020507
00000000: ba31 473d 156a 1d3e 4e8c 5cbc ec8c 8a3b
00000010: fb08 023e fc4e 38bd cad9 4c3c 3846 833e
00000020: a182 0fbe 4feb 863b 5ec6 7ebb fc49 62bd
00000030: a678 15be c3f0 0ebd 77f2 6abd 3add 83be
00000040: f70e 8f3c 0374 4dbe ed37 883d 9c90 37bd
00000050: 5472 0fbd ca7c fe3d 03b7 e8bd f698 03bc
00000060: ef31 cd3c 0327 0fbe e053 43bd cd3f b93c
00000070: b7b2 1bbd a1a7 9d3a 757a 24bd 1d65 ffbd
00000080: a29e febd 197b 7b3d 585c 303d d00f 8dbd
00000090: eccb cebe 3745 173e 1dfe 8d3d 68b7 15bd
000000a0: eeb8 203e d14e cfbd bc5f 85bd 3ce3 b8bc
000000b0: 6ec4 24be 971c 4f3d c68a 86bd 3fef 80bc
000000c0: 42ce 793d 1763 64bd fa71 b43d b388 fabb
000000d0: 11ae ba39 3928 aebd f347 c43e 7f88 64bd
000000e0: 2d8e e33d a730 f9bc 311e a4bd 7b1a 28bc
000000f0: ada1 943c 88fe d6be 75eb 4abd 5dbb febc
00000100: c675 273e 2338 a2bd a40e f1bd b63a 733c
00000110: 6984 dabc 9f18 90bd 3f09 97bc a24d 60bd
00000120: 606e 023e 1947 8d3b e1ce 213d 6cd9 af3b
00000130: cbb9 d5bd af0d bc3d 5175 08bd 57af 1ebe
00000140: 07bc 51bb aa84 f53d 7a1a d7bd a05a 803c
00000150: 8f3c fcbd 0fa9 8fbd 193e 5e3d 1930 d4ba
00000160: 7e2a afba 9278 88be 40a2 25be 41f8 78bc
00000170: 2612 96bd 2fcc 853d a5a6 79bd c6d4 21bd
00000180: 9ef9 9b3d 51f0 1e3d 4d21 b7bd a50a 57bd
00000190: d26d 0e3e a3d2 8d3d 5428 7ebb 16fd 7a3d
000001a0: 42f3 74bc 8d3e f8bc 1527 f2bd d639 693d
000001b0: f9c5 dabd 4258 c3bd 5d34 17bd bc16 fabd
000001c0: 4821 5e3d a8e6 39bc 2e07 5dbd 9c28 043c
000001d0: d367 823c 15df b93c f495 5e3d 1c5a dd3c

classifier.0.weight f4 [84, 120]
-0.10925446 -0.09903806 0.02653642 -0.0141964285 -0.012745511 0.008072719 -0.18573129 -0.10592364
-0.32598373 0.07140307 -0.011544149 -0.052768476 -0.12420757 -0.20304014 -0.0022229091 -0.35594273
0.045145005 -0.11891845 -0.07124872 0.023252929 -0.090256296 0.041650422 -0.06814772 -0.054464594
-0.02296201 -0.02366431 0.021618487 0.033632297 -0.07777234 0.059542954 -0.035712786 0.110059835
-0.010925051 0.02394234 -0.14281644 -0.00506919 -0.13926148 -0.040686622 -0.0037414958 0.004672752
-0.15412717 0.008592215 -0.0387082 0.0459673 -0.059767988 -0.054280702 -0.0011662168 -0.0102447895
-0.00015884914 -0.08008499 0.090784684 -0.04983315 -0.088041365 0.06256983 -0.024773758 -0.007962788
-0.09965686 -0.058447942 0.10545533 -0.030545522 -0.0680734 0.16466671 -0.094501026 -0.12978032
-0.01996312 -0.029210968 -0.33221114 0.087306954 0.028814666 -0.019483076 0.087694705 -0.07250772
-0.009378247 0.026239082 -0.07136826 -0.095266506 -0.04037919 -0.08888515 -0.0014050707 -0.09235526
0.080488406 -0.1940527 0.1654216 0.020141983 -0.018509842 -0.020317998 -0.086443216 -0.060092412
0.033402666 -0.019012107 0.25990734 -0.01763721 0.046484962 -0.12593651 -0.057847038 -0.04843119
-0.08616941 0.06398543 0.03514131 0.06666392 -0.16339056 0.0003251371 -0.13248077 -0.06337309
0.031736854 -0.007837526 -0.021651775 0.1399757 -0.0042321277 -0.039104756 0.10143197 -0.009087407
-0.07985465 -0.038321692 0.016559089 -0.078917235 0.0149469115 0.0037842847 0.04526521 -0.07100912
0.09616245 0.16386878 0.007895647 0.045718465 -0.015675958 0.07682523 -0.024728684 0.029731689
-0.0106425015 -0.052990288 -0.0695931 0.05319066 -0.04662334 -0.10801814 -0.028759025 -0.13599661
0.052813392 -0.06256355 -0.0022660072 0.10652539 0.06545389 -0.009274189 -0.10252863 0.02084253
0.13889505 0.057914816 0.053144306 0.07121705 0.11401011 0.044350978 -0.044880904 -0.17581649
-0.01187826 0.09803885 0.13550308 0.1167513 -0.2700643 -0.03728061 -0.09963952 0.07905915
0.051186394 0.0387209 0.05428073 -0.05537921 -0.14880197 -0.013481738 -0.039810143 -0.18601778
0.13712545 -0.041974407 0.030249907 0.03786372 -0.14015804 -0.035762627 -0.07784362 0.07438618
0.02504523 0.09999147 -0.028901296 0.15480557 0.08181055 -0.016684378 -0.082250446 -0.08918907
0.007258069 -0.06311399 -0.18616652 -0.011858277 0.02491021 -0.08653016 0.043328878 0.045961592
0.04196872 -0.050709322 0.04819576 -0.007397995 0.022904092 0.14981407 0.039316423 0.009678826
0.14552692 -0.10756546 -0.0943132 -0.0050321505 -0.132236 0.039764453 0.06788113 0.09401904
0.089758046 -0.10507558 -0.029028654 -0.019811025 -0.05076611 0.03377214 0.036807984 0.023130326
-0.015897453 -0.012759184 -0.054940235 0.03077144 -0.045803197 0.0670326 -0.123649545 -0.0018346256
0.005270171 -0.15261678 -0.13718815 0.060551018 0.048360255 0.047670297 0.011701329 0.028047986
-0.04637937 0.03912784 0.03200819 0.018706497 0.093621895 0.103220254 0.006115446 0.035465397
-0.07532289 0.04612495 -0.025958354 0.001838892 -0.17763232 -0.06009719 -0.012913001 -0.16649409
0.012529732 0.053305205 -0.14748031 0.0389787 -0.30464166 -0.22807693 0.08524928 -0.058737278
00000000: cdc0 dfbd 77d4 cabd e862 d93c 2398 68bc
00000010: 8cd2 50bc 7043 043c 5830 3ebe 7eee d8bd
00000020: 57e7 a6be c63b 923d ac23 3dbc c223 58bd
00000030: 8a60 febd c1e9 4fbe 3aae 11bb 203e b6be
00000040: f8e9 383d 848b f3bd d9ea 91bd ed7c be3c
00000050: 4bd8 b8bd a299 2a3d 0891 8bbd 4416 5fbd
00000060: d31a bcbc a8db c1bc 4119 b13c 05c2 093d
00000070: 1b47 9fbd 50e3 733d 9247 12bd 0d67 e13d
00000080: fcfe 32bc ba22 c43c 793e 12be 731b a6bb
00000090: 909a 0ebe 04a7 26bd e233 75bb e31d 993b
000000a0: 83d3 1dbe 5dc6 0c3c 7d8c 1ebd 3548 3c3d
000000b0: 47cf 74bd 7155 5ebd bedb 98ba c3d9 27bc
000000c0: be90 26b9 9903 a4bd 52ed b93d d81d 4cbd
000000d0: 084f b4bd 9c24 803d 56f2 cabc 5b76 02bc
000000e0: e518 ccbd 1c67 6fbd f7f8 d73d 9a3a fabc
000000f0: 116a 8bbd 649e 283e c189 c1bd 22e5 04be
00000100: b289 a3bc d74b efbc 9417 aabe fdcd b23d
00000110: bc0c ec3c f99a 9fbc 4899 b33d ed7e 94bd
00000120: 38a7 19bc 58f3 d63c 8629 92bd 161b c3bd
00000130: a664 25bd 6b09 b6bd 592a b8ba c124 bdbd
00000140: 1bd7 a43d c0b5 46be 4864 293e cd00 a53c
00000150: f4a1 97bc ee71 a6bc 2409 b1bd 7623 76bd
00000160: 3cd1 083d 47bf 9bbc 9312 853e e97b 90bc
00000170: 0467 3e3d 80f5 00be 04f1 6cbd c95f 46bd
00000180: 9679 b0bd cb0a 833d 56f0 0f3d 1887 883d
00000190: db4f 27be 2a77 aa39 0aa9 07be c0c9 81bd
000001a0: 81fe 013d f768 00bc 105f b1bc ca55 0f3e
000001b0: a9ad 8abb 4f2c 20bd 91bb cf3d 59e3 14bc
000001c0: d68a a3bd 35f7 1cbd eda6 873c 5c9f a1bd
000001d0: e4e3 743c c301 783b 0368 393d 3b6d 91bd
000001e0: d2f0 c43d 38cd 273e be5c 013c 4943 3b3d
000001f0: de6a 80bc 8c56 9d3d cf93 cabc df8f f33c
00000200: e35d 2ebc 580c 59bd d486 8ebd 73de 593d
00000210: 1ef8 3ebd 9d38 ddbd 0c98 ebbc b242 0bbe
00000220: db52 583d 5221 80bd 4b81 14bb fc29 da3d
00000230: b00c 863d c5f2 17bc 88fa d1bd f4bd aa3c
00000240: 813a 0e3e 1638 6d3d d8ad 593d 3fda 913d
00000250: 227e e93d 5fa9 353d 0ad5 37bd 3d09 34be
00000260: 099d 42bc 98c8 c83d 52c1 0a3e 4e1b ef3d
00000270: de45 8abe 8eb3 18bd ce0f ccbd c3e9 a13d
00000280: d3a8 513d ce99 1e3d 7955 5e3d 4fd5 62bd
00000290: 8b5f 18be 82e2 5cbc f60f 23bd 727b 3ebe
000002a0: 9d6a 0c3e 5bed 2bbd a7ce f73c fd16 1b3d
000002b0: 9785 0fbe d57b 12bd 7a6c 9fbd c857 983d
000002c0: a72b cd3c 54c8 cc3d 69c2 ecbc 5a85 1e3e
000002d0: 4a8c a73d adad 88bc ec72 a8bd c2a8 b6bd
000002e0: 18d5 ed3b e841 81bd 70a2 3ebe 3849 42bc
000002f0: 7f10 cc3c b936 b1bd 9f79 313d 3942 3c3d
00000300: 64e7 2b3d 94b4 4fbd eb68 453d e16a f2bb
00000310: 5da1 bb3c dc68 193e 420a 213d f093 1e3c
00000320: 0205 153e 484b dcbd 4727 c1bd bde4 a4bb
00000330: e068 07be 0de0 223d 4305 8b3d 0e8d c03d
00000340: 11d3 b73d de31 d7bd 80cd edbc bb4a a2bc
00000350: 20f0 4fbd a854 0a3d f8c3 163d cf7b bd3c
00000360: 603b 82bc e60b 51bc 0309 61bd 6314 fc3c
00000370: 229c 3bbd 6348 893d f93b fdbd d277 f0ba
00000380: 66b1 ac3b 9347 1cbe 0d7b 0cbe 5804 783d
00000390: 6715 463d ee41 433d eeb6 3f3c e4c4 e53c
000003a0: 4bf8 3dbd 8444 203d 051b 033d 5e3e 993c
000003b0: d6bc bf3d 2465 d33d 1464 c83b 2a44 113d
000003c0: e342 9abd 84ed 3c3d 9da6 d4bc fa06 f13a
000003d0: 3fe5 35be 7928 76bd 0d91 53bc 6d7d 2abe
000003e0: 8149 4d3c 8f56 5a3d 1405 17be 21a8 1f3d
000003f0: fef9 9bbe 008d 69be 2d97 ae3d 8096 70bd

classifier.0.bias f4 [84]
-0.0224267 -0.09725057 0.23702033 -0.0076757483 -0.09249218 -0.03255522 0.23608659 0.47344315
-0.02659206 -0.012257239 0.47780338 0.30671588 0.02573123 0.04595716 0.008622687 -0.16091599
-0.2212264 -0.0840689 -0.10083811 0.36233214 -0.00036337986 0.10761397 -0.42365304 0.12881996
0.52533144 0.19010727 0.037754677 -0.124546446 0.19409609 -0.14429654 0.13328145 0.06972605
0.14523423 -0.057656024 -0.09241153 0.04122263 -0.08384845 -0.119410634 0.009121862 -0.16852385
0.056712385 -0.15955469 0.013818713 0.21044235 0.13504195 0.18870951 -0.052766874 0.07576966
-0.07113169 0.018474009 0.20461175 -0.08834639 0.13778959 -0.07783992 -0.13799198 -0.03856548
0.15511578 -0.0655128 0.14238666 0.03146424 0.3771634 0.56102014 0.2637995 -0.2450241
0.4584576 -0.08124964 0.08383653 0.27408358 -0.022356648 0.45109072 -0.099453874 0.04640103
-0.0972705 0.20214306 -0.05357572 0.021832231 0.06096459 0.28676313 -0.06738845 0.25593635
0.4066732 -0.0465146 -0.1467964 0.19864547
00000000: 33b8 b7bc 4f2b c7bd 75b5 723e d884 fbbb
00000010: 8a6c bdbd 9f58 05bd afc0 713e 2467 f23e
00000020: 98d7 d9bc 96d2 48bc a5a2 f43e dd09 9d3e
00000030: 4dca d23c 933d 3c3d 2c46 0d3c 29c7 24be
00000040: 2c89 62be 512c acbd 3684 cebd 9983 b93e
00000050: 0584 beb9 b764 dc3d 0de9 d8be 61e9 033e
00000060: 1f7c 063f 7bab 423e a6a4 1a3d 3512 ffbd
00000070: 20c1 463e 79c2 13be ef7a 083e 88cc 8e3d
00000080: 48b8 143e b928 6cbd 4242 bdbd 0fd9 283d
00000090: bcb8 abbd 908d f4bd dd73 153c 8491 2cbe
000000a0: 3f4b 683d 4e62 23be e267 623c 337e 573e
000000b0: 7048 0a3e 113d 413e 1422 58bd 202d 9b3d
000000c0: 7ead 91bd ce56 973c be85 513e f4ee b4bd
000000d0: b718 0d3e 896a 9fbd c54d 0dbe d6f6 1dbd
000000e0: acd6 1e3e 932b 86bd cfcd 113e a6e0 003d
000000f0: 901b c13e 049f 0f3f ba10 873e 99e7 7abe
00000100: f4ba ea3e 3666 a6bd 7db2 ab3d af54 8c3e
00000110: 4a25 b7bc 5df5 e63e 79ae cbbd 020f 3e3d
00000120: c235 c7bd 97fe 4e3e 3772 5bbd 82d9 b23c
00000130: 02b6 793d 9ed2 923e f502 8abd 170a 833e
00000140: 7837 d03e 1886 3ebd cc51 16be b869 4b3e

classifier.2.weight f4 [10, 84]
-0.18015474 -0.06706364 0.15809648 -0.14083618 0.22074561 -0.072323576 0.058083147 -0.16423345
-0.083090134 -0.16291836 -0.3678852 -0.12800337 -0.014352942 -0.19041026 -0.095879994 0.08834923
-0.2551126 -0.1576866 -0.0011559153 0.40631154 -0.059684608 -0.3076808 0.20795229 0.0054579447
-0.05778384 -0.23811865 -0.038983285 -0.08077561 0.42438394 -0.096493155 0.09036293 0.20237648
-0.18459481 -0.10421452 -0.13146913 -0.09237825 -0.1542184 -0.16139127 -0.1640985 0.007454841
-0.20835961 0.28738043 -0.40081728 -0.24897988 -0.14232916 -0.3291747 0.032461 0.4963697
0.064460576 0.04471513 -0.61363834 -0.16491942 -0.36082554 -0.010510604 -0.19005156 -0.07913787
-0.023437152 0.0774215 0.07764457 0.16922224 0.44091365 -0.36155102 -0.61460346 0.26172101
-0.007097902 -0.0072516673 -0.03993954 -0.07555688 0.04511723 0.15430325 -0.1255437 -0.061728764
0.030731298 -0.3713961 -0.10223142 0.18662578 -0.39068776 -0.28492737 -0.17981973 -0.3632959
0.06751405 0.032159273 -0.3915695 -0.031648934 -0.1041303 0.06926961 -0.28590903 -0.134735
0.28689602 0.18828964 0.16764672 0.13804884 0.0043805838 0.11091857 -0.15167335 0.13490437
0.4243973 -0.03273863 0.010193374 -0.5109303 0.19016524 0.14963806 -0.13357829 -0.32972297
0.0432069 0.065577336 0.32055727 0.085640945 -0.15386678 -0.3211233 -0.001815438 0.43979156
-0.23115812 0.312649 -0.13562018 0.10005428 0.2954338 -0.049951788 0.15476722 0.12176655
0.039074548 0.4200776 0.05160911 0.14574282 0.062033568 -0.3212732 0.20824866 -0.22462627
-0.15014182 0.28663406 -0.0007799414 -0.07217526 0.117751345 0.4080143 0.2383605 0.14317247
0.19749951 0.085570455 -0.111694284 0.033614755 0.111861706 -0.00885882 -0.16516492 0.069722325
-0.4414701 0.5597276 -0.1768473 -0.4893893 -0.13435364 -0.016514381 0.3033042 0.3175351
0.42452765 0.65998286 -0.050551582 0.34511 0.12776819 0.33941227 -0.032622103 0.30169204
-0.083224036 -0.23477234 0.15266852 0.23505983 -0.19054334 0.16072743 0.19733644 -0.56552505
-0.061862484 -0.10884592 0.29592323 0.018728085 -0.43464625 -0.5697358 0.11464478 0.2430781
0.0509972 0.23381919 0.48366892 0.17284802 0.3187323 0.414364 0.107088566 -0.3229197
-1.624781 0.14241372 -0.404282 0.13797352 0.027573323 -0.38788807 -1.6952411 0.23425625
0.30480784 0.017386569 0.29563236 -1.6698489 -0.044799052 -1.0894034 -0.0067210784 0.09523248
-0.30034494 -0.008176616 0.15739375 -0.031143053 -0.108243786 -0.5918167 -0.032282535 -0.69739324
0.2629188 -0.62355685 0.24898787 -0.082419276 -0.21288969 0.097048506 -0.22616641 0.10578462
0.1109468 0.032080367 -0.48142913 -0.5708501 -0.017141037 0.26924312 0.24180552 0.07892254
0.010667285 0.047769107 -0.29360643 -0.027004521 0.133959 0.28310406 0.39550868 -0.5190648
0.036489803 -0.017586607 -0.028127221 0.16438778 -0.4332567 -0.41395682 0.105033346 -0.4191905
-0.29319423 -0.169514 -0.10147213 -0.065129705 0.06907677 0.1624799 -0.40264755 -0.42414388
-0.007178486 0.30792403 -0.6915808 -0.3919468 0.10110419 -0.104434974 0.079918355 0.25628662
00000000: 7c7a 38be a958 89bd 0be4 213e 5c37 10be
00000010: 230b 623e 621e 94bd 98e8 6d3d d02c 28be
00000020: 292b aabd 12d4 26be 735b bcbe 5113 03be
00000030: 9a28 6bbc e8fa 42be bb5c c4bd 71f0 b43d
00000040: 1e9e 82be 9978 21be 1582 97ba 1108 d03e
00000050: d977 74bd 5688 9dbe 72f1 543e 8fd8 b23b
00000060: bfae 6cbd 60d5 73be f0ac 1fbd af6d a5bd
00000070: da48 d93e 349e c5bd 3310 b93d c83b 4f3e
00000080: 6c06 3dbe 6c6e d5bd d89f 06be cf30 bdbd
00000090: 6eeb 1dbe c143 25be 7009 28be bd47 f43b
000000a0: 395c 55be 8723 933e ec37 cdbe 95f4 7ebe
000000b0: bcbe 11be 9689 a8be d3f5 043d 2b24 fe3e
000000c0: e803 843d 3627 373d 6717 1dbf a3e0 28be
000000d0: 20be b8be ab34 2cbc e09c 42be 0913 a2bd
000000e0: 45ff bfbc 2a8f 9e3d 1e04 9f3d 9848 2d3e
000000f0: 6fbf e13e 371d b9be a756 1dbf 4c00 863e
00000100: 8495 e8bb 659f edbb a597 23bd 91bd 9abd
00000110: d8cc 383d ac01 1e3e 878e 00be 4dd7 7cbd
00000120: 34c0 fb3c a127 bebe b55e d1bd d41a 3f3e
00000130: 3a08 c8be 00e2 91be aa22 38be ec01 babe
00000140: ce44 8a3d 71b9 033d cc7b c8be 50a2 01bd
00000150: 4442 d5bd 3add 8d3d ab62 92be f9f7 09be
00000160: 09e4 923e 00cf 403e 95ab 2b3e ad5c 0d3e
00000170: 008b 8f3b 4629 e33d 4250 1bbe 5f24 0a3e
00000180: 9a4a d93e f118 06bd 1c02 273c 54cc 02bf
00000190: adba 423e b83a 193e bfc8 08be 73d1 a8be
000001a0: b8f9 303d 694d 863d 1520 a43e 8564 af3d
000001b0: 418f 1dbe 466a a4be fef3 edba 5c2c e13e
000001c0: b7b4 6cbe 8813 a03e 04e0 0abe 42e9 cc3d
000001d0: 1943 973e 3f9a 4cbd 4c7b 1e3e be60 f93d
000001e0: a20c 203d 6914 d73e 1364 533d 9b3d 153e
000001f0: e916 7e3d ec7d a4be 233f 553e 6e04 66be
00000200: c7be 19be b3c1 923e fb74 4cba 9fd0 93bd
00000210: 9e27 f13d 40e7 d03e c614 743e ce9b 123e
00000220: 503d 4a3e 903f af3d f9bf e4bd a0af 093d
00000230: c017 e53d 9624 11bc fe20 29be 94ca 8e3d
00000240: 5e08 e2be 4f4a 0f3f 7517 35be 3c91 fabe
00000250: 0094 09be 2b49 87bc b04a 9b3e f693 a23e
00000260: b05b d93e a3f4 283f 2d0f 4fbd 42b2 b03e
00000270: aad5 023e 72c7 ad3e c19e 05bd 6177 9a3e
00000280: 5d71 aabd 2968 70be 2355 1c3e 86b3 703e
00000290: cb1d 43be bb95 243e 9012 4a3e 40c6 10bf
000002a0: 8463 7dbd 9cea debd 4083 973e a46b 993c
000002b0: f489 debe 35da 11bf e2ca ea3d 77e9 783e
000002c0: 71e2 503d 4c6e 6f3e 74a3 f73e 12ff 303e
000002d0: e130 a33e 8527 d43e 4051 db3d bb55 a5be
000002e0: d3f8 cfbf e7d4 113e 0dfe cebe ee48 0d3e
000002f0: 73e1 e13c 4499 c6be a9fd d8bf dfe0 6f3e
00000300: c60f 9c3e 476e 8e3c 205d 973e 9cbd d5bf
00000310: 367f 37bd 9271 8bbf 7e3c dcbb 3f09 c33d
00000320: d0c6 99be 37f7 05bc d42b 213e b71f ffbc
00000330: ebae ddbd 4d81 17bf b13a 04bd 5d88 32bf
00000340: 4b9d 863e 6ca1 1fbf adf6 7e3e 70cb a8bd
00000350: c1ff 59be 5ec1 c63d 2b98 67be 9ba5 d83d
00000360: 1338 e33d b466 033d e17d f6be 3b23 12bf
00000370: 5c6b 8cbc 3cda 893e de9b 773e 24a2 a13d
00000380: d6c5 2e3c 8aa9 433d 9553 96be 9638 ddbc
00000390: 8c2c 093e 04f3 903e 1d80 ca3e 6ee1 04bf
000003a0: 5576 153d ca11 90bc 0f6b e6bc 4555 283e
000003b0: d2d3 ddbe 26f2 d3be b91b d73d 23a0 d6be
000003c0: 8e1d 96be 1495 2dbe 9fd0 cfbd b962 85bd
000003d0: 1f78 8d3d 2261 263e d227 cebe 6329 d9be
000003e0: 8139 ebbb 38a8 9d3e 700b 31bf 40ad c8be
000003f0: b70f cf3d 01e2 d5bd 3cac a33d 0038 833e

classifier.2.bias f4 [10]
-0.18069752 -0.18230163 0.23551314 -0.1590098 -0.10647641 -0.076697394 -0.6089333 0.489899
0.55431134 0.041415006
00000000: c508 39be 47ad 3abe 5b2a 713e 77d3 22be
00000010: 4e10 dabd 8613 9dbd 0ee3 1bbf 0bd4 fa3e
00000020: 59e7 0d3f c8a2 293d
