results/model.pth (torch, 250396 bytes, 10 tensors)

features.0.weight f4 [6, 1, 5, 5]
00000000: 0750 b6bd c6d0 39be 88eb 31be 25ab eabd
00000010: 8978 e4be 9223 1c3e 9663 8e3d ba71 283e
00000020: 4b5f fd3b de81 c9bd 7a80 833e 010b 7f3e
00000030: db75 8b3e dfef cc3d 7c28 283e efea ffbc
00000040: 39a5 723c c9ae 2fbd f1f6 573e 935f 4f3e
00000050: fb40 e0be 2efa febe 1e65 d3be 7dbd 9cbe
00000060: a76e cebd d405 13bf e0c8 01be 427c c2bd
00000070: 8550 9ebe 79fb 8f3e 2bbb cd3c 78db 213f
00000080: 9aff 003f 3268 b93d 0a94 133e e7e5 093f
00000090: 07a9 6c3f a41a 8e3e 97fe 273e 0e82 25be
000000a0: 6266 1e3f b615 26bd eeb6 abbe 00d8 e1be
000000b0: 0e8c ebbe aed5 f2be 7074 6dbf e194 3abf
000000c0: 98d3 a9be 5d35 18bd fb24 c7be 3c80 c9be
000000d0: 0066 9bbd 973d 28bc a9e6 8d3e 7447 773d
000000e0: 0865 fdbd 9d59 6bbd 7f73 c03e c75f 873e
000000f0: 71ef 6ebb 0480 aa3e cf03 d73e 1ded e53e
00000100: 8a1d a93b 24d2 b83d 1b02 293e d58d 343e
00000110: cddc fdbd 3b14 76be 6bc9 293b 6e70 00be
00000120: 7c53 c7bb 4fe7 37be 2f7e 23be 6bd6 adbe
00000130: 0ebc d1bd 5a41 88bd a8a8 b0be dc34 70b9
00000140: f279 e5be fdc7 b5be ab7c 80be 021d a5be
00000150: 133a 83bd f65c f6bd e82c a2be 5364 21be
00000160: 48ed b2be e44a 033a 8293 b13e 6293 a6bd
00000170: 96b1 00be eb94 18be 674f fdbc bf05 943e
00000180: 4b11 b43e 03b6 4b3e 59ba e33d be29 eb3e
00000190: feb7 19bf d60e ecbe 74cd 453e 8ea0 653e
000001a0: 5dea 3fbe ffb9 21bf 6b80 cd3e 0fee 0f3f
000001b0: a4a6 653e 572d d9be 496b 2d3d 3230 763f
000001c0: 5a94 8b3f 9368 62bd 8eac 24bf 1b7f 4d3d
000001d0: 62fe 183f f004 123f b844 7cbe 8e83 21bf
000001e0: b005 62bf b980 17bf 0141 babc 18bf 24bd
000001f0: 66bf af3e ec9d f0be 2f03 c7be e9e9 33be
00000200: 0444 45be 97fc 13bf cd73 5cbf 8c57 9fbe
00000210: f702 bb3e 8a9f 183f 4e88 a63e 86c5 36bf
00000220: 8156 8cbe 4795 b43e 3600 1d3f d5a1 ce3e
00000230: 425b 31bf a4a4 86be f8dd 183d 7d99 d23e
00000240: 704e b03e 82dc 8ebe 2123 86bd ad2e cdbd
00000250: 3617 e2bc b5e1 5f3e
-0.08901983 -0.18146047 -0.17375004 -0.114584245 -0.4462321 0.15247944 0.06952588 0.16449633
0.007732307 -0.09839223 0.25683957 0.24906541 0.27238354 0.10006689 0.16421694 -0.031239955
0.0148099 -0.042891297 0.21090294 0.20251302 -0.43799576 -0.49800247 -0.41288084 -0.30613318
-0.10079699 -0.5743077 -0.12674284 -0.094963565 -0.30920807 0.28121546 0.025113663 0.6322551
0.5039002 0.09053077 0.14411941 0.5386643 0.92445415 0.277547 0.16405712 -0.16162893
0.61874974 -0.04054805 -0.33538002 -0.44110107 -0.4600529 -0.4742865 -0.92755795 -0.7288342
-0.33169246 -0.037160266 -0.388954 -0.39355648 -0.07587814 -0.01026859 0.27715042 0.060370877
-0.12372786 -0.05745851 0.37588117 0.2644026 -0.0036458636 0.33300793 0.41995093 0.44907466
0.005160992 0.09024456 0.1650471 0.1763223 -0.1239563 -0.24031155 0.0025907408 -0.12542889
-0.00608295 -0.17959331 -0.15966104 -0.3395265 -0.10240947 -0.0665309 -0.34503675 -0.00022907875
-0.448196 -0.3550414 -0.25095114 -0.32248694 -0.06407561 -0.1202945 -0.31674886 -0.15760927
-0.34946656 0.0005008413 0.34682852 -0.0813358 -0.12567744 -0.14900558 -0.030921651 0.28910634
0.35169443 0.1989365 0.11119527 0.45930284 -0.60046375 -0.4610507 0.19316655 0.22424528
-0.18741746 -0.6317443 0.40137038 0.56222624 0.2242685 -0.42417404 0.042338643 0.9616729
1.0904648 -0.05527551 -0.643258 0.050170045 0.5976316 0.57038784 -0.24635589 -0.6309136
-0.8828993 -0.5918079 -0.022736074 -0.040221304 0.34325713 -0.46995485 -0.38869616 -0.17569698
-0.19264227 -0.57807297 -0.861142 -0.3112148 0.365257 0.5961844 0.32525867 -0.71395147
-0.27409747 0.3527014 0.61328447 0.40357843 -0.69279873 -0.26297486 0.03732106 0.41132727
0.34434843 -0.2790261 -0.06549669 -0.10018668 -0.027598958 0.21863444

features.0.bias f4 [6]
00000000: 8b25 68bf 4230 8cbf d9d9 2abf 185b 5fbf
00000010: 1af3 a3bf dd16 a5bf
-0.90682286 -1.0952227 -0.6673866 -0.87248373 -1.2808564 -1.2897602

features.3.weight f4 [16, 6, 5, 5]
00000000: 30b3 9ebd cd4c 19be 7587 27bd faf1 afbd
00000010: fa6c 4bbd b91d 373d ba2d 7dbd e5b7 acbd
00000020: aba1 1dbe a667 5bbd c134 c53c b3b5 09bd
00000030: 558a cabd 47fb f3bd a907 0fbe e8a8 b13d
00000040: 4294 fcbb e798 8b3d 386f b03d 907b cb3b
00000050: add2 9c3d 1e07 22bd f739 dbbd f787 973c
00000060: 8923 a6bd a28f 68be 1bf0 bcbe 3032 6abe
00000070: 78ea 093d 4e01 ae3e 1450 9bbe 445c babe
00000080: be56 9cbe 6219 10be f445 6dbd eb7c babe
00000090: ca90 b4be 68ab 6cbe 22e3 5fbd d01b debe
000000a0: 296e 90be 6062 6cbe 9562 6fbe 6bdd cabd
000000b0: 9982 b33d 4cea bcbe e4be 84be 00f1 05bf
000000c0: d0ce dbbd a271 ed3e bb18 cebd 170f acbd
000000d0: cbfa 3d3d 97f0 2b3e d7f4 053d 54d1 66bd
000000e0: b2ff 28be cc72 8d3d 637e bd3d 14d7 9cbc
000000f0: 0753 0dbd 1897 35be 76c6 b1bd 9612 8fbc
00000100: 330b 10be 1c85 c4ba 7602 2cbe 8061 14be
00000110: 462b dfbd 9d5a 17be 5837 93bd 1ead ccbc
00000120: e786 8ebc e20b c2bd 9fc4 b1bd 2934 4ebe
00000130: 05bf 8e3d 7a88 7f3d 13d0 b2bd afe6 97bd
00000140: 145a 17be c2ce d93d 76cb 683c cbb3 b5be
00000150: b10e 9abe f650 c3bb 6283 523d 4816 a2bd
00000160: 2644 89be 2e94 11be b87d 4e3d dd3c abbc
00000170: a373 25be 996c 19be b056 7c3b 9510 963e
00000180: 55cc 473e 56d9 03bd 4c90 35be 2526 58be
00000190: b7e9 8bbe c84d afbd 6d34 d13d a62f 9dbd
000001a0: 5f1e a2bd d591 cfbe 20ba ecbe f7e3 9e3e
000001b0: a6f9 c93e 08e5 bcbe 62b8 06bf c245 f0be
000001c0: a32e 0b3f 6609 273f 13e0 bbbe faf7 e5be
000001d0: a907 c9be 5a2d 8d3e 2ddf 0e3f 121d f3bd
000001e0: 0b6f afbe b5e6 c7be 7deb 55be 3648 42be
000001f0: 77a0 88bd 2776 d4bd a8cf 3e3e d710 9cbe
00000200: b93e babe a79b 55be 3b63 60be 3ce4 d63e
00000210: d082 a0bc 6277 adbe c0b2 73be 4380 8ebe
00000220: cfc3 153f c773 1c3f 104b 42be 390c a0be
00000230: d401 ccbe 34ac e73d 1ab6 263f 6df3 1e3e
00000240: 7e2a afbe 57e9 f3be 9a45 9fbe df13 113e
00000250: 5e40 aa3e abd9 c1be 2849 c1bd de5c 503d
00000260: 62c6 ffbb d011 3b3d 16ad 38bd af8f 25bd
00000270: 086b c4bd c788 56bd c6c5 fa3c 9fdf dcbd
00000280: 4d5e 4bbd 415b e93c cf9a df3c 2788 6e3c
00000290: 9763 0cbd aeda 04bd b8e0 2bbd 8305 47bd
000002a0: b625 ca3c afe2 12bd 9032 9cbd 4192 bbbb
000002b0: 4e09 8abd 930c 86bc f360 2a3d 0767 89bd
000002c0: e99b babc a2bc 15be d4a6 adbd cd72 0cbe
000002d0: 113e 0ebe 9b07 13be 6c09 80bd 006d 46bd
000002e0: 2dbd fbbd 7239 24be 923d 34be 328a 923c
000002f0: 2de4 01bd 43d9 69bd d513 1ebe 97c0 1dbe
00000300: b879 eebd 84f1 32bd 40bd eb3c b95e f0bd
00000310: ee4a 0abe 77ed 87bd 5c18 643d b589 023d
00000320: 2fcf ac3c b4d3 33bd 2a5a 03bd 19ef b2bd
00000330: 48d8 07be 96ee 12be 7cc2 9fbc 98d2 8fbd
00000340: 3758 e4bc 5da3 79bd 986c 12be 19c4 b9bd
00000350: 81aa f1bb e5b6 6bbd e7ca 0bbe 7435 21bd
00000360: 05b4 02bd 56a0 35bd 2c73 2a39 fb9f 0bbd
00000370: 3798 b8bd a3d9 313d 00f2 cb3c 1041 a1bc
00000380: ce28 78bd 0ebd b3bd d695 333d 6959 20bd
00000390: 164b 99bd 5cc5 fc3c a33d 073c 1a97 db3b
000003a0: f053 eebc 703d 3fbd 8ae9 1dbc bc10 393d
000003b0: eda5 9c3b d9e1 55bd 584b 673d ea8e bfbc
000003c0: d532 413d 8fab 1b3c 7b68 603d 71bb b83c
000003d0: a0bd 84bd f382 233d 0ac5 59bc f7bc aabd
000003e0: 2027 27bd 1f0a c4bd 48db 83be ff7b 92be
000003f0: 57c3 29be 72c1 79be a0aa 92be adc1 39be
-0.07749021 -0.14970703 -0.040900666 -0.08591075 -0.049664475 0.04470608 -0.061811186 -0.084335126
-0.15393703 -0.053565644 0.024073007 -0.033620548 -0.09889666 -0.11913162 -0.13967766 0.086747944
-0.0077081034 0.06816273 0.08614963 0.006209798 0.07657371 -0.03955757 -0.10704415 0.01849745
-0.081122465 -0.22711042 -0.36901936 -0.22870708 0.033670872 0.3398537 -0.30334532 -0.36398518
-0.3053493 -0.14072183 -0.05792804 -0.3642343 -0.35266715 -0.23112261 -0.05465997 -0.43380594
-0.28209046 -0.23084402 -0.2337745 -0.099055134 0.08765144 -0.36897504 -0.25926888 -0.5232086
-0.10732806 0.46375757 -0.10063311 -0.08401316 0.046381753 0.16790996 0.0327042 -0.056351975
-0.1650379 0.069066614 0.09252622 -0.019145526 -0.03450301 -0.17733419 -0.086804315 -0.017464917
-0.14066772 -0.0014993283 -0.16797814 -0.14490318 -0.10896926 -0.1478066 -0.0718829 -0.024984892
-0.01739831 -0.09474923 -0.086800806 -0.20137085 0.06970028 0.062386014 -0.08731093 -0.07417046
-0.14780456 0.10635139 0.014208665 -0.35488734 -0.30089334 -0.005960579 0.051394828 -0.07914406
-0.26809806 -0.14216682 0.050412863 -0.020903045 -0.16157393 -0.14982833 0.0038503818 0.29309526
0.1951154 -0.03218969 -0.17730826 -0.21108301 -0.27326748 -0.085597575 0.102150775 -0.07675104
-0.07915949 -0.4054095 -0.46235752 0.31033298 0.3944828 -0.36893487 -0.52625096 -0.4692822
0.54368037 0.65248716 -0.36694393 -0.44915754 -0.39263657 0.27573663 0.5580929 -0.11870779
-0.34264407 -0.39043203 -0.20890613 -0.18972859 -0.06671231 -0.10374098 0.18633902 -0.30481598
-0.3637598 -0.20860158 -0.21912853 0.41971004 -0.019593626 -0.33880144 -0.23798656 -0.2783223
0.58501905 0.6111416 -0.18973947 -0.31259325 -0.39845145 0.11312142 0.65121615 0.15522547
-0.34212106 -0.47638962 -0.3110779 0.14167736 0.33252233 -0.3786138 -0.094377816 0.050869815
-0.0078056315 0.045671284 -0.045086943 -0.04042023 -0.09590727 -0.052376535 0.030611884 -0.1078484
-0.04965048 0.028485896 0.027295498 0.014558828 -0.034274664 -0.03243511 -0.041962355 -0.04858924
0.024676185 -0.035860714 -0.076268315 -0.005724222 -0.06740056 -0.016363418 0.041596364 -0.06709104
-0.022779422 -0.14622739 -0.084790856 -0.13715668 -0.13890864 -0.1435837 -0.06251797 -0.048443794
-0.12291942 -0.16037539 -0.17601612 0.017888162 -0.031711746 -0.057091963 -0.15437253 -0.15405498
-0.1164431 -0.04368736 0.028776765 -0.11736817 -0.13505146 -0.0663709 0.055687293 0.03186961
0.021094887 -0.043903068 -0.03206841 -0.087370105 -0.13266098 -0.14348826 -0.019501917 -0.070225894
-0.027874095 -0.06094681 -0.14299238 -0.09070606 -0.007375062 -0.05754747 -0.1365162 -0.039357617
-0.03190996 -0.04434236 0.00016255368 -0.034088116 -0.09013408 0.043420445 0.024895668 -0.019684345
-0.06058579 -0.08776294 0.043844067 -0.03914777 -0.07485025 0.030855827 0.008254441 0.0067013623
-0.029092759 -0.04668945 -0.0096382 0.045181975 0.004780522 -0.05221734 0.056468338 -0.023383576
0.047167618 0.009501352 0.05478714 0.022550317 -0.064814806 0.039919805 -0.013291607 -0.083368234
-0.040808797 -0.09572243 -0.25753236 -0.28610227 -0.16578422 -0.243902 -0.28645802 -0.18140288

features.3.bias f4 [16]
00000000: 0c88 b9be 283c 15be a826 dcbe a306 bbbd
00000010: 8bdb 3dbe a3c6 c23d 95ec 98be 6528 01bd
00000020: ceb1 10bd 005d 9bbd 3825 02be 6405 4abd
00000030: d5a5 8dbe eccf 3bbe acb1 73be a861 833d
-0.36236608 -0.14573729 -0.42998242 -0.09132125 -0.1854078 0.09510543 -0.29867998 -0.031532664
-0.035325818 -0.07586098 -0.1270951 -0.049321547 -0.27665582 -0.18341035 -0.23798245 0.06415111

features.6.weight f4 [120, 16, 5, 5]
00000000: 4cb7 e4bd 78b1 84bd 09a9 02bd f643 83bd
00000010: 1f00 44bd c9fc a3bc 9bdb 1bbe 2841 6bbb
00000020: e79b 113d 02f7 013e 6fa5 fe3d c9ec d8bd
00000030: 4a8a 72bc c55d a23c 8c3e 953e 24e1 063e
00000040: bb6d 02bd 3dc5 aebd dca6 79bc 02c4 183d
00000050: 9b4e 8dbd e0bb 91bd 2101 23be 9e40 e3bb
00000060: c86d c2bd 823f 363c 51dd 5b3c dd1d 1abd
00000070: 67e5 03bd 782a 50bb 933f 123d f513 c3ba
00000080: 9678 26bd ffd4 7dbd 8da8 3e3c 5e09 7d3d
00000090: 2cba 69bc fe81 f5bd e566 56bd 48a7 7e3d
000000a0: 6d90 833c 5ac6 a53c 7438 b6bd 79ea 76bd
000000b0: b19b bb3c 7c0c 91bc a147 aabc 6888 03bd
000000c0: 4660 29bd 5bf9 fbbc faac c9bd b49f 2cbe
000000d0: 25cf e73c 8c5e b63d 90e0 61bd 115d e1bd
000000e0: 4b98 793d 63eb 293e 037d 5e3e 38a5 043e
000000f0: 7017 24be 76ae 5bbe 972b 1cbe 774e 65bd
00000100: 4ab6 3fbd f0a0 babc 1550 46bd 85a0 35be
00000110: 99bb 00be 5ec9 07be 32e5 27be 666c 5b3e
00000120: 9ef7 403e e8ad 6bbd ce6e fd3b 7070 303d
00000130: a032 74bc 1daf 39bd 857c 10bd 9d75 54bd
00000140: 4a0e 60bc f620 9bbd c7e9 24bd f7db 07bd
00000150: cd09 80bd e0a2 79bd 2461 213c ab86 723d
00000160: bf70 533d 5983 d8bc df6c 77bb a027 503d
00000170: 9627 893d 99bf 48bd 6090 54bd f857 553c
00000180: 4546 7f3d 11ca e9bc c2f5 9bbc d018 f23c
00000190: 569e d9bd abf9 10be 65ae 6ebe f78c 23be
000001a0: fe1c 6abd a980 2c3d b30e a7bd 4e5d 4f3d
000001b0: 9444 7cbd 786a 00be 524e c03e 2d46 ff3c
000001c0: 514d 33be c132 c4be 9abd ec3d 13e8 a83d
000001d0: 4afd bdbc 80b8 34be 009b 1b3d 0f46 823e
000001e0: 4bfd a9bd b8d6 e8bd f8dd 023d 9f6a c53d
000001f0: 6923 eb3c d742 5a3c 0d10 69bd e95f 813c
00000200: 9bed 83be 7034 b4be 39c1 a3bd 56c9 8ebd
00000210: cc44 ee3d d024 d4bd b26e c1be 8740 16be
00000220: 4dbe d23c b856 083e 970c 1bbe 212d 88be
00000230: 7905 143d 5327 a4bd 02ea 04be d017 a0be
00000240: 0d29 ecbd 4e1d 863d 5805 0bbe 2ffa 26bd
00000250: b20a 8ebc 72d1 283e a084 e1bd 0e8c 0abd
00000260: 2630 19bd 431d 8b3c 4791 983d 1b4c 81be
00000270: 94db 6bbd 0118 963d c0ae 5c3e 47db b1bd
00000280: 24de 49be a903 21be 10d8 dd3d 7c50 c03e
00000290: d3be 1abc ab0e 2fbd 9c6a 2fbe c2c8 31be
000002a0: da73 e13b ea67 873d 27f7 433e 6ce0 4e3d
000002b0: 25fb b2bd 7d10 88bd 3204 1e3d eb5f 283d
000002c0: c73c 5e3c 74b5 8f3c 8b8e bf3b 4060 0cbd
000002d0: fbbd e33b 391e 16bd 3d8d 73bd d8ad acbd
000002e0: 5aeb c9bc 0d24 0a3c e3b1 ce3b e1c5 c6bc
000002f0: e076 e83c 7948 86bd 627d 853c 153e 87bd
00000300: 9911 0b3d d7d7 c1bc 09e4 31bc 27c3 073d
00000310: 39ca d93c 50cc 3a3d 627b 6b3c 617a ffbc
00000320: f4c4 01bd 14ae 2f3d 607a febc 8a1b 7f3d
00000330: a246 503b d2ef b53b b80d c23b 518a 863a
00000340: 3c48 b5ba 414f 603c 908f 2bbc bb21 523c
00000350: 4c33 683d 8650 a13c f47f 28bd 7452 11bd
00000360: 6b73 303d 8503 033d 0164 af3c 60c5 dbbc
00000370: 21ed 0ebd 82f8 6e3d 118f 07bd 0055 59bc
00000380: d20a 9e3c 6f75 263d 39a1 91bc 5f7a 3fbd
00000390: dbf5 60bc a992 e8b8 6747 cabb 34f7 21bd
000003a0: 8e1e a43c 93e4 35bd 5279 b0bc 0844 113d
000003b0: 7bcc 773d 31eb 07bd b09f 44bd 490c 8cbd
000003c0: 8a79 11bd cd6a c2bb 8d71 2a3c 93aa 81bd
000003d0: 9856 363a 34ab 7f3c 3676 5fbc 76c2 983c
000003e0: db37 c43c 3279 f3bc 7f8d 233c c5b6 9d3c
000003f0: ca78 cd3c 3991 59bd b66e 243d b97a e63b
-0.111677736 -0.06479162 -0.031899486 -0.06409447 -0.047851678 -0.020017998 -0.15220492 -0.003589699
0.03554907 0.12691882 0.12433898 -0.10592038 -0.0148034785 0.019820103 0.29149282 0.13171822
-0.03184293 -0.08533714 -0.015237536 0.037296303 -0.068997584 -0.071159124 -0.159184 -0.006935193
-0.09493595 0.01112354 0.013419465 -0.037626136 -0.032201197 -0.0031763595 0.03570516 -0.0014883267
-0.040642343 -0.061970707 0.011636865 0.06177651 -0.014265578 -0.11987685 -0.05234422 0.06217125
0.016060079 0.020236183 -0.08897486 -0.060282204 0.022901388 -0.017706148 -0.020786108 -0.03211251
-0.04135158 -0.03075855 -0.09847446 -0.16857797 0.028297016 0.08904752 -0.0551458 -0.11004079
0.060936254 0.16593699 0.21727376 0.12953651 -0.16024566 -0.2145327 -0.15251003 -0.055983033
-0.046804704 -0.02278182 -0.048416216 -0.17737015 -0.12571563 -0.13260409 -0.16396025 0.2142807
0.18844458 -0.057538897 0.007734156 0.04307598 -0.014904648 -0.045333017 -0.035275 -0.051869977
-0.013675282 -0.07574646 -0.04026201 -0.03316876 -0.06251869 -0.060946345 0.00984982 0.05921046
0.051621195 -0.026429819 -0.0037754101 0.05081904 0.066970035 -0.049010847 -0.0518955 0.013021462
0.062322874 -0.028538736 -0.019038085 0.029552847 -0.10625903 -0.14157741 -0.23308714 -0.15971743
-0.057156555 0.042114887 -0.081571005 0.05062609 -0.06158884 -0.12540615 0.37559754 0.031161392
-0.17509963 -0.38319972 0.11559601 0.0824739 -0.023192067 -0.17648506 0.037989616 0.25444075
-0.08300265 -0.11369079 0.031949967 0.09639477 0.028703408 0.0133216 -0.056900073 0.015792804
-0.25767216 -0.35196257 -0.07995839 -0.069719955 0.11634216 -0.10358584 -0.37779766 -0.14673053
0.025725508 0.1331433 -0.15141521 -0.2659693 0.03613803 -0.08015313 -0.12979892 -0.31268167
-0.11531267 0.06548558 -0.13576257 -0.040765937 -0.017339084 0.16486147 -0.11011624 -0.033824973
-0.037399434 0.016981727 0.074495845 -0.25253376 -0.057582453 0.07328797 0.21551037 -0.08684402
-0.19713646 -0.15724052 0.10832226 0.37561405 -0.00944491 -0.042738598 -0.17130512 -0.1736174
0.0068802657 0.06611617 0.1913725 0.050506994 -0.08739308 -0.0664377 0.03857822 0.0411071
0.013564295 0.017542578 0.00584585 -0.03427148 0.0069501377 -0.036649916 -0.059460867 -0.084315956
-0.024648357 0.008431447 0.006307827 -0.024264278 0.028376997 -0.06556792 0.016295139 -0.06603638
0.03395233 -0.02366249 -0.0108575905 0.033145096 0.026585685 0.045605004 0.0143726785 -0.031186284
-0.03168197 0.042890623 -0.031064212 0.062282123 0.0031780382 0.0055522704 0.0059220456 0.001026461
-0.0013830732 0.013690771 -0.01047124 0.012825425 0.056689546 0.019691717 -0.04113765 -0.035479024
0.04307882 0.03198578 0.02140999 -0.026827514 -0.034894112 0.058342464 -0.033095423 -0.0132648945
0.019292269 0.040639337 -0.017777072 -0.04674756 -0.0137304915 -0.0001108994 -0.0061730626 -0.039542392
0.0200341 -0.04440744 -0.021542225 0.03546527 0.060497742 -0.03318328 -0.048003852 -0.06838281
-0.0355163 -0.005933142 0.010403049 -0.063313626 0.00069556525 0.015604783 -0.0136390235 0.018647414
0.023952415 -0.029720876 0.009982466 0.01925219 0.02508201 -0.05311701 0.040144645 0.0070336726

features.6.bias f4 [120]
00000000: 43d3 593b bf8a ac3d 4d66 0dbc ec8c 8a3b
00000010: 9a3e 613b 4fb0 35bd ebd0 663d b637 8b3d
00000020: 7207 42be 00e9 23bc 79d8 dfbc cdcf 5dbd
00000030: 21ae 3bbd 2e0d 9ebd 8e1b 5cbd fbd0 20be
00000040: 288c a43c 5022 c8bd 4190 a2bc 83a6 33bd
00000050: 39c8 12bd 9998 b83d 31b3 0bbd fa2a 4f39
00000060: 8562 ff3c 70c8 febd e053 43bd cd3f b93c
00000070: a774 1fbd c90d ae3a 757a 24bd ad98 f6bc
00000080: cf8c febd c3f0 b53c 9a6e 21bd e548 84bd
00000090: 6a78 8abd ba5a ce3d 59af 2b3d a626 17bd
000000a0: 3c32 b83c 8223 64bc e05c 85bd b189 c5bc
000000b0: 6e9e e1bd 547c 5dbc 3ce5 543a d346 81bd
000000c0: ee1b 253d e46f 80bd 3dc5 803b 46ea dbbc
000000d0: 78ce ad3b 3540 cdbd 2807 363e 57fc 65bd
000000e0: b797 313c 43b4 f4bc 5557 a8bd 555f 16bc
000000f0: ada1 943c 9e8d 04be 28b7 6cbd 4de3 99bd
00000100: 0725 ed3d c0ee 793b 250e 4e3d 6637 ab3c
00000110: 22e3 2b3c 4945 84bd 05f4 173d 442b 60bd
00000120: 680b aa3d b477 2b3d 7387 2a3d 9c5f b23b
00000130: 9624 6fbd e01e db3c a685 56bd d4c1 33bd
00000140: 7749 5ebb 3441 ab3c 8e2a a3bc 6b61 823c
00000150: f8d8 3d3d f614 f3bb 17ae 8c3c 1930 d4ba
00000160: 9ecc 953b e0a0 f6bd 5acc b9bd d07b 3bbd
00000170: 9e11 a6bd a54d 993c a03a 84bd c6d4 21bd
00000180: c01f 5dbd 5205 f83b 5e8a a4bd fd85 66bd
00000190: 8844 693d d605 813d b51c 463c eb95 48bd
000001a0: bdd9 7cbc 106f 95bd b3cc ee3c 81d9 293d
000001b0: 09fc d8bd 64f1 32bd b413 ef3b d7fc 6cbd
000001c0: 3dff 3e3d 33d1 59bc 2e07 5dbd 1b54 c6bc
000001d0: 7cb4 943c 61b1 68bc f495 5e3d 695b da3c
0.0033237494 0.08424901 -0.008630347 0.004228225 0.0034369589 -0.044357594 0.056351583 0.067977354
-0.18948153 -0.010004282 -0.027324902 -0.054153252 -0.04582036 -0.077173576 -0.053737216 -0.1570472
0.020086363 -0.097721696 -0.019844176 -0.04385997 -0.03583548 0.09013481 -0.034106437 0.00019757068
0.031174907 -0.12440574 -0.04768741 0.02261343 -0.038929608 0.0013279255 -0.040155847 -0.030102098
-0.12429201 0.02220953 -0.03941212 -0.06459216 -0.067612484 0.100758985 0.04191527 -0.036902092
0.022484891 -0.013924481 -0.06511855 -0.024113508 -0.11016546 -0.013518412 0.0008121317 -0.06312337
0.04030984 -0.062713414 0.0039297626 -0.026845109 0.005304154 -0.10022012 0.17776167 -0.056148853
0.010839394 -0.029871112 -0.08219782 -0.009178002 0.0181435 -0.12944648 -0.05779186 -0.07514057
0.11579328 0.003813669 0.050306458 0.02090044 0.010491164 -0.064585276 0.03709795 -0.05472876
0.08302957 0.041862205 0.04163308 0.0054435264 -0.0583845 0.02674812 -0.05237355 -0.04388602
-0.00339183 0.020905115 -0.019917753 0.015915593 0.046349496 -0.00741827 0.017172856 -0.0016188651
0.0045715114 -0.12042403 -0.0907218 -0.045772374 -0.08108829 0.018713782 -0.06456494 -0.039509557
-0.053985357 0.0075689936 -0.08034204 -0.056280125 0.056950122 0.06299941 0.012091805 -0.048971098
-0.015432772 -0.07296574 0.029150343 0.041467194 -0.10594947 -0.04368724 0.00729605 -0.057858314
0.046630133 -0.013294506 -0.053961925 -0.024210026 0.018152468 -0.014202447 0.054342225 0.026654916

classifier.0.weight f4 [84, 120]
00000000: 469e 3bbd 7818 9dbd a5e4 e83c 2398 68bc
00000010: c518 a4bd 5940 043c 40d4 93bd 7394 fcbc
00000020: b728 29bd 2009 913d 0978 383d 6672 57bd
00000030: d23f 5b3d f693 9ebd 15db 103c 4ed5 6dbd
00000040: 6d68 493d 4e63 85bd 9679 0abd bd7c be3c
00000050: 7337 b9bd 78f0 413d 44ae fcbb 6904 5bbd
00000060: 2289 b9bc 1c84 7dbc 4119 b13c 05c2 093d
00000070: 9045 9fbd 21e2 733d 9247 12bd ed2d 2c3d
00000080: fcfe 32bc cb6d 903c e8ea 6bbd aba1 6abb
00000090: f467 fcbb 0b78 2cbd 0f21 71bd ff3f 4f3b
000000a0: c76d b9bd 9139 a6bd 7d8c 1ebd 9c5e c73a
000000b0: bfb2 87bd 6270 5fbd 8a54 a93c a533 2ebc
000000c0: 10a5 89bc 9033 52bd 103e a13d dd1a acbc
000000d0: fd62 8cbd f2ea 443d ea50 d0b8 b333 17bc
000000e0: d2d9 b8bd 1c67 6fbd 08dc 933d aac1 f5bc
000000f0: 116a 8bbd ff4a 263e 1bc9 92bd 2d76 263d
00000100: 3c5e 62bd 8dc1 583d 1258 3fbd 4a9f b23d
00000110: 3c82 023d 1cd0 fbbb 22dc a63d 5d63 96bd
00000120: 022f 673c a216 d73c 181d 92bd 052b a3bd
00000130: 2d76 40bd 6534 52bd 5248 2dbc 19f8 37bd
00000140: 85d6 a43d 2945 65bd d768 d93d cd00 a53c
00000150: 8cb1 1abc f35f 783c 80f5 99bd 7623 76bd
00000160: 5713 0a3d 6a2e 8d3d ed47 323a fa3e 2abc
00000170: 5b34 3f3d 64c8 acbd 5304 70bd c95f 46bd
00000180: 52f3 35bd ecea 903d fc2b 333d a14a 86bd
00000190: e783 8bbd c9ba 483d 4c73 45bd b266 8ebb
000001a0: 81fe 013d 323d 043c f496 9c3d 51f1 713d
000001b0: 3558 4d3b abd8 83bd 5648 5cbd 3657 d7ba
000001c0: 4ecb 89bd bda3 43bd eda6 873c df11 17bd
000001d0: e4e3 743c f1bc 023d 0368 393d 6a67 91bd
000001e0: 5e84 c53d 54f9 d03d 5596 013c 4943 3b3d
000001f0: d66f b4bc 8c56 9d3d 4c31 86bc 9506 413b
00000200: 9d0a e23d db98 55bd d14b b8bd b805 5a3d
00000210: cff8 98bc 2ce3 90bd f325 a8bc 4ac8 1cbe
00000220: 985c 563d 8df9 26bd 313b 2abb d629 da3d
00000230: beee 853d 1fd2 b53d 9d7c b9bd c379 ac3c
00000240: 4c39 0e3e 0227 203d d8ad 593d 3fda 913d
00000250: 157e e93d 10a9 353d 0ad5 37bd 45c9 21be
00000260: 099d 42bc de20 bc3d 195c 323d dca7 ef3d
00000270: cee4 34be cc4f 27bc a114 c4bd af8c a03d
00000280: 16d3 9e3d 24d3 593d 7955 5e3d af0e 66bd
00000290: 29e9 b4bd 10b8 293c 36b0 20bd c9c9 dabc
000002a0: 2428 e33d 08b1 08bd fcd8 cc3d f0d2 203d
000002b0: 9a3f 70bd 1ecc 02bd 12fb ccbd 0c4c 983d
000002c0: 5935 f0bb 54c8 cc3d 5a09 f8bc 5a85 1e3e
000002d0: 4a8c a73d 5255 283d faea a8bd 8df0 c0bd
000002e0: 049e dbbb 791c 83bc b63e 46be 3849 42bc
000002f0: b80b f1bb 51a4 aebd ebf4 993c 34d0 3e3d
00000300: ea68 6f3d 162a 80bd 40e1 453d 6b01 053d
00000310: 957c 293d f934 ee3d 1063 1c3d 15e6 f4bc
00000320: ed04 153e 053a 55bd c66a afbd bde4 a4bb
00000330: 9b2b 0ebe 5372 703d 2040 5b3d 0e8d c03d
00000340: bb2d 723d 22b6 30bd 265e 143c 6c58 0abd
00000350: ff06 94bd e9ce 313d 4415 153d cf7b bd3c
00000360: 4fe9 81bc bae3 91ba 14e9 7abd 9dc0 033d
00000370: 57cd 50bd 9f9f b83d 4d28 acbd 8595 c33c
00000380: 36c9 ad3b 3910 e5bd 941b 18be c37c 9c3d
00000390: f055 453d a14f 813d 62eb 2e3d a627 463d
000003a0: 449a 3abd c182 0c3d 051b 033d 7c0b 063d
000003b0: d6bc bf3d 8de4 d73d 1464 c83b 3842 113d
000003c0: 5777 e93d 825f f13d 7650 d9bc fa06 f13a
000003d0: 2eb3 26be 753f 76bd 94d0 93bd 50a9 0d3e
000003e0: 56b3 a13d 546e 723d 1b1b 90bd e0df 1e3d
000003f0: cb3f 4cbe 3fdd 33be 003e 973d d900 d1bc
-0.04580524 -0.07670683 0.028429339 -0.0141964285 -0.08012537 0.008071982 -0.07218218 -0.030832505
-0.041298594 0.070818186 0.04503635 -0.052599333 0.05352766 -0.07743065 0.008841296 -0.05806475
0.049171854 -0.065130815 -0.03380736 0.02325284 -0.09043779 0.04734847 -0.007711204 -0.053471003
-0.022648398 -0.015473392 0.021618487 0.033632297 -0.0777694 0.059541825 -0.035712786 0.042035986
-0.010925051 0.017630478 -0.05759707 -0.0035801928 -0.007702822 -0.04210667 -0.058869418 0.0031623838
-0.090541415 -0.08116449 -0.0387082 0.0015210691 -0.0662589 -0.054550536 0.020670194 -0.01063243
-0.01680234 -0.051318705 0.078731656 -0.021008903 -0.06854818 0.048075624 -9.933284e-05 -0.009228635
-0.09025921 -0.058447942 0.07219702 -0.029999573 -0.0680734 0.16239546 -0.07167264 0.040640045
-0.05526565 0.05291896 -0.04671485 0.08721788 0.031862482 -0.0076847207 0.08147456 -0.07343171
0.014110329 0.02625591 -0.071344554 -0.0796719 -0.0469877 -0.0513195 -0.010576325 -0.04491434
0.08048729 -0.05597416 0.106157 0.020141983 -0.009441745 0.015159595 -0.075175285 -0.060092412
0.03370985 0.068936184 0.0006800879 -0.010390991 0.04668079 -0.08436659 -0.058597874 -0.04843119
-0.0444215 0.07076058 0.04374312 -0.06557203 -0.06812268 0.049006257 -0.04820566 -0.0043457383
0.031736854 0.008071231 0.076459795 0.059068028 0.0031333093 -0.064378105 -0.053779922 -0.0016429189
-0.067282304 -0.047763575 0.016559089 -0.036882278 0.0149469115 0.03191847 0.04526521 -0.07099803
0.09644388 0.102038056 0.007909377 0.045718465 -0.022025984 0.07682523 -0.016380928 0.0029453386
0.110371806 -0.052147727 -0.08998836 0.05322811 -0.018673329 -0.070745796 -0.020525908 -0.15310779
0.052334398 -0.040765334 -0.0025975222 0.10652511 0.06539677 0.08877968 -0.09056971 0.021054154
0.13889045 0.0390997 0.053144306 0.07121705 0.11401001 0.044350684 -0.044880904 -0.15799434
-0.01187826 0.091859564 0.043544862 0.117019385 -0.17665407 -0.010211896 -0.09574247 0.07839333
0.07755105 0.053179875 0.05428073 -0.056166347 -0.08833534 0.010358825 -0.039230548 -0.026707547
0.110916406 -0.033371955 0.10002324 0.039263666 -0.058654405 -0.031932943 -0.10008825 0.0743638
-0.0073305783 0.09999147 -0.030277897 0.15480557 0.08181055 0.041096993 -0.08247943 -0.094208814
-0.0067021865 -0.016004788 -0.1935986 -0.011858277 -0.0073561333 -0.085274346 0.018793544 0.046585277
0.058449663 -0.06258027 0.04831052 0.032472055 0.041378576 0.116311975 0.03818041 -0.029894868
0.1455266 -0.052057285 -0.08565287 -0.0050321505 -0.13883822 0.058702778 0.05352795 0.09401904
0.059125643 -0.043142445 0.00905565 -0.033775732 -0.07227897 0.043410216 0.036397234 0.023130326
-0.01585832 -0.001113049 -0.061257437 0.032166112 -0.050977077 0.0901482 -0.08406124 0.023875007
0.005303527 -0.11184735 -0.1485427 0.07640984 0.04817766 0.06314016 0.042704947 0.048377655
-0.045557275 0.034304384 0.03200819 0.032725796 0.093621895 0.105416395 0.006115446 0.03546354
0.113997154 0.11785795 -0.026527625 0.001838892 -0.16279289 -0.06011911 -0.072175175 0.13834119
0.07895534 0.05918725 -0.0703642 0.038787723 -0.1994621 -0.17564867 0.073848724 -0.0255131

classifier.0.bias f4 [84]
00000000: 57fc 463c 21bf 68bd 0043 373e d0f9 793c
00000010: 393e a9bd 7804 55bc cd78 193e 57db b73e
00000020: f4d6 0abd 5540 8cba f508 9e3e de79 c83e
00000030: 9dc2 173d d588 56bd 8781 b0bc 533e 10be
00000040: b3bd 48be bac0 abbd b624 22be 9ec8 873e
00000050: 5791 9abb 2387 883d 934a a8be fbf6 e3bc
00000060: 1f40 d33e b5ce 7b3d bb4c 203d 7981 47bd
00000070: 0ed4 273d d68e 4ebd 59aa cf3d 50ca 75bd
00000080: 1b8b 2e3c 23ea 26bd a612 97be c019 f53c
00000090: 0212 4ebd c57c cdbd c973 c23c f7aa 17be
000000a0: 0629 8ebd d985 8bbe 7134 02bc 8497 2b3e
000000b0: 83b7 be3c c941 a73d 83d8 1bbe 9d92 6e3c
000000c0: 8221 8bbd 805c fbbc 02f9 c3bc 41f1 afbd
000000d0: 06e3 403d 15a0 14be 0c1d f0bd 0514 dcbc
000000e0: bd98 913d e667 33bd acd5 b6bc 6d17 eebc
000000f0: 90da 3b3e 7e9e 913e cba0 093e 5871 90be
00000100: 02a3 713e 880e ccbd b46b 4b3c 9d93 1c3e
00000110: 7767 343c ed41 303e c4b4 b7bd e77b 943d
00000120: cfc7 9dbd b5cb 263e cfeb 1abd 87f3 14bd
00000130: d9d7 9dbd fd19 653e dec7 97bd 2070 a53d
00000140: 9686 5d3e 9671 33bd ed35 febd bc93 033e
0.012145123 -0.0568229 0.17896652 0.015257314 -0.08263821 -0.013001554 0.14987488 0.3590953
-0.0338964 -0.0010700325 0.3086621 0.39155477 0.037050832 -0.052376587 -0.021546138 -0.14086275
-0.19603615 -0.08386369 -0.15834317 0.26520246 -0.004717033 0.066664 -0.32869396 -0.02782773
0.41259858 0.061476428 0.039135676 -0.04870746 0.040973715 -0.050429188 0.10139913 -0.060007393
0.0106532825 -0.040750634 -0.29506415 0.029919505 -0.050310142 -0.100335635 0.023736851 -0.14811312
-0.06941418 -0.27250555 -0.007947073 0.16757017 0.023280865 0.081668444 -0.15219311 0.0145613225
-0.067935005 -0.030683756 -0.023922447 -0.085909374 0.047091506 -0.14514191 -0.1172429 -0.026865015
0.07109211 -0.043800257 -0.022318684 -0.029063905 0.18345094 0.28441232 0.13440244 -0.28211474
0.23597339 -0.09963709 0.012415815 0.15290685 0.011010996 0.17212649 -0.08970025 0.07250195
-0.07704126 0.16288646 -0.03782254 -0.03636506 -0.07707185 0.22373195 -0.074111685 0.08078027
0.21633372 -0.043809496 -0.12412629 0.12849325

classifier.2.weight f4 [10, 84]
00000000: 5407 ecbd c0f4 78bd 5e9e 953e ec53 13be
00000010: 9219 503e f760 abbd 5c4f 903d 7c70 adb9
00000020: 8a5f b1bd 1dad 04be 3594 4fbe 36bf 8bbc
00000030: c64e 6eba 42cc 143d e471 60bd b303 c63d
00000040: 78a7 82be f259 febd 83c1 87be f466 873e
00000050: 0243 eabd 05d4 96be 7888 133e adb0 403d
00000060: a803 1c3c 69e0 99be 7f9f af3d aad5 9ebd
00000070: c256 c73e b30e c4bd cfc8 923d 94b7 b13e
00000080: 1d92 20be d4cf d9bd 27d0 63bd 0870 9abd
00000090: 3adc 48be e822 2abe 9982 27be da3f 69bc
000000a0: 424b f9bd f3fc 9f3e 72fc cbbe 9757 803c
000000b0: c0ec 0ebe d5d0 5fbe 1d80 a53d 1578 f83e
000000c0: 5f7d c43d ae05 3d3e af6f 0bbf 8d57 29be
000000d0: 8d57 d7be 443f e13b 64df 48be 9dcd a2bd
000000e0: 3c81 9c3c 2b09 ac3d d8a1 db3d 412e a63c
000000f0: 331e 853e 004f c8bd 6d32 3dbf f7fd e13e
00000100: 1d81 67bd dc17 753d 99ea 543d 186f 0cbe
00000110: d661 213d 7711 8d3c ba8d 33bd 9cd8 76bd
00000120: fbef 263d 48e2 b0be 1671 f1bd 84dc 2b3e
00000130: 007d 95be a6a4 1dbe e51e 37be 630d 81be
00000140: bb69 9dbe ef85 a2bc 4a3c c8be 2e61 8a3d
00000150: 986e dabd 554b 873c 1b84 92be 4f0e 06be
00000160: 4930 933e ca92 753e 69e7 8a3e bc9a 813e
00000170: 6b7d af3d 1358 923c c1e5 28be 2eff 793d
00000180: c846 083f 1a11 da3c a259 cfbd e1a1 02bf
00000190: 722e 453e a425 2c3e 81fb fd3c 5f7f b4be
000001a0: 66ac 82bd 6dca 533e 8a3d ad3e d72b 2c3c
000001b0: adba 69bd b425 79be d23c 9c3d af76 e23e
000001c0: e033 78be 0808 a03e 91f7 0fbe b68e 65be
000001d0: e9a0 dd3e 65bb 3ebd b1b0 8a3e 5c67 403e
000001e0: 9c7f 703d 0bd3 e03e ea00 1e3d 2918 133e
000001f0: 28be c23d 6e4d 93be 18c7 4f3e 037f d5bd
00000200: ad76 80be 7d5f 0b3f 513b 16be 8c45 99be
00000210: bc6a 033e 1173 333e 9690 963e 2040 133e
00000220: 3fc9 0d3d c89c a53d 7d70 debd bad9 113d
00000230: ec0e ed3d 6723 94bc 6770 59be b381 6c3d
00000240: 0f83 58be c7a2 073f 2ec5 8ebe 957a 0ebf
00000250: d042 cbbd 42c6 693d 7959 ae3e c0e6 fd3e
00000260: 60d6 da3e ae38 993e ae1e 03bd 78e2 ae3e
00000270: 60f9 193e d9c4 833e 2e1f 2abd 5cf2 423e
00000280: 0d8e 3ebe 595d 85be 57fd 183e 7730 873d
00000290: c72d 4dbe 3e32 253e e8af 4a3e c2bd 0fbf
000002a0: d635 fbbc 92ab cfbd 6ec8 ee3d ce5f b93c
000002b0: ad71 debe 6816 1ebf 2596 863e 6378 a03e
000002c0: 23eb 063d 74fc 5e3e a22d cf3e dc6a a83d
000002d0: 8d23 343e d8ea 333e 2f0f a93d bdd9 a4be
000002e0: 48f8 d1bf 57b0 353e 1413 8abe 345c 2dbe
000002f0: 5b7f 1d3e 3667 c0be 4093 dabf 5f74 483e
00000300: df20 633e d68d 2a3e 8859 333e 92a9 d8bf
00000310: b98c cd3c ba8a 8cbf 6f7e e13d c0d8 de3c
00000320: 79e7 1ebf 664d a4bc a514 34be 8234 223d
00000330: febf adbd 40fb 18bf b6ac d1bc f059 35bf
00000340: 5077 293e e44f 23bf 31b9 673e 7116 8fbe
00000350: be75 83be a1e4 a93d 41d4 9dbe c11b cf3d
00000360: 5fb5 023e 2dac 183d 2c5d f7be d006 13bf
00000370: 44ab d43d 013b 0a3e 3a16 6b3e 35eb 9d3d
00000380: 2eb0 273d 0b81 aa3d fc6d cfbd 5f06 34bd
00000390: 66b0 fa3d f55b 073f 4f07 1b3e 7ab0 0dbf
000003a0: 219f abbc 6c9c a9bc 947a 63be 4fcf 3dbe
000003b0: f7df dfbe a6a4 c3be b3f0 a93d 2bf9 d2be
000003c0: a1ca 9ebe fc36 71be f78f debd 254c 2abe
000003d0: 7c5d c1bd 852e f23d e81b cfbe 46d2 debe
000003e0: c58e 56bd d92d be3e 6bfe 30bf 9250 aebe
000003f0: 8cca 853d cde8 b3bd 2e4c 923d ddb9 853e
-0.11524835 -0.060780287 0.29222387 -0.14387482 0.20322254 -0.08368104 0.070463866 -0.0003308094
-0.08660801 -0.12956662 -0.2027138 -0.01705895 -0.00090907176 0.036327608 -0.054796115 0.09668674
-0.25518394 -0.124194995 -0.26514825 0.26445735 -0.11438562 -0.29458633 0.14407527 0.04704349
0.009522356 -0.30054024 0.08575343 -0.07755597 0.38933378 -0.09573116 0.071672074 0.34710371
-0.15680738 -0.10635343 -0.05561843 -0.075408995 -0.1961526 -0.16614878 -0.16358413 -0.014236415
-0.121725574 0.31247672 -0.39841038 0.015666766 -0.139575 -0.21857007 0.08081076 0.48529115
0.09594225 0.18459198 -0.5446729 -0.16537304 -0.42058983 0.006873997 -0.19616467 -0.07949374
0.019104593 0.08400186 0.107242286 0.020285727 0.25999603 -0.09780693 -0.7390507 0.44139072
-0.056519616 0.059837207 0.051981542 -0.13714254 0.039399944 0.017220242 -0.043836333 -0.06026517
0.040756207 -0.3454764 -0.117891476 0.16783339 -0.2919693 -0.1539484 -0.17882879 -0.25205526
-0.30744728 -0.019839255 -0.39108497 0.06756817 -0.10665625 0.016515413 -0.28616413 -0.13091396
0.28747776 0.23981777 0.27129677 0.25313365 0.085688435 0.017864263 -0.16493894 0.061034374
0.53233004 0.026619483 -0.10124518 -0.5102826 0.19255999 0.16811234 0.031003715 -0.35253426
-0.06380539 0.20682688 0.33836013 0.010508499 -0.057062794 -0.24330789 0.07628788 0.44231173
-0.24238539 0.31256127 -0.14059283 -0.22417721 0.43286827 -0.046565432 0.2708793 0.18789428
0.058715448 0.43911013 0.03857509 0.14364685 0.09508926 -0.28770012 0.20290792 -0.10424616
-0.25090542 0.5444258 -0.14671065 -0.29935873 0.12833685 0.17524363 0.29407185 0.1437993
0.03461575 0.08086544 -0.10861299 0.03560803 0.11575112 -0.018083287 -0.21234284 0.05774088
-0.21143745 0.52982754 -0.2788481 -0.55655795 -0.09924853 0.05707384 0.34052637 0.4959011
0.4274168 0.29926056 -0.03201168 0.34157157 0.15036535 0.2573612 -0.04153364 0.19037765
-0.18608876 -0.2604778 0.14940391 0.06601041 -0.20036994 0.16132447 0.19793665 -0.5614892
-0.03066532 -0.10140146 0.11659323 0.022628691 -0.43446103 -0.6175294 0.26286426 0.31341848
0.032939088 0.2177599 0.40464503 0.08223507 0.17591687 0.17570055 0.08254849 -0.3219737
-1.6403894 0.1774305 -0.2696768 -0.16929704 0.15380614 -0.37578744 -1.7076187 0.19575642
0.22180508 0.16655669 0.17514622 -1.6926749 0.025091516 -1.0979836 0.110104434 0.027202964
-0.6207195 -0.020056438 -0.17586 0.039600857 -0.08483885 -0.5975838 -0.02559505 -0.7084036
0.1654942 -0.6379378 0.22629239 -0.2794681 -0.25675768 0.08295561 -0.30826 0.101127155
0.127645 0.037273575 -0.48313272 -0.5743227 0.10384229 0.1349907 0.22957698 0.07710878
0.040939502 0.08325394 -0.101284 -0.04395139 0.122406766 0.5287469 0.15139507 -0.55347407
-0.020949902 -0.02070447 -0.22214729 -0.18536113 -0.4372556 -0.38211554 0.08297863 -0.41205725
-0.3101397 -0.23556131 -0.10867303 -0.1663061 -0.09441659 0.11825279 -0.40450978 -0.435198
-0.05238225 0.37144354 -0.6913821 -0.34045845 0.065327734 -0.087846376 0.07143436 0.26118365

classifier.2.bias f4 [10]
00000000: 3d88 c4be 5d76 76be 3487 8a3e f67f c43e
00000010: 5cf9 fabe 516e a1be 6268 0dbf 5869 bf3c
00000020: 35a5 973f 4706 023e
-0.38385192 -0.2406859 0.27056277 0.38378876 -0.4901837 -0.31529477 -0.552374 0.023365662
1.1847292 0.12697707
