results/static_quantized_model.pth (torch, 76562 bytes, 10 tensors)

cpu f8 [6]
000000 00 00 00 20 0f 71 80 3f 00 00 00 00 6e 33 81 3f
       0.008028143085539341 0.008398875594139099
000010 00 00 00 40 9e 19 78 3f 00 00 00 a0 69 53 80 3f
       0.005883806385099888 0.007971596904098988
000020 00 00 00 a0 02 8f 80 3f 00 00 00 e0 0c 2c 7e 3f
       0.008085270412266254 0.007366228383034468

features.0.bias f4 [6]
000000 94 73 cc bf da dc e3 bf 01 08 ab bf 82 72 c0 bf
       -1.5972772 -1.7801774 -1.3361818 -1.5034945
000010 05 ad f2 bf a4 15 03 c0
       -1.8959051 -2.0481958

cpu f8 [16]
000000 00 00 00 c0 c6 9c 7d 3f 00 00 00 60 00 10 64 3f
       0.007229591719806194 0.002449036343023181
000010 00 00 00 a0 60 f8 7f 3f 00 00 00 e0 45 82 69 3f
       0.007805230561643839 0.0031138767953962088
000020 00 00 00 40 84 56 85 3f 00 00 00 40 91 0c 89 3f
       0.010418923571705818 0.012231001630425453
000030 00 00 00 a0 76 82 90 3f 00 00 00 40 62 5b 79 3f
       0.01612267829477787 0.006190665997564793
000040 00 00 00 20 04 09 61 3f 00 00 00 60 34 8b 6e 3f
       0.0020794945303350687 0.0037284872960299253
000050 00 00 00 20 ef 88 64 3f 00 00 00 20 c3 a8 62 3f
       0.002506701508536935 0.0022777377162128687
000060 00 00 00 80 44 91 87 3f 00 00 00 00 dc 06 72 3f
       0.011507544666528702 0.004401072859764099
000070 00 00 00 e0 c3 2c 6f 3f 00 00 00 e0 d4 ac 71 3f
       0.003805525368079543 0.00431521562859416

features.3.bias f4 [16]
000000 f5 5a e7 be f7 7d 16 be 46 f6 1c bf 1c 0f 20 be
       -0.45186582 -0.1469649 -0.61313283 -0.15630764
000010 af ef b0 3c bc 75 67 bb 2a 14 06 bf 6b 71 3f be
       0.021598665 -0.0035317978 -0.5237452 -0.1869561
000020 68 9b 7b 3e 96 48 fd bc 7e e8 99 bd 1b 27 37 bd
       0.24571002 -0.0309184 -0.075150475 -0.04471503
000030 43 fe 62 3e ec cf 3b be 7d 23 6e be fd 3d 0a 3f
       0.22167306 -0.18341035 -0.23255725 0.54000837

cpu f8 [120]
000000 00 00 00 a0 fa 75 74 3f 00 00 00 20 90 92 74 3f
       0.004995326045900583 0.005022585857659578
000010 00 00 00 20 60 4b 41 3f 00 00 00 e0 3e d2 63 3f
       0.000527784286532551 0.002419588854536414
000020 00 00 00 a0 45 57 70 3f 00 00 00 40 3b 12 54 3f
       0.003989479038864374 0.001225049840286374
000030 00 00 00 a0 9f 38 78 3f 00 00 00 e0 1c 4d 7f 3f
       0.005913375411182642 0.007641899865120649
000040 00 00 00 e0 d5 a5 81 3f 00 00 00 20 db 2c 49 3f
       0.00861708726733923 0.0007682866998948157
000050 00 00 00 80 98 06 72 3f 00 00 00 80 16 2f 45 3f
       0.004400821402668953 0.0006464824546128511
000060 00 00 00 a0 76 d0 77 3f 00 00 00 60 02 ee 73 3f
       0.005814040545374155 0.004865655209869146
000070 00 00 00 40 1b 89 54 3f 00 00 00 00 f6 65 75 3f
       0.0012533918488770723 0.005224190652370453
000080 00 00 00 a0 a6 8e 43 3f 00 00 00 c0 d5 bc 77 3f
       0.0005968392943032086 0.005795321427285671
000090 00 00 00 c0 96 60 6f 3f 00 00 00 a0 fe 12 59 3f
       0.0038302368484437466 0.0015304075786843896
0000a0 00 00 00 40 ba 0e 44 3f 00 00 00 a0 7c 52 67 3f
       0.000612107221968472 0.002846949966624379
0000b0 00 00 00 20 b9 53 6a 3f 00 00 00 40 aa 74 4c 3f
       0.0032137504313141108 0.0008683997439220548
0000c0 00 00 00 a0 64 44 65 3f 00 00 00 60 1a 70 73 3f
       0.002596088917925954 0.004745581652969122
0000d0 00 00 00 40 cb 80 62 3f 00 00 00 60 45 13 60 3f
       0.002258679363876581 0.0019623141270130873
0000e0 00 00 00 e0 f4 27 5a 3f 00 00 00 20 b4 06 56 3f
       0.00159644044470042 0.001344371703453362
0000f0 00 00 00 20 14 78 6a 3f 00 00 00 40 41 17 81 3f
       0.0032310860697180033 0.008345136418938637
000100 00 00 00 e0 59 b1 72 3f 00 00 00 60 92 aa 62 3f
       0.0045636664144694805 0.00227860058657825
000110 00 00 00 00 a2 a5 7b 3f 00 00 00 40 0d 17 4f 3f
       0.006749756634235382 0.0009487929055467248
000120 00 00 00 00 2b f3 80 3f 00 00 00 40 8f 1f 79 3f
       0.008276306092739105 0.006133613176643848
000130 00 00 00 00 83 85 6b 3f 00 00 00 00 ba 4d 41 3f
       0.003359561786055565 0.0005280645564198494
000140 00 00 00 e0 04 76 71 3f 00 00 00 e0 a4 55 72 3f
       0.0042629423551261425 0.00447620777413249
000150 00 00 00 c0 39 d3 60 3f 00 00 00 20 ed 6b 51 3f
       0.0020538452081382275 0.0010633292840793729
000160 00 00 00 40 17 62 6c 3f 00 00 00 e0 7b d3 66 3f
       0.003464742098003626 0.0027863902505487204
000170 00 00 00 c0 a9 85 65 3f 00 00 00 80 13 27 7b 3f
       0.0026272120885550976 0.006629062816500664
000180 00 00 00 a0 3b ea 6f 3f 00 00 00 40 f9 b9 82 3f
       0.003895870642736554 0.009143779054284096
000190 00 00 00 a0 8e 90 72 3f 00 00 00 c0 7b 9a 51 3f
       0.004532391671091318 0.0010744293686002493
0001a0 00 00 00 00 05 0c 77 3f 00 00 00 a0 58 59 57 3f
       0.005626697093248367 0.0014251103857532144
0001b0 00 00 00 e0 17 89 83 3f 00 00 00 00 e4 41 60 3f
       0.009538828395307064 0.001984544098377228
0001c0 00 00 00 40 c8 5c 69 3f 00 00 00 60 2f 7d 65 3f
       0.003095999825745821 0.0026231694500893354
0001d0 00 00 00 00 81 d1 5f 3f 00 00 00 20 18 1c 61 3f
       0.001942039467394352 0.0020885916892439127
0001e0 00 00 00 60 26 e6 6c 3f 00 00 00 e0 50 97 7e 3f
       0.0035277127753943205 0.007468524854630232
0001f0 00 00 00 c0 16 16 59 3f 00 00 00 40 a4 ef 6c 3f
       0.0015311453025788069 0.003532238770276308
000200 00 00 00 c0 6f e6 76 3f 00 00 00 a0 f0 89 6a 3f
       0.005590855143964291 0.003239603014662862
000210 00 00 00 00 fc 02 82 3f 00 00 00 00 81 06 5c 3f
       0.00879475474357605 0.0017105350270867348
000220 00 00 00 60 22 a3 6e 3f 00 00 00 60 59 1b 47 3f
       0.003739897860214114 0.0007051645661704242
000230 00 00 00 a0 2b 41 6d 3f 00 00 00 00 a5 7d 44 3f
       0.0035711147356778383 0.0006253295578062534
000240 00 00 00 00 f4 15 6e 3f 00 00 00 c0 5f d0 5d 3f
       0.003672577440738678 0.0018196997698396444
000250 00 00 00 20 bd 8b 57 3f 00 00 00 40 40 ab 78 3f
       0.0014371249126270413 0.006022692658007145
000260 00 00 00 60 03 71 6e 3f 00 00 00 60 fc 6f 6f 3f
       0.0037159982603043318 0.003837578697130084
000270 00 00 00 a0 67 31 64 3f 00 00 00 40 e5 62 65 3f
       0.002464964287355542 0.0026106336154043674
000280 00 00 00 40 78 9e 6a 3f 00 00 00 e0 53 19 7e 3f
       0.0032493923790752888 0.00734837306663394
000290 00 00 00 c0 1f d3 6c 3f 00 00 00 a0 af 32 64 3f
       0.0035186405293643475 0.00246557523496449
0002a0 00 00 00 00 5e 64 7d 3f 00 00 00 40 01 35 65 3f
       0.00717579573392868 0.002588751260191202
0002b0 00 00 00 80 4a 61 60 3f 00 00 00 c0 b1 c3 67 3f
       0.001999516971409321 0.002900931518524885
0002c0 00 00 00 00 6c f6 60 3f 00 00 00 00 f8 21 78 3f
       0.0020706281065940857 0.005891770124435425
0002d0 00 00 00 e0 0f 38 82 3f 00 00 00 c0 28 e3 58 3f
       0.008895992301404476 0.0015190027188509703
0002e0 00 00 00 e0 18 cb 68 3f 00 00 00 20 7c b3 59 3f
       0.0030265317764133215 0.0015686714323237538
0002f0 00 00 00 80 11 61 52 3f 00 00 00 40 67 0b 63 3f
       0.0011217757128179073 0.0023247734643518925
000300 00 00 00 a0 bc e1 71 3f 00 00 00 20 cd 62 60 3f
       0.004365670029073954 0.0020002371165901423
000310 00 00 00 00 1f d5 6e 3f 00 00 00 40 ea 77 68 3f
       0.003763733431696892 0.0029868674464523792
000320 00 00 00 80 32 ff 78 3f 00 00 00 00 5b 88 71 3f
       0.006102750077843666 0.00428042933344841
000330 00 00 00 a0 7b 56 7e 3f 00 00 00 80 ea a2 73 3f
       0.007406695280224085 0.004794040694832802
000340 00 00 00 00 94 c3 63 3f 00 00 00 20 b5 01 7f 3f
       0.0024125948548316956 0.007569987792521715
000350 00 00 00 60 85 9e 7b 3f 00 00 00 c0 28 8b 66 3f
       0.006742974277585745 0.0027519031427800655
000360 00 00 00 c0 41 53 62 3f 00 00 00 00 7d fe 63 3f
       0.0022369655780494213 0.0024406854063272476
000370 00 00 00 60 53 11 76 3f 00 00 00 40 ab cf 74 3f
       0.0053876168094575405 0.005080861039459705
000380 00 00 00 c0 11 d4 53 3f 00 00 00 e0 e1 30 57 3f
       0.0012102292384952307 0.0014154630480334163
000390 00 00 00 a0 de 49 68 3f 00 00 00 60 92 b5 63 3f
       0.0029649112839251757 0.0024059161078184843
0003a0 00 00 00 60 35 0e 60 3f 00 00 00 00 f2 6c 6e 3f
       0.001959900138899684 0.0037140585482120514
0003b0 00 00 00 40 5f c4 62 3f 00 00 00 40 05 6c 60 3f
       0.0022909031249582767 0.002004633191972971

features.6.bias f4 [120]
000000 ba 31 47 3d 15 6a 1d 3e 4e 8c 5c bc ec 8c 8a 3b
       0.048631407 0.15372498 -0.013461186 0.004228225
000010 fb 08 02 3e fc 4e 38 bd ca d9 4c 3c 38 46 83 3e
       0.12698738 -0.0449972 0.012503097 0.2563951
000020 a1 82 0f be 4f eb 86 3b 5e c6 7e bb fc 49 62 bd
       -0.14014675 0.0041174064 -0.003887556 -0.05524634
000030 a6 78 15 be c3 f0 0e bd 77 f2 6a bd 3a dd 83 be
       -0.14596805 -0.034897577 -0.05736014 -0.2575472
000040 f7 0e 8f 3c 03 74 4d be ed 37 88 3d 9c 90 37 bd
       0.01746319 -0.20063786 0.06651292 -0.044815645
000050 54 72 0f bd ca 7c fe 3d 03 b7 e8 bd f6 98 03 bc
       -0.03502114 0.124261454 -0.11363032 -0.008032074
000060 ef 31 cd 3c 03 27 0f be e0 53 43 bd cd 3f b9 3c
       0.025048224 -0.13979726 -0.04768741 0.02261343
000070 b7 b2 1b bd a1 a7 9d 3a 75 7a 24 bd 1d 65 ff bd
       -0.038012233 0.0012028107 -0.040155847 -0.12470458
000080 a2 9e fe bd 19 7b 7b 3d 58 5c 30 3d d0 0f 8d bd
       -0.124326006 0.061396692 0.043056816 -0.068877816
000090 ec cb ce be 37 45 17 3e 1d fe 8d 3d 68 b7 15 bd
       -0.40389955 0.14772497 0.06933234 -0.036551863
0000a0 ee b8 20 3e d1 4e cf bd bc 5f 85 bd 3c e3 b8 bc
       0.15695545 -0.10122455 -0.065124005 -0.022569291
0000b0 6e c4 24 be 97 1c 4f 3d c6 8a 86 bd 3f ef 80 bc
       -0.16090557 0.050564375 -0.06569438 -0.015739081
0000c0 42 ce 79 3d 17 63 64 bd fa 71 b4 3d b3 88 fa bb
       0.06098772 -0.055758562 0.08810802 -0.0076456903
0000d0 11 ae ba 39 39 28 ae bd f3 47 c4 3e 7f 88 64 bd
       0.00035606374 -0.085037656 0.38336143 -0.055794235
0000e0 2d 8e e3 3d a7 30 f9 bc 31 1e a4 bd 7b 1a 28 bc
       0.11111102 -0.030418707 -0.08013571 -0.01026022
0000f0 ad a1 94 3c 88 fe d6 be 75 eb 4a bd 5d bb fe bc
       0.0181435 -0.41991067 -0.049540956 -0.031095201
000100 c6 75 27 3e 23 38 a2 bd a4 0e f1 bd b6 3a 73 3c
       0.16353521 -0.079208635 -0.117703706 0.014845541
000110 69 84 da bc 9f 18 90 bd 3f 09 97 bc a2 4d 60 bd
       -0.026674466 -0.07035946 -0.018437026 -0.054761536
000120 60 6e 02 3e 19 47 8d 3b e1 ce 21 3d 6c d9 af 3b
       0.12737417 0.004311454 0.039503936 0.005366495
000130 cb b9 d5 bd af 0d bc 3d 51 75 08 bd 57 af 1e be
       -0.10435828 0.091822974 -0.033315007 -0.15496574
000140 07 bc 51 bb aa 84 f5 3d 7a 1a d7 bd a0 5a 80 3c
       -0.0032002942 0.11988194 -0.10503097 0.015668213
000150 8f 3c fc bd 0f a9 8f bd 19 3e 5e 3d 19 30 d4 ba
       -0.12316238 -0.07014667 0.05425844 -0.0016188651
000160 7e 2a af ba 92 78 88 be 40 a2 25 be 41 f8 78 bc
       -0.0013364104 -0.26654488 -0.16175175 -0.015195907
000170 26 12 96 bd 2f cc 85 3d a5 a6 79 bd c6 d4 21 bd
       -0.0732768 0.065330856 -0.06094994 -0.039509557
000180 9e f9 9b 3d 51 f0 1e 3d 4d 21 b7 bd a5 0a 57 bd
       0.0761597 0.038803402 -0.089418985 -0.052500386
000190 d2 6d 0e 3e a3 d2 8d 3d 54 28 7e bb 16 fd 7a 3d
       0.1390908 0.069249414 -0.0038781362 0.061276518
0001a0 42 f3 74 bc 8d 3e f8 bc 15 27 f2 bd d6 39 69 3d
       -0.014950575 -0.030303264 -0.118238606 0.056939922
0001b0 f9 c5 da bd 42 58 c3 bd 5d 34 17 bd bc 16 fa bd
       -0.106822915 -0.09538318 -0.036915172 -0.122113675
0001c0 48 21 5e 3d a8 e6 39 bc 2e 07 5d bd 9c 28 04 3c
       0.05423096 -0.011346497 -0.053961925 0.008066323
0001d0 d3 67 82 3c 15 df b9 3c f4 95 5e 3d 1c 5a dd 3c
       0.015918648 0.022689382 0.054342225 0.027020507

cpu f8 [84]
000000 00 00 00 a0 a2 de 66 3f 00 00 00 e0 15 5a 61 3f
       0.0027917076367884874 0.0021181514021009207
000010 00 00 00 40 af 34 6c 3f 00 00 00 80 b7 4d 65 3f
       0.0034430907107889652 0.0026005348190665245
000020 00 00 00 20 e1 b0 66 3f 00 00 00 e0 65 40 71 3f
       0.0027698895428329706 0.004211805295199156
000030 00 00 00 40 00 08 76 3f 00 00 00 80 e9 19 77 3f
       0.005378724075853825 0.005639946088194847
000040 00 00 00 c0 11 a3 67 3f 00 00 00 20 8a da 67 3f
       0.0028853747062385082 0.0029118249658495188
000050 00 00 00 c0 3c 64 78 3f 00 00 00 a0 22 88 75 3f
       0.0059549687430262566 0.005256781820207834
000060 00 00 00 e0 9d 5c 71 3f 00 00 00 80 3b 57 71 3f
       0.004238716792315245 0.004233581945300102
000070 00 00 00 80 01 46 66 3f 00 00 00 20 43 85 68 3f
       0.0027189282700419426 0.0029932318720966578
000080 00 00 00 20 dc 60 73 3f 00 00 00 20 10 18 61 3f
       0.004731044638901949 0.0020866694394499063
000090 00 00 00 40 35 1c 72 3f 00 00 00 40 c1 2f 75 3f
       0.004421432502567768 0.0051724957302212715
0000a0 00 00 00 a0 a8 e0 70 3f 00 00 00 00 56 50 65 3f
       0.004120501223951578 0.002601783722639084
0000b0 00 00 00 60 1e 8a 6b 3f 00 00 00 60 31 78 76 3f
       0.003361758543178439 0.0054857186041772366
0000c0 00 00 00 80 c2 3a 73 3f 00 00 00 20 42 eb 6a 3f
       0.004694709554314613 0.0032860080245882273
0000d0 00 00 00 80 f3 d0 62 3f 00 00 00 60 ed f1 6b 3f
       0.0022969013080000877 0.003411258338019252
0000e0 00 00 00 80 2e f5 68 3f 00 00 00 a0 1a 7b 67 3f
       0.003046599216759205 0.0028663177508860826
0000f0 00 00 00 00 b3 90 73 3f 00 00 00 40 c9 88 73 3f
       0.004776667803525925 0.0047691212967038155
000100 00 00 00 80 ed fb 6a 3f 00 00 00 c0 0d 90 55 3f
       0.0032939566299319267 0.001316083362326026
000110 00 00 00 60 b3 a5 68 3f 00 00 00 80 10 7b 6b 3f
       0.003008699743077159 0.0033545801416039467
000120 00 00 00 80 c5 97 6a 3f 00 00 00 60 86 80 63 3f
       0.003246198408305645 0.002380621386691928
000130 00 00 00 e0 38 9b 69 3f 00 00 00 a0 01 06 5c 3f
       0.003125773509964347 0.0017104163998737931
000140 00 00 00 00 41 7f 68 3f 00 00 00 40 b8 60 6a 3f
       0.002990366891026497 0.003219947684556246
000150 00 00 00 e0 82 cb 6c 3f 00 00 00 40 a5 b3 74 3f
       0.00351501046679914 0.00505413580685854
000160 00 00 00 40 7c 32 79 3f 00 00 00 20 17 f2 6a 3f
       0.006151662208139896 0.003289265790954232
000170 00 00 00 e0 fe 17 75 3f 00 00 00 60 63 35 6f 3f
       0.005149837117642164 0.0038096371572464705
000180 00 00 00 a0 43 75 5d 3f 00 00 00 00 85 d8 71 3f
       0.0017979774856939912 0.0043568797409534454
000190 00 00 00 40 cc ae 72 3f 00 00 00 60 fe 20 78 3f
       0.004561231471598148 0.005890840198844671
0001a0 00 00 00 60 0d 6e 72 3f 00 00 00 60 08 26 69 3f
       0.004499485250562429 0.0030698932241648436
0001b0 00 00 00 c0 3c 90 65 3f 00 00 00 40 96 a0 4f 3f
       0.0026322542689740658 0.000965188373811543
0001c0 00 00 00 40 9b 55 73 3f 00 00 00 80 be a1 53 3f
       0.0047203125432133675 0.0011982307769358158
0001d0 00 00 00 a0 22 e4 68 3f 00 00 00 e0 0f 45 60 3f
       0.0030384708661586046 0.0019860563334077597
0001e0 00 00 00 a0 6c 17 71 3f 00 00 00 80 4d aa 7b 3f
       0.004172729793936014 0.006754210218787193
0001f0 00 00 00 a0 ed 64 74 3f 00 00 00 60 27 36 6d 3f
       0.004979065153747797 0.0035658616106957197
000200 00 00 00 c0 cb b1 73 3f 00 00 00 20 bd 22 65 3f
       0.004808231256902218 0.0025800412986427546
000210 00 00 00 e0 ed cf 72 3f 00 00 00 40 8c 69 73 3f
       0.00459282798692584 0.0047393301501870155
000220 00 00 00 c0 c6 ce 70 3f 00 00 00 40 f9 d4 70 3f
       0.004103447310626507 0.004109357483685017
000230 00 00 00 80 54 5e 60 3f 00 00 00 40 db c3 6c 3f
       0.0019981050863862038 0.0035113603807985783
000240 00 00 00 60 92 36 55 3f 00 00 00 e0 cc 4d 7e 3f
       0.0012947492068633437 0.007398414891213179
000250 00 00 00 00 eb 80 65 3f 00 00 00 40 6a fb 66 3f
       0.0026249494403600693 0.00280543090775609
000260 00 00 00 20 a5 7e 6d 3f 00 00 00 20 2d 60 6f 3f
       0.0036004281137138605 0.003830040106549859
000270 00 00 00 40 fa 7e 60 3f 00 00 00 c0 4e a7 71 3f
       0.002013672608882189 0.004309947602450848
000280 00 00 00 60 6d a0 7a 3f 00 00 00 00 af b9 60 3f
       0.006500651594251394 0.0020416658371686935
000290 00 00 00 20 8e 5d 68 3f 00 00 00 60 dc 63 76 3f
       0.002974298084154725 0.005466328468173742

cpu f4 [84]
000000 33 b8 b7 bc 4f 2b c7 bd 75 b5 72 3e d8 84 fb bb
       -0.0224267 -0.09725057 0.23702033 -0.0076757483
000010 8a 6c bd bd 9f 58 05 bd af c0 71 3e 24 67 f2 3e
       -0.09249218 -0.03255522 0.23608659 0.47344315
000020 98 d7 d9 bc 96 d2 48 bc a5 a2 f4 3e dd 09 9d 3e
       -0.02659206 -0.012257239 0.47780338 0.30671588
000030 4d ca d2 3c 93 3d 3c 3d 2c 46 0d 3c 29 c7 24 be
       0.02573123 0.04595716 0.008622687 -0.16091599
000040 2c 89 62 be 51 2c ac bd 36 84 ce bd 99 83 b9 3e
       -0.2212264 -0.0840689 -0.10083811 0.36233214
000050 05 84 be b9 b7 64 dc 3d 0d e9 d8 be 61 e9 03 3e
       -0.00036337986 0.10761397 -0.42365304 0.12881996
000060 1f 7c 06 3f 7b ab 42 3e a6 a4 1a 3d 35 12 ff bd
       0.52533144 0.19010727 0.037754677 -0.124546446
000070 20 c1 46 3e 79 c2 13 be ef 7a 08 3e 88 cc 8e 3d
       0.19409609 -0.14429654 0.13328145 0.06972605
000080 48 b8 14 3e b9 28 6c bd 42 42 bd bd 0f d9 28 3d
       0.14523423 -0.057656024 -0.09241153 0.04122263
000090 bc b8 ab bd 90 8d f4 bd dd 73 15 3c 84 91 2c be
       -0.08384845 -0.119410634 0.009121862 -0.16852385
0000a0 3f 4b 68 3d 4e 62 23 be e2 67 62 3c 33 7e 57 3e
       0.056712385 -0.15955469 0.013818713 0.21044235
0000b0 70 48 0a 3e 11 3d 41 3e 14 22 58 bd 20 2d 9b 3d
       0.13504195 0.18870951 -0.052766874 0.07576966
0000c0 7e ad 91 bd ce 56 97 3c be 85 51 3e f4 ee b4 bd
       -0.07113169 0.018474009 0.20461175 -0.08834639
0000d0 b7 18 0d 3e 89 6a 9f bd c5 4d 0d be d6 f6 1d bd
       0.13778959 -0.07783992 -0.13799198 -0.03856548
0000e0 ac d6 1e 3e 93 2b 86 bd cf cd 11 3e a6 e0 00 3d
       0.15511578 -0.0655128 0.14238666 0.03146424
0000f0 90 1b c1 3e 04 9f 0f 3f ba 10 87 3e 99 e7 7a be
       0.3771634 0.56102014 0.2637995 -0.2450241
000100 f4 ba ea 3e 36 66 a6 bd 7d b2 ab 3d af 54 8c 3e
       0.4584576 -0.08124964 0.08383653 0.27408358
000110 4a 25 b7 bc 5d f5 e6 3e 79 ae cb bd 02 0f 3e 3d
       -0.022356648 0.45109072 -0.099453874 0.04640103
000120 c2 35 c7 bd 97 fe 4e 3e 37 72 5b bd 82 d9 b2 3c
       -0.0972705 0.20214306 -0.05357572 0.021832231
000130 02 b6 79 3d 9e d2 92 3e f5 02 8a bd 17 0a 83 3e
       0.06096459 0.28676313 -0.06738845 0.25593635
000140 78 37 d0 3e 18 86 3e bd cc 51 16 be b8 69 4b 3e
       0.4066732 -0.0465146 -0.1467964 0.19864547

cpu f8 [10]
000000 00 00 00 80 93 be 73 3f 00 00 00 20 c8 33 75 3f
       0.004820419475436211 0.0051763360388576984
000010 00 00 00 20 f0 3a 8b 3f 00 00 00 c0 9c 90 77 3f
       0.013296009041368961 0.005753147415816784
000020 00 00 00 60 ee 21 7a 3f 00 00 00 80 b4 d5 76 3f
       0.006380015518516302 0.005574898794293404
000030 00 00 00 20 56 2e 78 3f 00 00 00 80 f6 34 77 3f
       0.0059035648591816425 0.005665743723511696
000040 00 00 00 e0 1b a0 78 3f 00 00 00 a0 09 54 74 3f
       0.00601206673309207 0.004962956998497248

cpu f4 [10]
000000 c5 08 39 be 47 ad 3a be 5b 2a 71 3e 77 d3 22 be
       -0.18069752 -0.18230163 0.23551314 -0.1590098
000010 4e 10 da bd 86 13 9d bd 0e e3 1b bf 0b d4 fa 3e
       -0.10647641 -0.076697394 -0.6089333 0.489899
000020 59 e7 0d 3f c8 a2 29 3d
       0.55431134 0.041415006
