results/static_quantized_model.pth (torch, 76562 bytes, 10 tensors)

cpu f8 [6]
000000 00 00 00 20 a0 70 83 3f 00 00 00 c0 5b 52 7c 3f
       0.009492159821093082 0.006914480589330196
000010 00 00 00 40 fb 1d 86 3f 00 00 00 c0 e0 50 85 3f
       0.01079937256872654 0.010408168658614159
000020 00 00 00 c0 00 03 78 3f 00 00 00 c0 48 41 87 3f
       0.005862238816916943 0.011354988440871239

features.0.bias f4 [6]
000000 27 68 05 c0 e0 67 d7 bf ad 60 d7 bf f0 95 f9 bf
       -2.084482 -1.6828575 -1.6826378 -1.9498882
000010 2b 85 34 bf 56 98 c0 bf
       -0.705157 -1.5046489

cpu f8 [16]
000000 00 00 00 a0 c3 db 5d 3f 00 00 00 a0 07 1e 68 3f
       0.0018224153900519013 0.0029440068174153566
000010 00 00 00 00 11 46 71 3f 00 00 00 e0 f7 5b 67 3f
       0.004217211157083511 0.00285147107206285
000020 00 00 00 e0 0b 4f 60 3f 00 00 00 40 4d bd 65 3f
       0.001990817254409194 0.0026537426747381687
000030 00 00 00 60 be d8 6a 3f 00 00 00 40 f2 1c 89 3f
       0.00327717955224216 0.012262241914868355
000040 00 00 00 40 03 0a 88 3f 00 00 00 a0 ec 18 62 3f
       0.011737847700715065 0.0022091504652053118
000050 00 00 00 e0 06 29 64 3f 00 00 00 60 86 ee 6d 3f
       0.002460969379171729 0.0036537765990942717
000060 00 00 00 40 de 35 67 3f 00 00 00 60 13 d4 73 3f
       0.002833303529769182 0.004840923007577658
000070 00 00 00 00 26 77 8b 3f 00 00 00 00 6d a3 89 3f
       0.01341085135936737 0.012518741190433502

features.3.bias f4 [16]
000000 e5 a3 86 bd c0 c7 31 be 36 1b ac bd a9 76 df bd
       -0.06574229 -0.17361355 -0.084036276 -0.109113045
000010 c3 2c 80 3c 19 60 6f bd 5a 31 99 bd 8a 57 90 3e
       0.015646344 -0.058441255 -0.07480116 0.28191787
000020 76 dc 1b 3f 75 26 11 be 1f 86 31 be e8 30 86 bd
       0.6088327 -0.14174826 -0.1733632 -0.06552297
000030 fc 42 d0 bd 05 dc 66 be a7 b4 f9 3e c2 a9 e5 3e
       -0.10169026 -0.22544868 0.4877064 0.44856077

cpu f8 [120]
000000 00 00 00 80 75 c7 61 3f 00 00 00 e0 22 da 70 3f
       0.0021703047677874565 0.004114280920475721
000010 00 00 00 00 d5 2c 43 3f 00 00 00 a0 a2 dc 6a 3f
       0.0005851783789694309 0.003279035212472081
000020 00 00 00 60 dc 42 76 3f 00 00 00 a0 2f 00 61 3f
       0.005434857215732336 0.002075284020975232
000030 00 00 00 40 28 ad 5d 3f 00 00 00 e0 c1 a3 71 3f
       0.0018113034311681986 0.004306561779230833
000040 00 00 00 c0 80 43 70 3f 00 00 00 a0 97 9e 75 3f
       0.003970625810325146 0.005278198514133692
000050 00 00 00 60 43 bd 68 3f 00 00 00 80 9f 04 5e 3f
       0.00301993521861732 0.0018321569077670574
000060 00 00 00 a0 4e 41 4c 3f 00 00 00 20 da fb 50 3f
       0.0008622774039395154 0.0010366087080910802
000070 00 00 00 c0 85 5f 62 3f 00 00 00 20 8a 43 53 3f
       0.0022428142838180065 0.0011757706524804235
000080 00 00 00 40 da e8 5a 3f 00 00 00 e0 93 68 58 3f
       0.0016424304340034723 0.0014897770015522838
000090 00 00 00 40 03 d7 65 3f 00 00 00 00 60 04 67 3f
       0.002666002605110407 0.0028097033500671387
0000a0 00 00 00 80 4a a1 67 3f 00 00 00 a0 0d d5 7f 3f
       0.002884526737034321 0.007771542761474848
0000b0 00 00 00 c0 fa 27 73 3f 00 00 00 60 b2 5e 77 3f
       0.004676799289882183 0.005705544259399176
0000c0 00 00 00 60 51 d3 7e 3f 00 00 00 00 2c a5 7e 3f
       0.007525747176259756 0.007481738924980164
0000d0 00 00 00 00 d1 5a 52 3f 00 00 00 80 6f c6 63 3f
       0.0011202851310372353 0.002413957379758358
0000e0 00 00 00 80 8a d5 53 3f 00 00 00 a0 30 28 62 3f
       0.001210580114275217 0.0022164296824485064
0000f0 00 00 00 60 cf d4 51 3f 00 00 00 20 4a 67 74 3f
       0.0010883355280384421 0.004981317091733217
000100 00 00 00 40 1b 4c 62 3f 00 00 00 00 82 04 64 3f
       0.002233556006103754 0.0024435557425022125
000110 00 00 00 e0 f1 59 50 3f 00 00 00 a0 54 7f 58 3f
       0.0009980070171877742 0.0014952017227187753
000120 00 00 00 e0 a5 d0 72 3f 00 00 00 c0 47 9e 7a 3f
       0.004593513440340757 0.006498604081571102
000130 00 00 00 60 89 2d 6a 3f 00 00 00 60 6f 03 64 3f
       0.0031955416779965162 0.002443044213578105
000140 00 00 00 c0 46 a4 63 3f 00 00 00 20 1a b6 84 3f
       0.0023976690135896206 0.01011295709758997
000150 00 00 00 e0 bd 92 5a 3f 00 00 00 00 c7 b4 61 3f
       0.0016219000099226832 0.0021613966673612595
000160 00 00 00 00 db 50 63 3f 00 00 00 a0 69 5f 70 3f
       0.0023578908294439316 0.003997242543846369
000170 00 00 00 e0 28 98 70 3f 00 00 00 40 a0 19 79 3f
       0.0040513607673347 0.006127954460680485
000180 00 00 00 20 2a 8a 6f 3f 00 00 00 e0 5c 01 66 3f
       0.0038500616792589426 0.002686196705326438
000190 00 00 00 80 fd 92 59 3f 00 00 00 80 a3 08 45 3f
       0.0015609241090714931 0.0006418989505618811
0001a0 00 00 00 00 3e 29 83 3f 00 00 00 e0 c6 92 63 3f
       0.009356006979942322 0.0023893245961517096
0001b0 00 00 00 c0 98 83 60 3f 00 00 00 40 2e f4 61 3f
       0.0020158751867711544 0.0021916297264397144
0001c0 00 00 00 80 d8 64 65 3f 00 00 00 20 7b 2f 60 3f
       0.002611563540995121 0.001975765684619546
0001d0 00 00 00 a0 64 93 5b 3f 00 00 00 40 70 ed 57 3f
       0.0016830904642120004 0.001460418337956071
0001e0 00 00 00 20 cc 38 73 3f 00 00 00 00 4d 4d 67 3f
       0.0046928380616009235 0.0028444770723581314
0001f0 00 00 00 00 31 ec 3b 3f 00 00 00 a0 49 e3 63 3f
       0.00042606540955603123 0.0024277151096612215
000200 00 00 00 80 31 6c 7f 3f 00 00 00 40 d5 fb 4d 3f
       0.007671540603041649 0.0009150305995717645
000210 00 00 00 80 09 06 74 3f 00 00 00 80 34 24 58 3f
       0.004888569936156273 0.0014734757132828236
000220 00 00 00 20 a6 ee 75 3f 00 00 00 c0 40 e0 5c 3f
       0.0053545464761555195 0.0017624504398554564
000230 00 00 00 c0 6d af 79 3f 00 00 00 40 d3 a1 78 3f
       0.00627081748098135 0.006013703532516956
000240 00 00 00 e0 70 40 6b 3f 00 00 00 20 c3 a1 80 3f
       0.0033266262616962194 0.008121036924421787
000250 00 00 00 60 10 29 64 3f 00 00 00 e0 3f e6 63 3f
       0.0024609870743006468 0.002429127460345626
000260 00 00 00 80 d1 bf 70 3f 00 00 00 80 48 73 78 3f
       0.0040891822427511215 0.005969317629933357
000270 00 00 00 c0 57 62 5e 3f 00 00 00 40 ca 03 6b 3f
       0.0018545014318078756 0.0032977056689560413
000280 00 00 00 40 fe 19 72 3f 00 00 00 20 a7 c9 85 3f
       0.00441932026296854 0.010638528503477573
000290 00 00 00 a0 b1 30 50 3f 00 00 00 40 91 e9 7e 3f
       0.000988172017969191 0.007546965964138508
0002a0 00 00 00 40 82 72 76 3f 00 00 00 00 c9 10 68 3f
       0.005480297841131687 0.0029376912862062454
0002b0 00 00 00 20 9c 03 6e 3f 00 00 00 40 31 17 6c 3f
       0.003663830691948533 0.0034290277399122715
0002c0 00 00 00 40 fd 61 6f 3f 00 00 00 20 70 a7 79 3f
       0.003830904606729746 0.006263196934014559
0002d0 00 00 00 e0 d9 7a 6e 3f 00 00 00 20 3d a6 70 3f
       0.00372068933211267 0.004064787644892931
0002e0 00 00 00 c0 3e b4 63 3f 00 00 00 c0 39 38 66 3f
       0.0024052835069596767 0.002712357323616743
0002f0 00 00 00 00 ee 32 63 3f 00 00 00 a0 3d 1f 55 3f
       0.0023436211049556732 0.0012891866499558091
000300 00 00 00 c0 a1 14 70 3f 00 00 00 a0 a7 a7 46 3f
       0.003925926052033901 0.0006913727265782654
000310 00 00 00 a0 b7 15 80 3f 00 00 00 a0 9a 8c 70 3f
       0.007853922434151173 0.004040340427309275
000320 00 00 00 60 c1 92 4b 3f 00 00 00 e0 5d d6 6f 3f
       0.0008414692129008472 0.003886397695168853
000330 00 00 00 80 eb a1 78 3f 00 00 00 20 a6 d5 4f 3f
       0.006013793870806694 0.0009715138585306704
000340 00 00 00 00 79 7b 60 3f 00 00 00 80 91 39 7c 3f
       0.0020120013505220413 0.0068908389657735825
000350 00 00 00 e0 ae 01 64 3f 00 00 00 e0 24 b0 82 3f
       0.002442208817228675 0.009125030599534512
000360 00 00 00 e0 a8 d4 7e 3f 00 00 00 40 bd 01 6d 3f
       0.007527026813477278 0.003540868405252695
000370 00 00 00 20 4f 70 7c 3f 00 00 00 e0 1a fa 73 3f
       0.006943043787032366 0.004877190571278334
000380 00 00 00 00 8d f1 66 3f 00 00 00 c0 b6 b7 51 3f
       0.0028007272630929947 0.001081398455426097
000390 00 00 00 a0 9c 73 72 3f 00 00 00 40 44 00 78 3f
       0.004504787269979715 0.00585962925106287
0003a0 00 00 00 80 7d af 5d 3f 00 00 00 a0 25 ee 83 3f
       0.0018118596635758877 0.009731573052704334
0003b0 00 00 00 80 c0 52 66 3f 00 00 00 00 67 0e 62 3f
       0.002725006081163883 0.0022041331976652145

features.6.bias f4 [120]
000000 27 1a e2 bc d0 dd 71 3d fe 4d 17 bc 6d 4d fd 3c
       -0.027600361 0.059049428 -0.009234903 0.030920709
000010 92 3f 0e 3e 5d bd e0 bd 47 6b 9b bd 35 70 a4 3c
       0.13891438 -0.10973618 -0.07588821 0.020073036
000020 f6 ae 2c be 37 c9 47 bd 70 67 ee bc 0f 18 0d bb
       -0.16863617 -0.048775878 -0.029102057 -0.0021529233
000030 ac 66 92 bd ce c5 a8 bd c2 63 81 3c c1 df 93 bd
       -0.07148489 -0.08240853 0.015794639 -0.07220412
000040 3c 3d 72 3d 50 63 ba bd 1a c2 37 bd 08 b2 8b bd
       0.05914043 -0.091009736 -0.044862844 -0.06821066
000050 25 73 63 bd b9 e0 3d 3d 0c f6 ff bc 20 68 a0 3d
       -0.055529732 0.04635689 -0.031245254 0.0783236
000060 cd f1 9d ba e7 5a 82 bb 28 3c 25 bd e7 6f b0 bc
       -0.0012050212 -0.0039781216 -0.040340573 -0.021537734
000070 5a 00 5c bd 66 5b ea 3a 07 1a df bd 82 06 b4 bd
       -0.053711273 0.0017880022 -0.10893636 -0.08790304
000080 d0 5a 14 bd 64 5b 1a bd b9 fa bd bd cd 9d 77 bd
       -0.036219418 -0.037684813 -0.09276337 -0.060453225
000090 b4 cf f4 bd 85 94 bc 3e 6b ef 71 3e 05 de 11 bd
       -0.11953679 0.3683206 0.23626487 -0.035612125
0000a0 d6 5a 31 be cc cc 1d be a1 6c 6c bd d7 c0 85 bd
       -0.17319807 -0.15410155 -0.057720784 -0.06530922
0000b0 f2 93 bb 3c 57 a0 44 3d d2 b4 33 bd 93 fb cf bd
       0.022897694 0.048004474 -0.043873616 -0.10155406
0000c0 ae be fe 3d 2f 43 d1 bd 23 e2 9e bd 21 29 aa bc
       0.12438713 -0.102178924 -0.07757976 -0.020771565
0000d0 51 49 e4 bd 03 95 11 bd 63 07 aa bd 65 d0 e9 bc
       -0.111467965 -0.0355425 -0.0830219 -0.028541753
0000e0 fd 6a 1d 3c 4a 99 8a bc 40 8c ea bd 3a 7f d5 bd
       0.0096080275 -0.016918797 -0.11452532 -0.10424657
0000f0 c0 fe 68 3d e7 52 bd bd c8 2c 32 bd 27 ec 1f bd
       0.056883574 -0.09244328 -0.043499738 -0.03904357
000100 8b 66 a6 3e 33 5e a7 bc 5b 74 90 3d a9 a2 02 bc
       0.3250011 -0.02043066 0.07053443 -0.0079733515
000110 1e 6a 87 be cf 1f 8a 3c 44 bd a2 3d d9 4d 95 3d
       -0.26448148 0.01686087 0.07946256 0.07290239
000120 41 da 31 3e f2 6d 49 3e d2 0c cb bd b8 cd 5a bd
       0.17368414 0.19670847 -0.09914555 -0.053418845
000130 04 6c 88 bc 84 59 81 3d da 4f 9b bd 7a fd e1 bc
       -0.016653068 0.06315902 -0.0758359 -0.027586687
000140 c3 31 f2 3c a1 db 18 bf ec 77 06 bd bd ed 27 3e
       0.029564744 -0.5971013 -0.03282921 0.16399284
000150 a4 11 2e be 43 a4 86 bd fb 0a 4f be 77 79 ca 3d
       -0.16998917 -0.06574299 -0.20219032 0.09886449
000160 bf 01 9f 3a e2 97 db bd fb 53 0e be 23 e1 43 3c
       0.0012131258 -0.10722329 -0.13899224 0.011955532
000170 88 16 01 3d 42 f2 06 3e 6b 84 38 3b ec ca 00 bd
       0.031515628 0.13178352 0.00281551 -0.03144352
000180 bf 5e 94 3d a4 04 81 bc b1 13 3e be f7 8a 26 be
       0.07244634 -0.015749283 -0.18562199 -0.16263948
000190 d2 51 be bc b3 dc 97 bb d8 d4 e9 bd 1c b8 70 3c
       -0.023232374 -0.0046344637 -0.1141755 0.014692333
0001a0 ca 61 3a bd 20 5e f1 bc d5 ae 87 3c 81 9b 61 bd
       -0.045503415 -0.029463828 0.016562859 -0.05507994
0001b0 47 32 37 3d 48 0b 92 bd 57 88 0c 3f a1 11 ea 3d
       0.044725683 -0.07131058 0.5489554 0.11429144
0001c0 58 d7 b6 3d 99 ac ea bc 6b 46 f1 3d ef fd 6b 3e
       0.08927792 -0.028646754 0.11781009 0.23046087
0001d0 c3 0d be 3d 6f 06 39 be 87 b7 cd bd 00 f9 3a bc
       0.092799686 -0.1806886 -0.10044771 -0.011411905

cpu f8 [84]
000000 00 00 00 a0 25 da 73 3f 00 00 00 e0 92 f3 56 3f
       0.004846713040024042 0.0014008459402248263
000010 00 00 00 60 06 b6 64 3f 00 00 00 20 a9 f5 70 3f
       0.002528202487155795 0.004140530247241259
000020 00 00 00 a0 4d c6 6e 3f 00 00 00 e0 0b 3f 67 3f
       0.003756667720153928 0.002837680047377944
000030 00 00 00 00 2c c6 72 3f 00 00 00 00 aa f9 6b 3f
       0.00458352267742157 0.0034149475395679474
000040 00 00 00 c0 55 de 62 3f 00 00 00 20 b7 a7 4e 3f
       0.0023032831959426403 0.0009355205693282187
000050 00 00 00 e0 54 d3 77 3f 00 00 00 80 74 1a 68 3f
       0.005816775839775801 0.0029423022642731667
000060 00 00 00 c0 10 21 71 3f 00 00 00 c0 49 15 4e 3f
       0.0041819242760539055 0.0009180650813505054
000070 00 00 00 20 cf 84 62 3f 00 00 00 80 f2 06 74 3f
       0.002260593930259347 0.0048894379287958145
000080 00 00 00 e0 25 89 6b 3f 00 00 00 a0 b5 00 66 3f
       0.0033612956758588552 0.002685885177925229
000090 00 00 00 80 1a d5 6d 3f 00 00 00 80 d1 07 70 3f
       0.0036416547372937202 0.0039137061685323715
0000a0 00 00 00 40 bf ab 73 3f 00 00 00 80 d2 77 62 3f
       0.00480246264487505 0.002254401333630085
0000b0 00 00 00 80 24 61 61 3f 00 00 00 60 14 86 66 3f
       0.00212151650339365 0.0027494810055941343
0000c0 00 00 00 40 5a 58 72 3f 00 00 00 c0 f5 de 75 3f
       0.004478790797293186 0.0053395843133330345
0000d0 00 00 00 e0 79 ac 61 3f 00 00 00 c0 37 f4 59 3f
       0.0021574383135885 0.001584104960784316
0000e0 00 00 00 c0 e3 95 61 3f 00 00 00 00 cc ae 53 3f
       0.002146668266505003 0.0012013427913188934
0000f0 00 00 00 40 ef ae 71 3f 00 00 00 e0 bb d6 67 3f
       0.0043172212317585945 0.0029100102838128805
000100 00 00 00 e0 96 90 73 3f 00 00 00 60 e3 c5 69 3f
       0.0047765630297362804 0.003146118251606822
000110 00 00 00 e0 1f 98 72 3f 00 00 00 00 d5 2f 7d 3f
       0.0045396084897220135 0.007125694304704666
000120 00 00 00 80 2d f4 67 3f 00 00 00 a0 5b fa 70 3f
       0.0029240502044558525 0.004145009908825159
000130 00 00 00 80 fe 1e 6a 3f 00 00 00 60 ea 9a 67 3f
       0.003188607282936573 0.0028814866673201323
000140 00 00 00 c0 bc 82 67 3f 00 00 00 c0 63 8b 73 3f
       0.0028699575923383236 0.00477160420268774
000150 00 00 00 20 ba 9f 6a 3f 00 00 00 40 58 cf 56 3f
       0.0032499919179826975 0.0013922082725912333
000160 00 00 00 a0 38 63 63 3f 00 00 00 c0 0b af 6c 3f
       0.0023666482884436846 0.0035014371387660503
000170 00 00 00 20 09 0c 66 3f 00 00 00 e0 a5 5a 72 3f
       0.0026912859175354242 0.00448097987100482
000180 00 00 00 80 9b 1e 6d 3f 00 00 00 00 80 7d 6c 3f
       0.003554633818566799 0.003477811813354492
000190 00 00 00 c0 13 f1 5c 3f 00 00 00 20 72 aa 72 3f
       0.0017664616461843252 0.0045570810325443745
0001a0 00 00 00 40 0f e4 6e 3f 00 00 00 40 2e ae 4b 3f
       0.0037708566524088383 0.0008447385625913739
0001b0 00 00 00 e0 84 3d 75 3f 00 00 00 c0 7f 98 4b 3f
       0.005185622256249189 0.0008421539096161723
0001c0 00 00 00 20 fd 1a 77 3f 00 00 00 e0 7f 02 6e 3f
       0.005640972871333361 0.003663301235064864
0001d0 00 00 00 80 9e ff 75 3f 00 00 00 e0 5c 77 53 3f
       0.0053707305341959 0.0011881262762472034
0001e0 00 00 00 60 a8 15 73 3f 00 00 00 a0 9a af 75 3f
       0.004659326281398535 0.005294422153383493
0001f0 00 00 00 20 72 05 70 3f 00 00 00 c0 84 f8 72 3f
       0.003911443520337343 0.004631537012755871
000200 00 00 00 60 44 19 71 3f 00 00 00 a0 c1 06 76 3f
       0.004174487199634314 0.005377537105232477
000210 00 00 00 40 1c 12 6e 3f 00 00 00 00 bd 5d 64 3f
       0.003670745063573122 0.0024861041456460953
000220 00 00 00 40 fa 36 6a 3f 00 00 00 e0 43 89 5e 3f
       0.003200043458491564 0.001863781246356666
000230 00 00 00 20 87 48 6c 3f 00 00 00 40 6f 13 6e 3f
       0.003452552715316415 0.0036713765002787113
000240 00 00 00 c0 9a 4f 50 3f 00 00 00 60 be 7c 77 3f
       0.0009955416899174452 0.005734199192374945
000250 00 00 00 e0 d0 60 54 3f 00 00 00 80 f3 74 50 3f
       0.0012437858385965228 0.0010044458322227001
000260 00 00 00 20 da 6c 5c 3f 00 00 00 20 d0 c9 70 3f
       0.0017349367262795568 0.004098713863641024
000270 00 00 00 80 b4 1d 72 3f 00 00 00 60 db e9 63 3f
       0.004422860220074654 0.0024308476131409407
000280 00 00 00 c0 ec 6c 60 3f 00 00 00 00 fe 5d 79 3f
       0.002005064394325018 0.006193153560161591
000290 00 00 00 c0 ca d9 62 3f 00 00 00 80 f6 c3 74 3f
       0.0023011169396340847 0.00506969727575779

cpu f4 [84]
000000 23 ea 90 3e bc 5f e0 bd 1a ba a9 bd ca be 4e 3d
       0.28303632 -0.1095576 -0.08287449 0.05047492
000010 5d a6 f8 3d 89 bc 80 3e e4 55 44 3d 16 2d c2 3e
       0.12141106 0.2514384 0.047933474 0.37925023
000020 23 b4 a1 3d 4e 78 2f bd 31 5c a0 3d ae 15 7d 3e
       0.078956865 -0.04283934 0.07830084 0.24715301
000030 70 b3 8a 3f f7 37 bb bd f1 0c d6 bc eb a3 18 3e
       1.083601 -0.09141534 -0.026129218 0.1490628
000040 9f 86 2e 3e 06 0f 24 be fb 97 96 bd b4 f7 47 3e
       0.17043541 -0.16021356 -0.07353207 0.19528085
000050 d9 82 3c 3e 82 32 50 3d 6c e4 0c be 4b 0d 03 be
       0.1840929 0.050829418 -0.13759011 -0.1279804
000060 15 44 f4 bd 1f b6 2d be 98 ee 08 bc 64 ab 89 bd
       -0.11927048 -0.16964005 -0.008357666 -0.06722143
000070 6c 97 09 3e 5b dc c6 bd d5 6e 1e 3e 9c d0 0b bd
       0.13436669 -0.09709998 0.15471967 -0.034134492
000080 f5 d0 26 be 5f db 05 be 03 7a eb 3d 99 0e 26 3e
       -0.16290648 -0.13071965 0.11497881 0.16216506
000090 fc 93 c4 3c 49 a4 a6 3e 12 ef 41 bd 1f f6 da bd
       0.023996346 0.32547215 -0.047347136 -0.10691475
0000a0 3b 6d 0a 3d 86 a3 02 be 03 07 8a bb fe 39 99 3c
       0.033795577 -0.12757692 -0.0042122616 0.01870441
0000b0 90 d8 07 bd 46 fe 38 3f 0b 7b 2c bd a2 0c 04 3e
       -0.033165514 0.7226299 -0.04210953 0.12895444
0000c0 2f 70 58 3e eb 39 46 3c 4d 4e b7 bd c0 7e 24 3e
       0.21136545 0.01209877 -0.089504816 0.16063976
0000d0 4c 63 98 bc bd 85 23 be 88 48 76 be d8 40 18 bd
       -0.018602036 -0.15968986 -0.24051106 -0.037171215
0000e0 fd c5 52 3e 20 22 10 3e 1a 5c 13 3e 7a ce b2 bc
       0.20583339 0.14075518 0.14390603 -0.021826971
0000f0 de 2f e4 3d 6c 10 00 3f ef d9 bc 3c 74 35 74 3c
       0.111419424 0.5002506 0.023053138 0.014905322
000100 c5 cb d7 3e 0f a1 75 3d e7 12 43 bc fc 75 93 3e
       0.4214765 0.05996805 -0.011906362 0.28800952
000110 fd eb 18 bd 25 66 69 bd 80 56 dd 3c c0 2d 16 3f
       -0.03733443 -0.05698218 0.027018785 0.5866356
000120 78 15 e3 bd 4c d3 9d bd 66 47 b7 bc c8 d2 b5 bd
       -0.11088079 -0.07706317 -0.022372913 -0.08878094
000130 ef d8 e1 3b 21 0f c8 be 2d af ac bd f7 f1 df be
       0.0068923156 -0.39074042 -0.0843185 -0.43739292
000140 22 86 2d bd 3e 5b 61 3f 77 a9 f3 bc 09 e6 0c 3f
       -0.042364247 0.8802985 -0.029743893 0.55038506

cpu f8 [10]
000000 00 00 00 00 fb 0a 77 3f 00 00 00 e0 e1 e6 72 3f
       0.0056257061660289764 0.004614717792719603
000010 00 00 00 20 9d c4 6f 3f 00 00 00 60 99 96 80 3f
       0.0038779324386268854 0.008099745027720928
000020 00 00 00 20 87 0e 82 3f 00 00 00 c0 74 f6 74 3f
       0.008816772140562534 0.005117851309478283
000030 00 00 00 20 d9 92 73 3f 00 00 00 00 f6 02 95 3f
       0.004778717178851366 0.020519107580184937
000040 00 00 00 60 d5 b4 74 3f 00 00 00 80 96 68 78 3f
       0.005055268760770559 0.0059591177850961685

cpu f4 [10]
000000 ef 71 d5 bc 72 c9 a7 be 3a 3c 10 bf dd ee 49 3d
       -0.026055304 -0.32770878 -0.563419 0.049300063
000010 9a 3c 59 be 2a 60 28 3e 29 62 37 bf 5e d0 08 3f
       -0.21214524 0.16442934 -0.71634156 0.53442943
000020 6c d1 71 3f 98 c6 23 3e
       0.9446018 0.15993726
