results/static_quantized_model.pth (torch, 76562 bytes, 10 tensors)

cpu f8 [6]
000000 00 00 00 00 45 ff 6f 3f 00 00 00 60 5a cc 7d 3f
       0.003905901685357094 0.0072749643586575985
000010 00 00 00 20 7e da 6c 3f 00 00 00 80 ba 82 6d 3f
       0.003522154176607728 0.003602375276386738
000020 00 00 00 40 0f 84 81 3f 00 00 00 c0 23 aa 7b 3f
       0.008552664890885353 0.0067540546879172325

features.0.bias f4 [6]
000000 8b 25 68 bf 42 30 8c bf d9 d9 2a bf 18 5b 5f bf
       -0.90682286 -1.0952227 -0.6673866 -0.87248373
000010 1a f3 a3 bf dd 16 a5 bf
       -1.2808564 -1.2897602

cpu f8 [16]
000000 00 00 00 e0 22 f6 74 3f 00 00 00 60 00 10 64 3f
       0.005117546301335096 0.002449036343023181
000010 00 00 00 40 c6 6e 7f 3f 00 00 00 20 df 1a 67 3f
       0.007674002088606358 0.0028204305563122034
000020 00 00 00 c0 f4 f1 82 3f 00 00 00 80 16 dd 80 3f
       0.00925055705010891 0.008234191685914993
000030 00 00 00 e0 60 e5 82 3f 00 00 00 40 42 86 6a 3f
       0.00922656711190939 0.0032378477044403553
000040 00 00 00 20 87 e5 49 3f 00 00 00 a0 22 14 64 3f
       0.0007903013029135764 0.0024510074872523546
000050 00 00 00 00 7a fe 60 3f 00 00 00 e0 b3 11 4f 3f
       0.0020744688808918 0.0009481552406214178
000060 00 00 00 40 ea 77 7e 3f 00 00 00 00 dc 06 72 3f
       0.0074385786429047585 0.004401072859764099
000070 00 00 00 e0 c3 2c 6f 3f 00 00 00 00 85 d6 65 3f
       0.003805525368079543 0.0026657674461603165

features.3.bias f4 [16]
000000 0c 88 b9 be 28 3c 15 be a8 26 dc be a3 06 bb bd
       -0.36236608 -0.14573729 -0.42998242 -0.09132125
000010 8b db 3d be a3 c6 c2 3d 95 ec 98 be 65 28 01 bd
       -0.1854078 0.09510543 -0.29867998 -0.031532664
000020 ce b1 10 bd 00 5d 9b bd 38 25 02 be 64 05 4a bd
       -0.035325818 -0.07586098 -0.1270951 -0.049321547
000030 d5 a5 8d be ec cf 3b be ac b1 73 be a8 61 83 3d
       -0.27665582 -0.18341035 -0.23798245 0.06415111

cpu f8 [120]
000000 00 00 00 20 f7 9e 68 3f 00 00 00 80 eb b7 6a 3f
       0.0030054880771785975 0.0032615279778838158
000010 00 00 00 80 e3 98 40 3f 00 00 00 e0 3e d2 63 3f
       0.0005065069999545813 0.002419588854536414
000020 00 00 00 40 26 dd 65 3f 00 00 00 40 3b 12 54 3f
       0.0026689288206398487 0.001225049840286374
000030 00 00 00 00 f4 45 70 3f 00 00 00 60 9e 40 72 3f
       0.003972962498664856 0.004456156399101019
000040 00 00 00 e0 4e 0a 77 3f 00 00 00 20 97 4b 49 3f
       0.005625064950436354 0.000771950522903353
000050 00 00 00 e0 fa 34 61 3f 00 00 00 40 76 c6 44 3f
       0.002100458135828376 0.0006340100662782788
000060 00 00 00 a0 33 36 71 3f 00 00 00 40 84 47 6b 3f
       0.004202081356197596 0.0033300002105534077
000070 00 00 00 00 27 03 4a 3f 00 00 00 20 5f d0 75 3f
       0.0007938328199088573 0.005325671751052141
000080 00 00 00 a0 bc 85 43 3f 00 00 00 80 26 70 72 3f
       0.0005957766552455723 0.004501486197113991
000090 00 00 00 60 7b 61 62 3f 00 00 00 a0 fe 12 59 3f
       0.0022437486331909895 0.0015304075786843896
0000a0 00 00 00 40 ba 0e 44 3f 00 00 00 c0 18 ba 5f 3f
       0.000612107221968472 0.0019364587496966124
0000b0 00 00 00 00 bf 43 62 3f 00 00 00 e0 a6 ed 4b 3f
       0.0022295694798231125 0.0008523049182258546
0000c0 00 00 00 a0 64 44 65 3f 00 00 00 60 0a 12 6a 3f
       0.002596088917925954 0.0031824305187910795
0000d0 00 00 00 40 cb 80 62 3f 00 00 00 60 45 13 60 3f
       0.002258679363876581 0.0019623141270130873
0000e0 00 00 00 e0 f4 27 5a 3f 00 00 00 20 b4 06 56 3f
       0.00159644044470042 0.001344371703453362
0000f0 00 00 00 20 14 78 6a 3f 00 00 00 60 80 4e 70 3f
       0.0032310860697180033 0.0039811148308217525
000100 00 00 00 e0 59 b1 72 3f 00 00 00 a0 e5 ec 5c 3f
       0.0045636664144694805 0.0017654650146141648
000110 00 00 00 80 6f da 6f 3f 00 00 00 40 f8 17 4f 3f
       0.0038883378729224205 0.0009489023359492421
000120 00 00 00 c0 1b 63 7d 3f 00 00 00 a0 a6 aa 71 3f
       0.007174595259130001 0.004313135985285044
000130 00 00 00 20 55 0e 64 3f 00 00 00 a0 2b 65 41 3f
       0.002448240527883172 0.0005308592808432877
000140 00 00 00 60 52 10 70 3f 00 00 00 e0 75 63 63 3f
       0.003921815659850836 0.002366762375459075
000150 00 00 00 c0 39 d3 60 3f 00 00 00 00 2d bc 41 3f
       0.0020538452081382275 0.0005412311293184757
000160 00 00 00 00 71 fa 64 3f 00 00 00 00 c1 2f 5a 3f
       0.0025608260184526443 0.0015982994809746742
000170 00 00 00 00 65 59 69 3f 00 00 00 20 0e e7 71 3f
       0.0030943844467401505 0.0043707420118153095
000180 00 00 00 60 50 e6 60 3f 00 00 00 40 f3 07 73 3f
       0.002062947256490588 0.004646253772079945
000190 00 00 00 20 2b 97 57 3f 00 00 00 80 b7 0a 46 3f
       0.0014398499624803662 0.0006726642604917288
0001a0 00 00 00 c0 74 e0 6f 3f 00 00 00 e0 65 4d 56 3f
       0.0038912086747586727 0.0013612265465781093
0001b0 00 00 00 c0 a3 9d 79 3f 00 00 00 e0 f6 2e 60 3f
       0.006253852508962154 0.00197551934979856
0001c0 00 00 00 20 ea fd 5f 3f 00 00 00 60 2f 7d 65 3f
       0.0019526277901604772 0.0026231694500893354
0001d0 00 00 00 20 e2 f6 5a 3f 00 00 00 20 18 1c 61 3f
       0.0016457756282761693 0.0020885916892439127
0001e0 00 00 00 60 26 e6 6c 3f 00 00 00 80 07 19 76 3f
       0.0035277127753943205 0.005394963547587395
0001f0 00 00 00 20 ec 65 49 3f 00 00 00 80 62 0e 55 3f
       0.0007750895456410944 0.0012851678766310215
000200 00 00 00 40 c5 0e 74 3f 00 00 00 00 c9 70 5f 3f
       0.004896898753941059 0.0019189799204468727
000210 00 00 00 00 04 55 7d 3f 00 00 00 00 81 06 5c 3f
       0.007161155343055725 0.0017105350270867348
000220 00 00 00 a0 a3 9f 66 3f 00 00 00 40 3f e3 41 3f
       0.00276166875846684 0.0005458887899294496
000230 00 00 00 60 2a e0 60 3f 00 00 00 e0 e2 49 44 3f
       0.0020600154530256987 0.000619159487541765
000240 00 00 00 20 a5 78 5d 3f 00 00 00 a0 05 76 52 3f
       0.0017987835453823209 0.0011267714435234666
000250 00 00 00 20 bd 8b 57 3f 00 00 00 e0 f7 78 71 3f
       0.0014371249126270413 0.004265754949301481
000260 00 00 00 e0 9c 15 63 3f 00 00 00 80 5d 53 68 3f
       0.0023296417202800512 0.0029694391414523125
000270 00 00 00 80 56 dd 60 3f 00 00 00 40 19 d7 4d 3f
       0.002058667130768299 0.0009106515208259225
000280 00 00 00 40 78 9e 6a 3f 00 00 00 40 ee ef 6b 3f
       0.0032493923790752888 0.003410306293517351
000290 00 00 00 40 4e c0 53 3f 00 00 00 a0 af 32 64 3f
       0.0012055172119289637 0.00246557523496449
0002a0 00 00 00 20 b0 cb 76 3f 00 00 00 80 18 bb 58 3f
       0.005565345752984285 0.0015094508416950703
0002b0 00 00 00 c0 a1 55 5d 3f 00 00 00 c0 b1 c3 67 3f
       0.0017904357519000769 0.002900931518524885
0002c0 00 00 00 c0 65 7d 5e 3f 00 00 00 20 7f 36 76 3f
       0.0018609517719596624 0.0054230657406151295
0002d0 00 00 00 60 2a ed 77 3f 00 00 00 a0 54 4b 53 3f
       0.005841413047164679 0.001177628175355494
0002e0 00 00 00 80 8a be 66 3f 00 00 00 40 36 e6 58 3f
       0.0027764039114117622 0.0015197305474430323
0002f0 00 00 00 80 11 61 52 3f 00 00 00 40 67 0b 63 3f
       0.0011217757128179073 0.0023247734643518925
000300 00 00 00 20 01 5d 69 3f 00 00 00 20 9d c4 50 3f
       0.0030961057636886835 0.0010234388755634427
000310 00 00 00 e0 1b f7 68 3f 00 00 00 60 b6 6f 65 3f
       0.0030475181993097067 0.002616745186969638
000320 00 00 00 00 b1 50 6a 3f 00 00 00 c0 cd 6b 68 3f
       0.003212304785847664 0.0029810923151671886
000330 00 00 00 a0 28 ec 71 3f 00 00 00 40 5a dd 64 3f
       0.00437560910359025 0.0025469553656876087
000340 00 00 00 00 94 c3 63 3f 00 00 00 20 e9 47 71 3f
       0.0024125948548316956 0.004218969959765673
000350 00 00 00 e0 33 48 74 3f 00 00 00 40 33 43 60 3f
       0.004951670300215483 0.0019851685501635075
000360 00 00 00 60 f5 e0 61 3f 00 00 00 20 76 be 55 3f
       0.0021824638824909925 0.0013271478237584233
000370 00 00 00 40 6b 34 6a 3f 00 00 00 c0 3a 3c 64 3f
       0.0031988234259188175 0.002470125909894705
000380 00 00 00 e0 e6 38 53 3f 00 00 00 e0 e1 30 57 3f
       0.0011732344282791018 0.0014154630480334163
000390 00 00 00 a0 de 49 68 3f 00 00 00 c0 4c 6f 4f 3f
       0.0029649112839251757 0.0009593128925189376
0003a0 00 00 00 60 35 0e 60 3f 00 00 00 80 91 52 64 3f
       0.001959900138899684 0.0024807779118418694
0003b0 00 00 00 40 5f c4 62 3f 00 00 00 40 05 6c 60 3f
       0.0022909031249582767 0.002004633191972971

features.6.bias f4 [120]
000000 43 d3 59 3b bf 8a ac 3d 4d 66 0d bc ec 8c 8a 3b
       0.0033237494 0.08424901 -0.008630347 0.004228225
000010 9a 3e 61 3b 4f b0 35 bd eb d0 66 3d b6 37 8b 3d
       0.0034369589 -0.044357594 0.056351583 0.067977354
000020 72 07 42 be 00 e9 23 bc 79 d8 df bc cd cf 5d bd
       -0.18948153 -0.010004282 -0.027324902 -0.054153252
000030 21 ae 3b bd 2e 0d 9e bd 8e 1b 5c bd fb d0 20 be
       -0.04582036 -0.077173576 -0.053737216 -0.1570472
000040 28 8c a4 3c 50 22 c8 bd 41 90 a2 bc 83 a6 33 bd
       0.020086363 -0.097721696 -0.019844176 -0.04385997
000050 39 c8 12 bd 99 98 b8 3d 31 b3 0b bd fa 2a 4f 39
       -0.03583548 0.09013481 -0.034106437 0.00019757068
000060 85 62 ff 3c 70 c8 fe bd e0 53 43 bd cd 3f b9 3c
       0.031174907 -0.12440574 -0.04768741 0.02261343
000070 a7 74 1f bd c9 0d ae 3a 75 7a 24 bd ad 98 f6 bc
       -0.038929608 0.0013279255 -0.040155847 -0.030102098
000080 cf 8c fe bd c3 f0 b5 3c 9a 6e 21 bd e5 48 84 bd
       -0.12429201 0.02220953 -0.03941212 -0.06459216
000090 6a 78 8a bd ba 5a ce 3d 59 af 2b 3d a6 26 17 bd
       -0.067612484 0.100758985 0.04191527 -0.036902092
0000a0 3c 32 b8 3c 82 23 64 bc e0 5c 85 bd b1 89 c5 bc
       0.022484891 -0.013924481 -0.06511855 -0.024113508
0000b0 6e 9e e1 bd 54 7c 5d bc 3c e5 54 3a d3 46 81 bd
       -0.11016546 -0.013518412 0.0008121317 -0.06312337
0000c0 ee 1b 25 3d e4 6f 80 bd 3d c5 80 3b 46 ea db bc
       0.04030984 -0.062713414 0.0039297626 -0.026845109
0000d0 78 ce ad 3b 35 40 cd bd 28 07 36 3e 57 fc 65 bd
       0.005304154 -0.10022012 0.17776167 -0.056148853
0000e0 b7 97 31 3c 43 b4 f4 bc 55 57 a8 bd 55 5f 16 bc
       0.010839394 -0.029871112 -0.08219782 -0.009178002
0000f0 ad a1 94 3c 9e 8d 04 be 28 b7 6c bd 4d e3 99 bd
       0.0181435 -0.12944648 -0.05779186 -0.07514057
000100 07 25 ed 3d c0 ee 79 3b 25 0e 4e 3d 66 37 ab 3c
       0.11579328 0.003813669 0.050306458 0.02090044
000110 22 e3 2b 3c 49 45 84 bd 05 f4 17 3d 44 2b 60 bd
       0.010491164 -0.064585276 0.03709795 -0.05472876
000120 68 0b aa 3d b4 77 2b 3d 73 87 2a 3d 9c 5f b2 3b
       0.08302957 0.041862205 0.04163308 0.0054435264
000130 96 24 6f bd e0 1e db 3c a6 85 56 bd d4 c1 33 bd
       -0.0583845 0.02674812 -0.05237355 -0.04388602
000140 77 49 5e bb 34 41 ab 3c 8e 2a a3 bc 6b 61 82 3c
       -0.00339183 0.020905115 -0.019917753 0.015915593
000150 f8 d8 3d 3d f6 14 f3 bb 17 ae 8c 3c 19 30 d4 ba
       0.046349496 -0.00741827 0.017172856 -0.0016188651
000160 9e cc 95 3b e0 a0 f6 bd 5a cc b9 bd d0 7b 3b bd
       0.0045715114 -0.12042403 -0.0907218 -0.045772374
000170 9e 11 a6 bd a5 4d 99 3c a0 3a 84 bd c6 d4 21 bd
       -0.08108829 0.018713782 -0.06456494 -0.039509557
000180 c0 1f 5d bd 52 05 f8 3b 5e 8a a4 bd fd 85 66 bd
       -0.053985357 0.0075689936 -0.08034204 -0.056280125
000190 88 44 69 3d d6 05 81 3d b5 1c 46 3c eb 95 48 bd
       0.056950122 0.06299941 0.012091805 -0.048971098
0001a0 bd d9 7c bc 10 6f 95 bd b3 cc ee 3c 81 d9 29 3d
       -0.015432772 -0.07296574 0.029150343 0.041467194
0001b0 09 fc d8 bd 64 f1 32 bd b4 13 ef 3b d7 fc 6c bd
       -0.10594947 -0.04368724 0.00729605 -0.057858314
0001c0 3d ff 3e 3d 33 d1 59 bc 2e 07 5d bd 1b 54 c6 bc
       0.046630133 -0.013294506 -0.053961925 -0.024210026
0001d0 7c b4 94 3c 61 b1 68 bc f4 95 5e 3d 69 5b da 3c
       0.018152468 -0.014202447 0.054342225 0.026654916

cpu f8 [84]
000000 00 00 00 20 3e de 54 3f 00 00 00 80 b7 e0 58 3f
       0.0012736899079754949 0.001518420409411192
000010 00 00 00 00 49 dd 67 3f 00 00 00 80 7e 32 65 3f
       0.0029131341725587845 0.002587554045021534
000020 00 00 00 20 e1 b0 66 3f 00 00 00 80 29 32 71 3f
       0.0027698895428329706 0.004198228940367699
000030 00 00 00 40 89 fc 6a 3f 00 00 00 20 4c c6 65 3f
       0.0032942467369139194 0.002658032113686204
000040 00 00 00 c0 1a cf 51 3f 00 00 00 40 1d 2d 67 3f
       0.0010869752150028944 0.0028291293419897556
000050 00 00 00 20 00 13 66 3f 00 00 00 40 8e 37 72 3f
       0.002694607013836503 0.0044475132599473
000060 00 00 00 40 7f d5 6d 3f 00 00 00 e0 0f fa 62 3f
       0.0036418423987925053 0.0023165044840425253
000070 00 00 00 20 3a 5e 60 3f 00 00 00 20 43 85 68 3f
       0.001998055959120393 0.0029932318720966578
000080 00 00 00 60 a9 60 73 3f 00 00 00 20 10 18 61 3f
       0.004730855580419302 0.0020866694394499063
000090 00 00 00 00 72 e7 6e 3f 00 00 00 20 64 5b 72 3f
       0.003772471100091934 0.004481688607484102
0000a0 00 00 00 e0 26 fc 6a 3f 00 00 00 60 f8 33 5f 3f
       0.003294063499197364 0.0019044805085286498
0000b0 00 00 00 80 59 29 66 3f 00 00 00 a0 af 95 6d 3f
       0.0027052639052271843 0.0036114149261265993
0000c0 00 00 00 60 69 2f 6d 3f 00 00 00 e0 b6 92 65 3f
       0.003562646685168147 0.002633435418829322
0000d0 00 00 00 c0 79 5f 58 3f 00 00 00 00 92 f1 6b 3f
       0.0014876069035381079 0.003411088138818741
0000e0 00 00 00 40 d8 d6 63 3f 00 00 00 40 a2 77 67 3f
       0.00242178188636899 0.0028646630235016346
0000f0 00 00 00 00 d5 f3 6f 3f 00 00 00 a0 bc 83 70 3f
       0.0039004478603601456 0.004031884018331766
000100 00 00 00 00 e1 41 6b 3f 00 00 00 c0 0d 90 55 3f
       0.00332731194794178 0.001316083362326026
000110 00 00 00 c0 ec 65 68 3f 00 00 00 e0 d8 78 5f 3f
       0.002978289034217596 0.0019209020538255572
000120 00 00 00 c0 44 9f 59 3f 00 00 00 40 0f b3 63 3f
       0.0015638514887541533 0.002404718194156885
000130 00 00 00 e0 ef 95 69 3f 00 00 00 a0 01 06 5c 3f
       0.0031232533510774374 0.0017104163998737931
000140 00 00 00 60 e7 1e 63 3f 00 00 00 c0 0c 54 6a 3f
       0.002334072021767497 0.003213906195014715
000150 00 00 00 e0 82 cb 6c 3f 00 00 00 c0 12 0b 6a 3f
       0.00351501046679914 0.0031791082583367825
000160 00 00 00 80 b3 b2 75 3f 00 00 00 80 60 e6 6f 3f
       0.005297375842928886 0.0038940319791436195
000170 00 00 00 40 1b 05 6e 3f 00 00 00 e0 ab cf 6f 3f
       0.003664544317871332 0.003883205121383071
000180 00 00 00 a0 43 75 5d 3f 00 00 00 c0 82 07 62 3f
       0.0017979774856939912 0.002200847025960684
000190 00 00 00 60 80 bb 6b 3f 00 00 00 60 fe 20 78 3f
       0.003385306103155017 0.005890840198844671
0001a0 00 00 00 40 8b 12 6a 3f 00 00 00 c0 ce dc 5a 3f
       0.0031826705671846867 0.0016395587008446455
0001b0 00 00 00 80 18 bf 62 3f 00 00 00 40 96 a0 4f 3f
       0.002288387157022953 0.000965188373811543
0001c0 00 00 00 e0 84 6c 6e 3f 00 00 00 20 cd 21 53 3f
       0.0037138552870601416 0.0011677268194034696
0001d0 00 00 00 60 44 07 67 3f 00 00 00 80 72 d4 53 3f
       0.0028110824059695005 0.0012103193439543247
0001e0 00 00 00 80 24 d1 69 3f 00 00 00 e0 55 1a 76 3f
       0.0031514847651124 0.005396209191530943
0001f0 00 00 00 c0 9e ec 71 3f 00 00 00 a0 9d 3c 6f 3f
       0.004376049153506756 0.003813083516433835
000200 00 00 00 e0 76 4c 66 3f 00 00 00 80 32 5d 56 3f
       0.0027220079209655523 0.0013649933971464634
000210 00 00 00 00 c3 90 72 3f 00 00 00 80 dc 3c 70 3f
       0.0045325867831707 0.003964291885495186
000220 00 00 00 c0 c6 ce 70 3f 00 00 00 e0 8d bd 64 3f
       0.004103447310626507 0.0025317927356809378
000230 00 00 00 20 6a 23 54 3f 00 00 00 40 db c3 6c 3f
       0.0012291466118767858 0.0035113603807985783
000240 00 00 00 60 82 94 53 3f 00 00 00 00 a3 6b 7b 3f
       0.0011950753396376967 0.006694447249174118
000250 00 00 00 00 eb 80 65 3f 00 00 00 a0 92 15 5f 3f
       0.0026249494403600693 0.0018972331890836358
000260 00 00 00 60 b7 12 6e 3f 00 00 00 20 fa 0c 6e 3f
       0.0036710340064018965 0.003668297315016389
000270 00 00 00 80 53 77 60 3f 00 00 00 20 42 f1 62 3f
       0.0020100241526961327 0.002312306547537446
000280 00 00 00 60 89 cd 70 3f 00 00 00 20 9d 17 56 3f
       0.0041022649966180325 0.0013484033988788724
000290 00 00 00 20 8e 5d 68 3f 00 00 00 20 3b 72 70 3f
       0.002974298084154725 0.004015189129859209

cpu f4 [84]
000000 57 fc 46 3c 21 bf 68 bd 00 43 37 3e d0 f9 79 3c
       0.012145123 -0.0568229 0.17896652 0.015257314
000010 39 3e a9 bd 78 04 55 bc cd 78 19 3e 57 db b7 3e
       -0.08263821 -0.013001554 0.14987488 0.3590953
000020 f4 d6 0a bd 55 40 8c ba f5 08 9e 3e de 79 c8 3e
       -0.0338964 -0.0010700325 0.3086621 0.39155477
000030 9d c2 17 3d d5 88 56 bd 87 81 b0 bc 53 3e 10 be
       0.037050832 -0.052376587 -0.021546138 -0.14086275
000040 b3 bd 48 be ba c0 ab bd b6 24 22 be 9e c8 87 3e
       -0.19603615 -0.08386369 -0.15834317 0.26520246
000050 57 91 9a bb 23 87 88 3d 93 4a a8 be fb f6 e3 bc
       -0.004717033 0.066664 -0.32869396 -0.02782773
000060 1f 40 d3 3e b5 ce 7b 3d bb 4c 20 3d 79 81 47 bd
       0.41259858 0.061476428 0.039135676 -0.04870746
000070 0e d4 27 3d d6 8e 4e bd 59 aa cf 3d 50 ca 75 bd
       0.040973715 -0.050429188 0.10139913 -0.060007393
000080 1b 8b 2e 3c 23 ea 26 bd a6 12 97 be c0 19 f5 3c
       0.0106532825 -0.040750634 -0.29506415 0.029919505
000090 02 12 4e bd c5 7c cd bd c9 73 c2 3c f7 aa 17 be
       -0.050310142 -0.100335635 0.023736851 -0.14811312
0000a0 06 29 8e bd d9 85 8b be 71 34 02 bc 84 97 2b 3e
       -0.06941418 -0.27250555 -0.007947073 0.16757017
0000b0 83 b7 be 3c c9 41 a7 3d 83 d8 1b be 9d 92 6e 3c
       0.023280865 0.081668444 -0.15219311 0.0145613225
0000c0 82 21 8b bd 80 5c fb bc 02 f9 c3 bc 41 f1 af bd
       -0.067935005 -0.030683756 -0.023922447 -0.085909374
0000d0 06 e3 40 3d 15 a0 14 be 0c 1d f0 bd 05 14 dc bc
       0.047091506 -0.14514191 -0.1172429 -0.026865015
0000e0 bd 98 91 3d e6 67 33 bd ac d5 b6 bc 6d 17 ee bc
       0.07109211 -0.043800257 -0.022318684 -0.029063905
0000f0 90 da 3b 3e 7e 9e 91 3e cb a0 09 3e 58 71 90 be
       0.18345094 0.28441232 0.13440244 -0.28211474
000100 02 a3 71 3e 88 0e cc bd b4 6b 4b 3c 9d 93 1c 3e
       0.23597339 -0.09963709 0.012415815 0.15290685
000110 77 67 34 3c ed 41 30 3e c4 b4 b7 bd e7 7b 94 3d
       0.011010996 0.17212649 -0.08970025 0.07250195
000120 cf c7 9d bd b5 cb 26 3e cf eb 1a bd 87 f3 14 bd
       -0.07704126 0.16288646 -0.03782254 -0.03636506
000130 d9 d7 9d bd fd 19 65 3e de c7 97 bd 20 70 a5 3d
       -0.07707185 0.22373195 -0.074111685 0.08078027
000140 96 86 5d 3e 96 71 33 bd ed 35 fe bd bc 93 03 3e
       0.21633372 -0.043809496 -0.12412629 0.12849325

cpu f8 [10]
000000 00 00 00 a0 0b be 77 3f 00 00 00 00 c2 09 72 3f
       0.005796475801616907 0.004403837025165558
000010 00 00 00 e0 d5 6d 8b 3f 00 00 00 80 39 d0 77 3f
       0.01339308824390173 0.0058138128370046616
000020 00 00 00 a0 b7 fb 73 3f 00 00 00 00 f4 9e 73 3f
       0.004878728184849024 0.004790261387825012
000030 00 00 00 40 59 94 77 3f 00 00 00 e0 b9 6c 77 3f
       0.005756710655987263 0.005718923639506102
000040 00 00 00 a0 09 93 78 3f 00 00 00 20 b1 09 72 3f
       0.0059996009804308414 0.004403774160891771

cpu f4 [10]
000000 3d 88 c4 be 5d 76 76 be 34 87 8a 3e f6 7f c4 3e
       -0.38385192 -0.2406859 0.27056277 0.38378876
000010 5c f9 fa be 51 6e a1 be 62 68 0d bf 58 69 bf 3c
       -0.4901837 -0.31529477 -0.552374 0.023365662
000020 35 a5 97 3f 47 06 02 3e
       1.1847292 0.12697707
