results/static_quantized_model.pth (torch, 151482 bytes, 20 tensors)

cpu f8 [6]
0	0x3f82bed740000000	0.009153062477707863
1	0x3f833c89e0000000	0.009392811916768551
2	0x3f65282520000000	0.00258261919952929
3	0x3f878642c0000000	0.01148655079305172
4	0x3f8887aee0000000	0.011977544985711575
5	0x3f7f81adc0000000	0.007692030631005764

conv1.bias f4 [6]
0	0xbff45aef	-1.9090251
1	0xc014c73b	-2.32466
2	0xbf8d43df	-1.1036338
3	0xbfe342c2	-1.7754748
4	0xbfef8f3e	-1.8715589
5	0xc03c1b79	-2.9391768

cpu f8 [16]
0	0x3f861a0500000000	0.01079181581735611
1	0x3f6e0edf40000000	0.0036692009307444096
2	0x3f8069d080000000	0.008014325052499771
3	0x3f74eab320000000	0.0051066395826637745
4	0x3f71fee6c0000000	0.004393483512103558
5	0x3f8325b920000000	0.009349294938147068
6	0x3f6b8650c0000000	0.003359945025295019
7	0x3f71e4f2a0000000	0.004368732217699289
8	0x3f7890f580000000	0.005997618660330772
9	0x3f63aa2620000000	0.0024004692677408457
10	0x3f8009fa20000000	0.007831529714167118
11	0x3f5ab11f00000000	0.0016291430220007896
12	0x3f8093c0a0000000	0.00809431541711092
13	0x3f766aa360000000	0.005472791846841574
14	0x3f86ef65a0000000	0.01119880098849535
15	0x3f79228320000000	0.006136429030448198

conv2.bias f4 [16]
0	0x3e09ca6d	0.13456126
1	0xbe348716	-0.17629656
2	0xbf0ec655	-0.5577138
3	0x3d15e95d	0.036599506
4	0xbd94954b	-0.07255038
5	0xbd5933ad	-0.053027797
6	0xbdfd69a3	-0.12373664
7	0xbed25d3d	-0.4108676
8	0xbe41e029	-0.18933167
9	0xbe0178bd	-0.12643714
10	0xbf0aebe7	-0.5426621
11	0xbd142a79	-0.036173318
12	0x3f5eb02b	0.8698756
13	0xbe673def	-0.2258222
14	0xbc8e751a	-0.017389823
15	0x3f631e70	0.8871832

cpu f8 [120]
0	0x3f6a2e4260000000	0.003195886267349124
1	0x3f7366fbc0000000	0.004736884497106075
2	0x3f49578760000000	0.0007733737002126873
3	0x3f678d0140000000	0.002874853555113077
4	0x3f7dcf9ca0000000	0.00727807218208909
5	0x3f5e7cdba0000000	0.0018608231330290437
6	0x3f66f9eb80000000	0.002804717980325222
7	0x3f6dfa4780000000	0.0036593815311789513
8	0x3f81d68420000000	0.008709938265383244
9	0x3f771d4860000000	0.005643160548061132
10	0x3f69b4f0c0000000	0.00313803693279624
11	0x3f7b9c0ea0000000	0.00674062455072999
12	0x3f5dff5160000000	0.0018308920552954078
13	0x3f7ba69060000000	0.006750644650310278
14	0x3f6297c320000000	0.0022696314845234156
15	0x3f7f93c2c0000000	0.007709274999797344
16	0x3f6c102d20000000	0.003425682196393609
17	0x3f7489bd60000000	0.0050141713581979275
18	0x3f77152aa0000000	0.005635420326143503
19	0x3f55afd840000000	0.001323662931099534
20	0x3f5883cae0000000	0.0014962655259296298
21	0x3f62b92600000000	0.002285551279783249
22	0x3f60a5f4e0000000	0.0020322592463344336
23	0x3f713dcea0000000	0.004209334496408701
24	0x3f65e91ce0000000	0.002674633404240012
25	0x3f804b1b20000000	0.007955753244459629
26	0x3f599e0760000000	0.0015635559102520347
27	0x3f71e0bf60000000	0.004364726599305868
28	0x3f6281df80000000	0.0022591939195990562
29	0x3f62564c80000000	0.002238416112959385
30	0x3f704c1500000000	0.003978807479143143
31	0x3f74e108a0000000	0.0050974213518202305
32	0x3f5f50e540000000	0.0019113768357783556
33	0x3f61a338c0000000	0.0021530254743993282
34	0x3f7bf57b80000000	0.006825907155871391
35	0x3f612e2920000000	0.002097206423059106
36	0x3f794130e0000000	0.006165686529129744
37	0x3f8019e0a0000000	0.007861857302486897
38	0x3f6ce82aa0000000	0.003528674365952611
39	0x3f65a979e0000000	0.0026442890521138906
40	0x3f6d297640000000	0.0035598096437752247
41	0x3f47025100000000	0.0007021804340183735
42	0x3f714f9f20000000	0.0042263236828148365
43	0x3f3da2c500000000	0.0004522067029029131
44	0x3f5779d5e0000000	0.001432856428436935
45	0x3f6b506aa0000000	0.0033342440146952868
46	0x3f702f6a80000000	0.00395146943628788
47	0x3f6ef24ba0000000	0.003777644829824567
48	0x3f8038c9a0000000	0.007920813746750355
49	0x3f7ae4e960000000	0.0065659633837640285
50	0x3f7656eb60000000	0.005453986581414938
51	0x3f7301c360000000	0.004640353377908468
52	0x3f5b700920000000	0.0016746605979278684
53	0x3f76c8e200000000	0.005562670528888702
54	0x3f786f8b40000000	0.005965751595795155
55	0x3f6435a860000000	0.0024669922422617674
56	0x3f6dd2a3c0000000	0.003640479873865843
57	0x3f88824a60000000	0.011967259459197521
58	0x3f63d89d60000000	0.0024226258974522352
59	0x3f6d9c4160000000	0.0036145474296063185
60	0x3f6e386340000000	0.003688997123390436
61	0x3f7d966b60000000	0.007223529275506735
62	0x3f5002f5c0000000	0.0009772682096809149
63	0x3f53b80ea0000000	0.0012035506078973413
64	0x3f85692c20000000	0.010454506613314152
65	0x3f548488a0000000	0.001252301619388163
66	0x3f74f705a0000000	0.005118391010910273
67	0x3f780ab9e0000000	0.005869604181498289
68	0x3f5c753d40000000	0.001736936392262578
69	0x3f44ff64a0000000	0.0006407967885024846
70	0x3f5cb25f60000000	0.001751511706970632
71	0x3f597cd720000000	0.001555643160827458
72	0x3f63ce5e40000000	0.0024177399463951588
73	0x3f766f9d20000000	0.00547753693535924
74	0x3f5f1777e0000000	0.001897685113362968
75	0x3f74c17d00000000	0.005067337304353714
76	0x3f53b2ca20000000	0.0012022947194054723
77	0x3f5f872a40000000	0.0019243157003074884
78	0x3f67b2bf40000000	0.0028928504325449467
79	0x3f74670ba0000000	0.004981084261089563
80	0x3f6e53f180000000	0.0037021366879343987
81	0x3f646c9fe0000000	0.002493202453479171
82	0x3f7d258de0000000	0.0071158926002681255
83	0x3f555c8fe0000000	0.0013038067845627666
84	0x3f78668940000000	0.005957161076366901
85	0x3f438d4660000000	0.0005966752651147544
86	0x3f6d909680000000	0.0036089839413762093
87	0x3f6527c360000000	0.002582437125965953
88	0x3f586e2780000000	0.0014911065809428692
89	0x3f5a128d80000000	0.0015913373790681362
90	0x3f7ed11c60000000	0.007523642387241125
91	0x3f7c351920000000	0.00688657583668828
92	0x3f70a17fa0000000	0.0040602670051157475
93	0x3f6d51e4c0000000	0.0035790889523923397
94	0x3f53ea89a0000000	0.001215586089529097
95	0x3f62d136e0000000	0.002297026803717017
96	0x3f80e27e00000000	0.008244499564170837
97	0x3f63d01100000000	0.002418549731373787
98	0x3f6ebce860000000	0.00375218759290874
99	0x3f79764340000000	0.006216299720108509
100	0x3f74c021a0000000	0.005066043231636286
101	0x3f734d6ce0000000	0.004712510388344526
102	0x3f6adbe100000000	0.0032786745578050613
103	0x3f7a707b60000000	0.006454927381128073
104	0x3f661c1d20000000	0.002698952564969659
105	0x3f77a3c260000000	0.005771407391875982
106	0x3f77b238e0000000	0.0057852002792060375
107	0x3f7bcd3920000000	0.006787512917071581
108	0x3f72673e60000000	0.00449299206957221
109	0x3f6d0e2340000000	0.003546780440956354
110	0x3f6c06d900000000	0.003421233966946602
111	0x3f6390c9c0000000	0.0023883762769401073
112	0x3f50848500000000	0.0010081576183438301
113	0x3f578b74c0000000	0.0014370575081557035
114	0x3f716c10a0000000	0.004253449384123087
115	0x3f6e7a2100000000	0.003720344975590706
116	0x3f5dff8040000000	0.0018309357110410929
117	0x3f67958ea0000000	0.0028789315838366747
118	0x3f84f89200000000	0.010239735245704651
119	0x3f5f0610c0000000	0.0018935359548777342

conv3.bias f4 [120]
0	0x3db72d0a	0.089441374
1	0xbe09dadd	-0.13462396
2	0xbd014d46	-0.031567834
3	0x3dd6933a	0.104773
4	0xbe7b4a4d	-0.24540062
5	0xbd395b8d	-0.045253325
6	0xbb82b719	-0.003989112
7	0xbe11f9e4	-0.14255482
8	0xbf195569	-0.5989595
9	0xbc766b95	-0.015040298
10	0xbda71a7f	-0.081593506
11	0xbc5484ca	-0.0129711125
12	0xbb700f9d	-0.00366304
13	0xbe6b3ea9	-0.22973122
14	0xbd01bc83	-0.03167392
15	0x3d8152bf	0.06314611
16	0x3d75dd51	0.060025517
17	0xbdb41db3	-0.08794727
18	0x3da7d9a8	0.081958115
19	0xbd1f0839	-0.0388262
20	0xbd1da753	-0.03848965
21	0xbd56739c	-0.052356347
22	0x3ca82182	0.02052379
23	0xbd0efd71	-0.03490967
24	0x3c11d15b	0.008900012
25	0xbea3b043	-0.31970415
26	0xbd0904e7	-0.03345194
27	0x3ea0f880	0.3143959
28	0xbc36868e	-0.011140479
29	0x3d7d0ceb	0.061779898
30	0x3dc5f7ec	0.09666428
31	0xbcae93a8	-0.021310642
32	0xbdc1291c	-0.09431669
33	0x3bee0304	0.007263543
34	0xbe87b94c	-0.26508558
35	0xbd4b5549	-0.04964188
36	0xbe94b3d9	-0.29043463
37	0xbdcdb09d	-0.10043452
38	0xbda9ba93	-0.08287539
39	0xbe0dafb4	-0.13836557
40	0xbd6e8a41	-0.058237318
41	0x3b9dd7d5	0.004816989
42	0xbd6673bc	-0.056262717
43	0xbcefd059	-0.029274153
44	0xbd72b01f	-0.059249993
45	0xbe4012d1	-0.18757178
46	0x3dedb508	0.116067946
47	0xbc970594	-0.018435277
48	0xbe8d8c08	-0.27645898
49	0xbe1a27ed	-0.15054293
50	0xbe4d57e0	-0.20053053
51	0x3bebe78c	0.0071992334
52	0x3cfe4528	0.031038836
53	0x3da502bd	0.08057163
54	0xbdaf4553	-0.085581444
55	0xbca0cb56	-0.019628208
56	0xbd9216a7	-0.07133227
57	0x3ec3795b	0.38178524
58	0xbc88884c	-0.016666554
59	0xbd1e6756	-0.038672768
60	0x3d29d83e	0.04146599
61	0xbd71c558	-0.059026092
62	0xbd386170	-0.0450148
63	0xbc125601	-0.008931638
64	0x3c9e36f2	0.01931331
65	0xbca0e10f	-0.019638566
66	0xbe3f98bc	-0.18710607
67	0x3e7d8c8e	0.24760649
68	0xbcf4f69b	-0.029902747
69	0xbd90ae5f	-0.07064509
70	0x3a4c5f49	0.0007796181
71	0xbd8e4791	-0.06947244
72	0x3bd7d768	0.0065869577
73	0xbdfcfaa7	-0.12352496
74	0x3d0b8f02	0.03407193
75	0xbd08f43d	-0.03343605
76	0xbccc5051	-0.024940642
77	0xbd2fa32c	-0.042880222
78	0xbd8e1d80	-0.069392204
79	0xbe25b72f	-0.1618316
80	0xbbef5658	-0.007303994
81	0xbd94e892	-0.07270922
82	0x3d2e221b	0.042512994
83	0x3c61812f	0.01376371
84	0x3e160c8a	0.14653221
85	0xbd1d471d	-0.038397897
86	0xbd8d2426	-0.068916604
87	0x3d29adbe	0.04142546
88	0x3cb93edd	0.022612983
89	0x3ca502a4	0.02014286
90	0x3d503294	0.050829485
91	0xbda085c2	-0.07838012
92	0xbe4054fa	-0.18782416
93	0xbd255d80	-0.04037237
94	0xbd8109c6	-0.06300692
95	0xbd9b8f29	-0.07595665
96	0xbeb3e353	-0.35134372
97	0xba03f17a	-0.0005033236
98	0xbd98d2e8	-0.07462102
99	0x3e8d3f81	0.27587512
100	0xbbb155b5	-0.0054118284
101	0x3e20f356	0.15717825
102	0x3a89c321	0.0010510423
103	0xbe09043e	-0.13380525
104	0xbcab635f	-0.020921407
105	0x3c4b03d8	0.012391053
106	0x3e006bab	0.12541072
107	0xbeb5b33c	-0.35488307
108	0xbe8a65ce	-0.27030796
109	0x3afc19b7	0.0019233738
110	0xba999e53	-0.0011720158
111	0xbdd19925	-0.10234288
112	0x3cfd04fa	0.030886162
113	0x3c24f513	0.010068196
114	0xbd8084c3	-0.06275322
115	0x3cc351f6	0.023842793
116	0xbbe0cb48	-0.0068601705
117	0xbe079a8a	-0.13242546
118	0x3e5c78ab	0.21530406
119	0x3cc40e2c	0.023932539

cpu f8 [84]
0	0x3f5f3cafa0000000	0.0019065585220232606
1	0x3f6828b120000000	0.0029490909073501825
2	0x3f756d24e0000000	0.005231040995568037
3	0x3f7e47e2a0000000	0.007392773870378733
4	0x3f6c1abb00000000	0.0034307148307561874
5	0x3f619c7100000000	0.0021497923880815506
6	0x3f7137ad20000000	0.004203487653285265
7	0x3f69d674a0000000	0.003154018195345998
8	0x3f57c83620000000	0.0014515427174046636
9	0x3f73e126a0000000	0.004853392485529184
10	0x3f6cd20520000000	0.003518114099279046
11	0x3f73abcf40000000	0.004802522249519825
12	0x3f6a030300000000	0.003175264224410057
13	0x3f61a7cfc0000000	0.0021552140824496746
14	0x3f65a84860000000	0.0026437200140208006
15	0x3f66fb45e0000000	0.002805363154038787
16	0x3f6da906e0000000	0.003620637347921729
17	0x3f6f8682c0000000	0.0038483194075524807
18	0x3f5eaa2c20000000	0.0018716269405558705
19	0x3f697321e0000000	0.0031066571827977896
20	0x3f7234e8c0000000	0.004444989375770092
21	0x3f5ef48aa0000000	0.0018893579253926873
22	0x3f722e73c0000000	0.0044388314709067345
23	0x3f7105d2e0000000	0.004155944567173719
24	0x3f725335c0000000	0.004473886452615261
25	0x3f7475f020000000	0.004995286930352449
26	0x3f66e591e0000000	0.0027950142975896597
27	0x3f7625a4c0000000	0.005406993441283703
28	0x3f6bebb0a0000000	0.0034082841593772173
29	0x3f66065d00000000	0.0026885811239480972
30	0x3f6dd68e80000000	0.003642347641289234
31	0x3f6f572a60000000	0.0038257434498518705
32	0x3f6f535da0000000	0.003823931561782956
33	0x3f5cfdb520000000	0.0017694729613140225
34	0x3f75d31aa0000000	0.005328277591615915
35	0x3f6ac5b0e0000000	0.003268094500526786
36	0x3f644d4360000000	0.00247824820689857
37	0x3f56fae480000000	0.0014025908894836903
38	0x3f6a19acc0000000	0.0031860708259046078
39	0x3f634577e0000000	0.0023524609860032797
40	0x3f6eb1e540000000	0.0037469365634024143
41	0x3f78ec2c40000000	0.006084606982767582
42	0x3f73bf7220000000	0.004821248818188906
43	0x3f6dc82040000000	0.0036354665644466877
44	0x3f73cdea80000000	0.004835048690438271
45	0x3f72afd1e0000000	0.0045622061006724834
46	0x3f7284b1a0000000	0.004521077964454889
47	0x3f73033f60000000	0.004641768988221884
48	0x3f68f25aa0000000	0.0030452508945018053
49	0x3f6838e9e0000000	0.0029568260069936514
50	0x3f7755d1c0000000	0.005697078071534634
51	0x3f7a928e00000000	0.006487421691417694
52	0x3f71189da0000000	0.004173866007477045
53	0x3f58462f60000000	0.0014815771719440818
54	0x3f643d7e00000000	0.0024707280099391937
55	0x3f6c950a60000000	0.003489036811515689
56	0x3f72fc7de0000000	0.004635326098650694
57	0x3f6597cf60000000	0.0026358652394264936
58	0x3f72ac9840000000	0.004559130407869816
59	0x3f50fdfca0000000	0.0010371176758781075
60	0x3f6cdf6120000000	0.003524484345689416
61	0x3f6f35eb60000000	0.003809890476986766
62	0x3f74e1bb00000000	0.005098085850477219
63	0x3f6ce5f220000000	0.003527615452185273
64	0x3f765b7d00000000	0.0054583437740802765
65	0x3f6be50dc0000000	0.0034051197580993176
66	0x3f67056760000000	0.0028101939242333174
67	0x3f6016d5e0000000	0.0019640137907117605
68	0x3f706e8d60000000	0.0040116808377206326
69	0x3f6b4fd2e0000000	0.003333961358293891
70	0x3f6a9fd1e0000000	0.0032500361558049917
71	0x3f66fd8260000000	0.0028064295183867216
72	0x3f67b81ea0000000	0.00289541226811707
73	0x3f70d8a040000000	0.0041128406301140785
74	0x3f6846c9a0000000	0.0029634416569024324
75	0x3f67b13020000000	0.00289210700429976
76	0x3f727657e0000000	0.004507392179220915
77	0x3f562f2140000000	0.0013540100771933794
78	0x3f6e2db320000000	0.0036839006934314966
79	0x3f73f7c640000000	0.004874967969954014
80	0x3f6c80c280000000	0.0034793661907315254
81	0x3f6b0cc040000000	0.003301978576928377
82	0x3f72959760000000	0.004537192638963461
83	0x3f735e9280000000	0.004728863015770912

cpu f4 [84]
0	0x3da63087	0.081147246
1	0x3d91a0e2	0.07110764
2	0x3ccef10c	0.025261424
3	0x3e837295	0.25673357
4	0xbc8d6cb7	-0.017263753
5	0xbbe81b42	-0.0070833275
6	0x3e347a3b	0.17624752
7	0x3e942109	0.28931454
8	0xbd5e7b7e	-0.05431699
9	0xbd0bfe66	-0.03417816
10	0x3f17e316	0.5933088
11	0x3eb8a426	0.36062735
12	0xbe0ae4d4	-0.13563854
13	0xbcc2d919	-0.02378516
14	0xbd8b0c5d	-0.067894675
15	0xbe127ecb	-0.1430618
16	0xbe23309f	-0.15936516
17	0xbea0516b	-0.31312117
18	0x3d35cac0	0.04438281
19	0xbeaf4d40	-0.34238625
20	0xbc769742	-0.015050711
21	0x3d2bcb88	0.04194215
22	0x3d2bcf7e	0.041945927
23	0xbdd81a2c	-0.10551867
24	0x3e89bf7f	0.26903912
25	0xbd4e68a1	-0.05039275
26	0x3e40524d	0.18781395
27	0x3ebe7d5e	0.37205023
28	0xbe3185db	-0.17336218
29	0xbe0f27fa	-0.13980094
30	0xbe3664cb	-0.17811887
31	0x3b5c1cc8	0.003358649
32	0x3c497444	0.012295786
33	0xbe02204e	-0.12707636
34	0xbd99df75	-0.07513324
35	0xbc12dd08	-0.008963831
36	0xbe365360	-0.17805243
37	0xbe249de6	-0.16075858
38	0x3dabe734	0.08393708
39	0xbde5c28b	-0.11218747
40	0xbd207102	-0.039170273
41	0x3d7578fc	0.059929833
42	0xbc82a783	-0.015949016
43	0xbd934593	-0.071910046
44	0xbbbefece	-0.005828715
45	0xbd80a0d8	-0.062806785
46	0xbd95e224	-0.073185235
47	0xbdbdc3ad	-0.09265838
48	0xbe02f821	-0.12789966
49	0xbb5de26f	-0.0033856889
50	0x3eb8882e	0.36041397
51	0x3e798010	0.24365258
52	0x3e57c3ca	0.21070781
53	0xbe1bee99	-0.15227737
54	0xbe0f8104	-0.1401406
55	0xbe21356e	-0.15743038
56	0x3e7194bb	0.23591892
57	0xbdf40d06	-0.119165465
58	0xbd8e3859	-0.06944341
59	0x3c4629c1	0.012094916
60	0xbe840175	-0.25782362
61	0x3dac2df6	0.08407204
62	0x3dc78b68	0.097433865
63	0xbd225559	-0.039632175
64	0x3ec6a2bc	0.3879603
65	0x3e289155	0.1646169
66	0xbe10a191	-0.14124133
67	0x3cc4aa23	0.024006909
68	0x3d15bf07	0.03655913
69	0x3d5e4277	0.054262605
70	0xbe8d4c11	-0.27597097
71	0xbd9d7eed	-0.07690225
72	0x3e09e743	0.13467126
73	0x3f04fdcb	0.5194976
74	0x3cc74d1d	0.024328763
75	0xbdd8e889	-0.105912276
76	0x3ede8057	0.4345729
77	0xbdbcf093	-0.092255734
78	0x3e2c243a	0.16810694
79	0x3e79f6c0	0.24410534
80	0x3dfa0207	0.12207418
81	0x3d5432be	0.051806204
82	0xbde64b2f	-0.11244809
83	0xbcc389cf	-0.023869423

cpu f8 [10]
0	0x3f81c796c0000000	0.008681466802954674
1	0x3f6e378b40000000	0.0036885947920382023
2	0x3f72fd3bc0000000	0.004636033438146114
3	0x3f7fbb7f40000000	0.007747170515358448
4	0x3f717c6400000000	0.004269018769264221
5	0x3f7ae1dfe0000000	0.006563066970556974
6	0x3f954faf00000000	0.0208117812871933
7	0x3f75a85880000000	0.005287500098347664
8	0x3f7d264ca0000000	0.007116603199392557
9	0x3f70f44680000000	0.0041392091661691666

cpu f4 [10]
0	0xbe694de6	-0.22783622
1	0xbf2813cf	-0.65655226
2	0xbece725b	-0.4032162
3	0xbd504aee	-0.05085271
4	0x3e74b5bd	0.23897453
5	0xbcb06c41	-0.021535994
6	0x3e4e17e9	0.20126309
7	0x3ddd2453	0.10797944
8	0x3f67107f	0.90259546
9	0xbdab9c84	-0.08379462

cpu f8 [6]
0	0x3f5953d3c0000000	0.0015458648558706045
1	0x3f5969fe00000000	0.0015511494129896164
2	0x3f58e6fbe0000000	0.0015199146000668406
3	0x3f58de85e0000000	0.0015178973553702235
4	0x3f58990f00000000	0.0015013357624411583
5	0x3f58eb4080000000	0.0015209321863949299

features.0.bias f4 [6]
0	0x3df471f0	0.11935794
1	0xbe23e355	-0.16004689
2	0x3e156030	0.14587474
3	0x3e336853	0.17520265
4	0xbe397937	-0.18112646
5	0xbd9031cd	-0.07040749

cpu f8 [16]
0	0x3f44de46e0000000	0.0006368490285240114
1	0x3f44ca3420000000	0.0006344561115838587
2	0x3f44f6bfc0000000	0.0006397663382813334
3	0x3f44eda4a0000000	0.0006386808236129582
4	0x3f44dc4d20000000	0.0006366135203279555
5	0x3f44f2ac80000000	0.0006392805371433496
6	0x3f44c0bc60000000	0.0006333274650387466
7	0x3f44ee8fe0000000	0.0006387903704307973
8	0x3f44a3acc0000000	0.0006298631196841598
9	0x3f44f9c3c0000000	0.000640125828795135
10	0x3f44e1c980000000	0.0006372674833983183
11	0x3f44e90a40000000	0.0006381320999935269
12	0x3f44de8e60000000	0.0006368823233060539
13	0x3f44cf2560000000	0.0006350452895276248
14	0x3f44a692e0000000	0.000630208698567003
15	0x3f44b9ed20000000	0.0006325157009996474

features.3.bias f4 [16]
0	0x3d21c933	0.03949852
1	0xbc523189	-0.012829193
2	0x3c41b506	0.0118229445
3	0xbd977afe	-0.07396506
4	0x3cc8c961	0.024510087
5	0x3d7d67cf	0.061866578
6	0xbd658401	-0.05603409
7	0x3d1a5ec6	0.03768804
8	0x3d38e395	0.045138914
9	0xbcb47176	-0.022026759
10	0x3c301759	0.010747754
11	0x3d7e85d9	0.062139366
12	0xbd47e9c3	-0.048806917
13	0x3c1df391	0.00964059
14	0xbd79c1bd	-0.06097578
15	0xbd9d1036	-0.076691076

cpu f8 [120]
0	0x3f39a21f00000000	0.00039113289676606655
1	0x3f39a94c80000000	0.00039156072307378054
2	0x3f39a3cfc0000000	0.00039123365422710776
3	0x3f39ab0a00000000	0.00039166444912552834
4	0x3f399f3f80000000	0.00039096164982765913
5	0x3f39a78680000000	0.0003914550179615617
6	0x3f39b0f9a0000000	0.00039201826439239085
7	0x3f39a232e0000000	0.00039113752427510917
8	0x3f3999df20000000	0.00039064118755050004
9	0x3f39ae0ae0000000	0.0003918434667866677
10	0x3f3992d520000000	0.00039022162673063576
11	0x3f399c5500000000	0.0003907878417521715
12	0x3f39ab8c20000000	0.0003916947462130338
13	0x3f398563a0000000	0.00038942034007050097
14	0x3f39b24980000000	0.0003920964663848281
15	0x3f39ac1960000000	0.0003917276335414499
16	0x3f39aec420000000	0.0003918865986634046
17	0x3f3995c8c0000000	0.0003903975593857467
18	0x3f39ad7e20000000	0.0003918106958735734
19	0x3f399a8560000000	0.0003906798956450075
20	0x3f39a5f660000000	0.0003913618566002697
21	0x3f398fa880000000	0.00039003242272883654
22	0x3f39adc820000000	0.0003918279253412038
23	0x3f39a97860000000	0.00039157093851827085
24	0x3f399bc520000000	0.0003907543432433158
25	0x3f39959a80000000	0.0003903867909684777
26	0x3f39a7e840000000	0.00039147777715697885
27	0x3f39a1c600000000	0.00039111217483878136
28	0x3f39afccc0000000	0.0003919482114724815
29	0x3f39b073e0000000	0.00039198712329380214
30	0x3f39afcf20000000	0.00039194876444526017
31	0x3f3972dfe0000000	0.00038831678102724254
32	0x3f39a3ea40000000	0.0003912398242391646
33	0x3f39aaf9a0000000	0.0003916606365237385
34	0x3f39aa10c0000000	0.0003916064160875976
35	0x3f39a05bc0000000	0.00039102783193811774
36	0x3f39a2d6c0000000	0.00039117567939683795
37	0x3f39a64a40000000	0.00039138138527050614
38	0x3f39acde40000000	0.00039177347207441926
39	0x3f39979680000000	0.0003905050689354539
40	0x3f39b10540000000	0.0003920209710486233
41	0x3f39ad9400000000	0.00039181578904390335
42	0x3f398d4840000000	0.00038989080348983407
43	0x3f39a33080000000	0.0003911965759471059
44	0x3f399a3720000000	0.0003906616766471416
45	0x3f39b08920000000	0.0003919920709449798
46	0x3f39a9e480000000	0.0003915961133316159
47	0x3f39a24040000000	0.00039114063838496804
48	0x3f39b2da80000000	0.0003921302268281579
49	0x3f39a49ca0000000	0.00039128135540522635
50	0x3f39a94740000000	0.00039155950071290135
51	0x3f39ac96a0000000	0.00039175679557956755
52	0x3f39b111c0000000	0.000392023881431669
53	0x3f39ae0340000000	0.00039184169145300984
54	0x3f39924ca0000000	0.000390189845347777
55	0x3f39ae85e0000000	0.00039187210495583713
56	0x3f39a59680000000	0.00039133953396230936
57	0x3f39af53a0000000	0.0003919200098607689
58	0x3f398322c0000000	0.00038928602589294314
59	0x3f39a5c5a0000000	0.00039135050610639155
60	0x3f39a31680000000	0.0003911905223503709
61	0x3f3972c860000000	0.0003883113095071167
62	0x3f3997d2e0000000	0.0003905191260855645
63	0x3f39a8a480000000	0.0003915216075256467
64	0x3f397ae6e0000000	0.00038879524799995124
65	0x3f399501a0000000	0.00039035119698382914
66	0x3f39a9eec0000000	0.0003915984998457134
67	0x3f39b0b720000000	0.00039200278115458786
68	0x3f39ae93e0000000	0.0003918753645848483
69	0x3f39aacdc0000000	0.0003916504210792482
70	0x3f39a667a0000000	0.0003913882246706635
71	0x3f396860c0000000	0.00038769113598391414
72	0x3f39a77080000000	0.0003914498956874013
73	0x3f39b2ac00000000	0.000392119400203228
74	0x3f398ae840000000	0.0003897492424584925
75	0x3f399788c0000000	0.00039050186751410365
76	0x3f3991e2c0000000	0.00039016519440338016
77	0x3f398080e0000000	0.0003891291271429509
78	0x3f39ac3d40000000	0.000391735986340791
79	0x3f39a44940000000	0.0003912619431503117
80	0x3f39aacd20000000	0.0003916502755600959
81	0x3f398db5c0000000	0.00038991629844531417
82	0x3f3990e720000000	0.00039010660839267075
83	0x3f39a931a0000000	0.00039155446575023234
84	0x3f39987fc0000000	0.00039055937668308616
85	0x3f399bb6a0000000	0.00039075096719898283
86	0x3f399dc660000000	0.00039087384357117116
87	0x3f39ac5da0000000	0.0003917435242328793
88	0x3f39a0d320000000	0.0003910556260962039
89	0x3f3984dbc0000000	0.0003893887042067945
90	0x3f39af9580000000	0.0003919353475794196
91	0x3f3989d380000000	0.0003896848065778613
92	0x3f39b2afe0000000	0.00039212030242197216
93	0x3f3983c360000000	0.00038932342431508005
94	0x3f39a5fb60000000	0.00039136302075348794
95	0x3f39a48780000000	0.00039127643685787916
96	0x3f39957220000000	0.0003903773904312402
97	0x3f39a3c7c0000000	0.00039123179158195853
98	0x3f3989eac0000000	0.00038969021989032626
99	0x3f39b1cdc0000000	0.0003920676535926759
100	0x3f39ab32a0000000	0.0003916739078704268
101	0x3f39aa50c0000000	0.00039162131724879146
102	0x3f399c0c40000000	0.0003907709033228457
103	0x3f3995e540000000	0.00039040419505909085
104	0x3f39a27ae0000000	0.00039115428808145225
105	0x3f39add580000000	0.0003918310394510627
106	0x3f3983cb20000000	0.00038932522875256836
107	0x3f39b31560000000	0.000392143934732303
108	0x3f399e3e80000000	0.0003909018123522401
109	0x3f39ae5e40000000	0.00039186287904158235
110	0x3f39b17580000000	0.00039204710628837347
111	0x3f39b2ede0000000	0.0003921347379218787
112	0x3f39af9380000000	0.0003919348819181323
113	0x3f39af84c0000000	0.0003919314476661384
114	0x3f39b1e920000000	0.00039207402733154595
115	0x3f398ec460000000	0.000389979308238253
116	0x3f39ab01e0000000	0.00039166255737654865
117	0x3f39a06840000000	0.0003910307423211634
118	0x3f39aab420000000	0.00039164445479400456
119	0x3f39b190a0000000	0.0003920534218195826

features.6.bias f4 [120]
0	0x3d2355eb	0.03987686
1	0x3c88dd0a	0.016706962
2	0x3d44d63f	0.048055883
3	0xbc11ad9a	-0.0088914875
4	0xbcb4fc20	-0.022092879
5	0xbcc023b7	-0.02345453
6	0x3baff84d	0.005370176
7	0xbc9186a3	-0.017764395
8	0xbd3922f8	-0.045199364
9	0x3bb0fdc0	0.005401343
10	0x3d388038	0.045044154
11	0x3d1ea3df	0.0387305
12	0xbcf5cd4a	-0.030005116
13	0xbd4bc887	-0.049751785
14	0x3bf8b240	0.0075896084
15	0x3c678220	0.014130145
16	0xbd06259f	-0.032750722
17	0x3b09d0cd	0.0021028996
18	0xbcfdcc5a	-0.030981231
19	0x3d1f80a2	0.038941033
20	0xbc03fc6d	-0.008055788
21	0x3c3c8cc0	0.011508167
22	0xbd02ceaa	-0.03193537
23	0xbd219273	-0.039446305
24	0xbd31f83d	-0.04344963
25	0x3c2f08f3	0.010683286
26	0xbcf89170	-0.030342788
27	0x3d1b5847	0.037925985
28	0x3d0d9aa5	0.03457131
29	0xbd416ea2	-0.04722465
30	0x3d091ec5	0.03347661
31	0x3cd34d57	0.025793714
32	0x3c2a65ed	0.010400278
33	0x3c9ec5b3	0.01938138
34	0x39348e67	0.00017219187
35	0x3b69341a	0.0035584033
36	0x3d1a1e38	0.037626475
37	0xbc50d82d	-0.012746853
38	0xbbc4da9a	-0.0060075046
39	0xbcceae67	-0.025229646
40	0x3cb5723d	0.0221492
41	0x3d38937a	0.04506252
42	0x3b0677cd	0.0020518184
43	0xbd0962ab	-0.033541363
44	0xbcb6672a	-0.02226599
45	0xbd303928	-0.04302326
46	0x3d443322	0.047900327
47	0xbcd75c5a	-0.026289154
48	0xbd2496c8	-0.04018286
49	0x3d1926cb	0.03739051
50	0x3cd0a220	0.025467932
51	0x3c6e49e7	0.014543987
52	0xbd427ea0	-0.04748404
53	0xbd2bac2d	-0.041912246
54	0xbcb866ad	-0.022509897
55	0x3d172112	0.036896773
56	0xbab85a67	-0.0014065028
57	0x3d33c900	0.04389286
58	0x3b22124d	0.0024730146
59	0xbac8dbcd	-0.0015324295
60	0x3cd0cfaa	0.025489647
61	0x3d0593cd	0.032611657
62	0xbd21ad4d	-0.039471913
63	0xbb476b00	-0.0030428767
64	0x3d2a7963	0.04161967
65	0x3d1e7fbd	0.03869604
66	0x3c7d1fba	0.015449459
67	0x3d466c75	0.048443276
68	0x3c0bedfa	0.008540625
69	0x3d34a1ba	0.044099547
70	0x3cc4367d	0.023951763
71	0x3d26e4a0	0.040745378
72	0xbcb2055d	-0.021731073
73	0xbc430aed	-0.01190446
74	0x3cf330b7	0.029686315
75	0xbcc3bc57	-0.023893518
76	0xbc387aed	-0.011259777
77	0x3aca2c00	0.001542449
78	0xbd17d602	-0.037069328
79	0x3d03578b	0.03206591
80	0x3c57a7d3	0.013162571
81	0xbd0390d7	-0.032120552
82	0x3c80bd6d	0.015715325
83	0x3c95107a	0.018196333
84	0x3c863aed	0.01638552
85	0xbd2c8aaa	-0.042124428
86	0xbd2ad3fd	-0.041706074
87	0x3d3531e7	0.044237044
88	0xbc096660	-0.0083862245
89	0x3cee2bcd	0.02907362
90	0x39d49733	0.00040548443
91	0xbd39559b	-0.045247655
92	0x3d4a013d	0.049317587
93	0x3d2f9482	0.042866237
94	0xbce6a9f3	-0.02815721
95	0x3cb85210	0.022500068
96	0x3cf5fdd7	0.030028267
97	0x3c16143a	0.009160096
98	0x3d30359a	0.04301987
99	0xbd1bc680	-0.0380311
100	0x3d228a15	0.039682467
101	0xbcb33f40	-0.021880746
102	0x3cc96d00	0.024588108
103	0xbce297f0	-0.02766034
104	0xbd0ce497	-0.034397688
105	0xbbccd40d	-0.0062508644
106	0xbc089fed	-0.0083389105
107	0xbc6ed8ba	-0.014578039
108	0x3c96d8d7	0.018413944
109	0xbd09bd05	-0.03362753
110	0x3b87f7a7	0.0041493955
111	0x3d216880	0.0394063
112	0x3cc8f50d	0.024530912
113	0x3d45ff65	0.048339266
114	0xbb9ce167	-0.0047876122
115	0x3cc4fb80	0.024045706
116	0x3d4201b5	0.04736491
117	0xbc56951a	-0.013097072
118	0xbc27d4c0	-0.010243595
119	0xbd2a24ea	-0.04153911

cpu f8 [84]
0	0x3f47582d20000000	0.0007124157273210585
1	0x3f47028020000000	0.0007022023783065379
2	0x3f476d3920000000	0.0007149247103370726
3	0x3f473d53e0000000	0.0007092151208780706
4	0x3f474e63c0000000	0.0007112490711733699
5	0x3f4753dee0000000	0.0007119024521671236
6	0x3f47746c80000000	0.0007157830987125635
7	0x3f47338bc0000000	0.0007080490468069911
8	0x3f476a94e0000000	0.0007146098068915308
9	0x3f46f20320000000	0.0007002368220128119
10	0x3f47713560000000	0.0007153998012654483
11	0x3f4771c0a0000000	0.0007154646445997059
12	0x3f47263e00000000	0.0007064631208777428
13	0x3f47453dc0000000	0.0007101584924384952
14	0x3f47552b80000000	0.0007120573427528143
15	0x3f475e13e0000000	0.0007131192251108587
16	0x3f473942a0000000	0.0007087302510626614
17	0x3f475dc480000000	0.0007130822632461786
18	0x3f47562b80000000	0.0007121765520423651
19	0x3f477050a0000000	0.0007152932812459767
20	0x3f476262e0000000	0.0007136328495107591
21	0x3f46d09dc0000000	0.0006962557090446353
22	0x3f47435680000000	0.0007099315989762545
23	0x3f47547d40000000	0.0007119762012735009
24	0x3f47205700000000	0.0007057595066726208
25	0x3f47729440000000	0.0007155631901696324
26	0x3f474c2ac0000000	0.0007109841099008918
27	0x3f4758dbe0000000	0.0007124971016310155
28	0x3f4759bf80000000	0.000712603097781539
29	0x3f47527160000000	0.0007117322529666126
30	0x3f47456160000000	0.0007101750816218555
31	0x3f47521c60000000	0.0007116926717571914
32	0x3f47646b00000000	0.00071387505158782
33	0x3f474ebf00000000	0.0007112915627658367
34	0x3f470c8ce0000000	0.0007034004083834589
35	0x3f476eefe0000000	0.0007151290192268789
36	0x3f47693320000000	0.0007144450792111456
37	0x3f46e05e80000000	0.0006981336046010256
38	0x3f474cc9e0000000	0.0007110582082532346
39	0x3f4731ca40000000	0.0007078397320583463
40	0x3f475bd3c0000000	0.0007128509460017085
41	0x3f47071c00000000	0.0007027518004179001
42	0x3f4752ccc0000000	0.0007117748027667403
43	0x3f4746a9e0000000	0.0007103280513547361
44	0x3f476022a0000000	0.000713364512193948
45	0x3f476f1760000000	0.0007151474128477275
46	0x3f47143920000000	0.0007043150835670531
47	0x3f476dd440000000	0.0007149969460442662
48	0x3f4750e200000000	0.000711546279489994
49	0x3f46a474a0000000	0.0006909913499839604
50	0x3f4741cf40000000	0.0007097494089975953
51	0x3f474c2500000000	0.0007109814323484898
52	0x3f471e4e80000000	0.0007055171299725771
53	0x3f472fe500000000	0.0007076137699186802
54	0x3f476b60c0000000	0.0007147047435864806
55	0x3f47657200000000	0.000713997520506382
56	0x3f470a99e0000000	0.0007031680434010923
57	0x3f47639680000000	0.0007137760985642672
58	0x3f470f3280000000	0.0007037159521132708
59	0x3f4768f860000000	0.0007144177216105163
60	0x3f473e8000000000	0.0007093548774719238
61	0x3f47560ac0000000	0.0007121613016352057
62	0x3f46d284e0000000	0.0006964825442992151
63	0x3f4770bba0000000	0.0007153431070037186
64	0x3f475e29a0000000	0.0007131293532438576
65	0x3f47289f40000000	0.000706746825017035
66	0x3f47743f60000000	0.0007157620857469738
67	0x3f471f3c40000000	0.0007056278409436345
68	0x3f46fb10c0000000	0.0007013160502538085
69	0x3f472596a0000000	0.0007063851808197796
70	0x3f4774c540000000	0.0007158244261518121
71	0x3f473fb6c0000000	0.0007094995817169547
72	0x3f4742bfe0000000	0.0007098614587448537
73	0x3f476ac020000000	0.0007146299467422068
74	0x3f473f08c0000000	0.0007094185566529632
75	0x3f4750e200000000	0.000711546279489994
76	0x3f47047ba0000000	0.0007024387014098465
77	0x3f47708a20000000	0.0007153200567699969
78	0x3f473fda80000000	0.000709516229107976
79	0x3f46d9b020000000	0.0006973371491767466
80	0x3f46e13380000000	0.0006982327904552221
81	0x3f47488ec0000000	0.0007105538388714194
82	0x3f4751c760000000	0.0007116530905477703
83	0x3f47639a00000000	0.0007137777283787727

cpu f4 [84]
0	0xbd5280b3	-0.05139227
1	0xbd012f7d	-0.03153943
2	0x3d79c27f	0.0609765
3	0xbb368119	-0.0027847944
4	0x3d59816b	0.05310194
5	0xbce6dae0	-0.02818054
6	0xbd9fc1e5	-0.07800654
7	0xbd629bfa	-0.055324532
8	0xbbd312bf	-0.0064414437
9	0xbcf4e48d	-0.029894138
10	0x3d99c643	0.075085185
11	0x3d5a0ea6	0.053236626
12	0xbd92a323	-0.07160022
13	0xbdad87d5	-0.084731735
14	0xbd263c26	-0.040584706
15	0x3becd885	0.0072279596
16	0xbaef1458	-0.0018240316
17	0x3d81e236	0.063419744
18	0x3db3e6b0	0.087842345
19	0x3d8876fa	0.06663318
20	0xbd5e329e	-0.05424749
21	0x3d4ae17c	0.049531445
22	0xbd3d3b5b	-0.046199184
23	0xbda577e6	-0.080795094
24	0x3d0073b9	0.03136036
25	0x3d086da7	0.033307698
26	0x3d801cc8	0.062554896
27	0xbcacfec5	-0.021117577
28	0x3d725808	0.059165984
29	0xbd43a6f5	-0.047766645
30	0xbd2b690b	-0.041848224
31	0x3c9cc081	0.019134762
32	0xbcb2d72b	-0.021831116
33	0xbd2b2d46	-0.041791223
34	0xbd8b18ef	-0.06791865
35	0x3c66ca9a	0.01408639
36	0xbd3b4f57	-0.04572996
37	0xbc60bd24	-0.01371697
38	0x39cca02f	0.00039029258
39	0xbc6d7dd8	-0.0144953355
40	0xbd1d9df2	-0.038480707
41	0xbd949cb8	-0.07256454
42	0x3daeef13	0.085416935
43	0xbc9c4039	-0.019073592
44	0xbdb9cd44	-0.090723544
45	0xbd1933b2	-0.037402816
46	0xbd4fb3fb	-0.050708752
47	0x3c8da4e0	0.017290533
48	0xbd925c78	-0.07146543
49	0xbbcbcf98	-0.0062198155
50	0xbd9a9d0d	-0.07549486
51	0xbda4e1bb	-0.08050867
52	0x3bfab291	0.0076506813
53	0xbd570d0e	-0.052502684
54	0xbcb86c6e	-0.02251264
55	0xbd57ccf6	-0.0526857
56	0x3d7ded0c	0.061993644
57	0xbd92d060	-0.071686506
58	0xbd28cd01	-0.041211132
59	0xbd4b2154	-0.04959233
60	0x3ca6ec26	0.020376276
61	0xbd8fee9d	-0.07027934
62	0x3d163ffd	0.036682118
63	0xbd8f551d	-0.06998656
64	0xbbaccfa4	-0.005273776
65	0x3daa5ffb	0.08319088
66	0x3d389241	0.045061354
67	0x3d43f39a	0.04783974
68	0xbd35a5d4	-0.0443476
69	0xbd8ec572	-0.069712535
70	0x3db611d2	0.08890118
71	0x3d52e607	0.051488902
72	0xbd22d9a1	-0.03975833
73	0x3d70998f	0.058740195
74	0x3d28efb1	0.041244213
75	0xbd8b3b7d	-0.06798456
76	0xbccd63ca	-0.025071997
77	0xbd3ec79f	-0.046577092
78	0xbd9b1548	-0.075724185
79	0x3c1d53dd	0.009602514
80	0xbd56721b	-0.052354913
81	0x3d278912	0.040902205
82	0xbd08a915	-0.033364374
83	0xbb91862c	-0.0044410434

cpu f8 [10]
0	0x3f4c020ce0000000	0.0008547366014681756
1	0x3f4ae90480000000	0.0008212348911911249
2	0x3f4b6ee140000000	0.000837192521430552
3	0x3f4b63f5c0000000	0.0008358907653018832
4	0x3f4bea19c0000000	0.000851881573908031
5	0x3f4c05ec60000000	0.0008551983046345413
6	0x3f4b145980000000	0.0008264004718512297
7	0x3f4b921220000000	0.0008413876057602465
8	0x3f4bd0c940000000	0.0008488638559356332
9	0x3f4bf38620000000	0.000853004923556

cpu f4 [10]
0	0x3d6d3312	0.057910033
1	0xbda18d89	-0.07888324
2	0x3d8d7d03	0.0690861
3	0x3dac6625	0.0841792
4	0xbd935958	-0.07194775
5	0x3db8e678	0.090283334
6	0x3cbc75a1	0.023005309
7	0x3dd8837f	0.10571956
8	0x3dc79f4f	0.097471826
9	0x3d86b885	0.06578163
